{"modelTopology": {"keras_version": "2.2.2", "backend": "tensorflow", "model_config": {"class_name": "Model", "config": {"name": "model_12", "layers": [{"name": "input_13", "class_name": "InputLayer", "config": {"batch_input_shape": [null, 224, 224, 3], "dtype": "float32", "sparse": false, "name": "input_13"}, "inbound_nodes": []}, {"name": "stem_conv1", "class_name": "Conv2D", "config": {"name": "stem_conv1", "trainable": false, "filters": 32, "kernel_size": [3, 3], "strides": [2, 2], "padding": "valid", "data_format": "channels_last", "dilation_rate": [1, 1], "activation": "linear", "use_bias": false, "kernel_initializer": {"class_name": "VarianceScaling", "config": {"scale": 2.0, "mode": "fan_in", "distribution": "normal", "seed": null}}, "bias_initializer": {"class_name": "Zeros", "config": {}}, "kernel_regularizer": null, "bias_regularizer": null, "activity_regularizer": null, "kernel_constraint": null, "bias_constraint": null}, "inbound_nodes": [[["input_13", 0, 0, {}]]]}, {"name": "stem_bn1", "class_name": "BatchNormalization", "config": {"name": "stem_bn1", "trainable": false, "axis": -1, "momentum": 0.9997, "epsilon": 0.001, "center": true, "scale": true, "beta_initializer": {"class_name": "Zeros", "config": {}}, "gamma_initializer": {"class_name": "Ones", "config": {}}, "moving_mean_initializer": {"class_name": "Zeros", "config": {}}, "moving_variance_initializer": {"class_name": "Ones", "config": {}}, "beta_regularizer": null, "gamma_regularizer": null, "beta_constraint": null, "gamma_constraint": null}, "inbound_nodes": [[["stem_conv1", 0, 0, {}]]]}, {"name": "activation_298", "class_name": "Activation", "config": {"name": "activation_298", "trainable": false, "activation": "relu"}, "inbound_nodes": [[["stem_bn1", 0, 0, {}]]]}, {"name": "reduction_conv_1_stem_1", "class_name": "Conv2D", "config": {"name": "reduction_conv_1_stem_1", "trainable": false, "filters": 11, "kernel_size": [1, 1], "strides": [1, 1], "padding": "same", "data_format": "channels_last", "dilation_rate": [1, 1], "activation": "linear", "use_bias": false, "kernel_initializer": {"class_name": "VarianceScaling", "config": {"scale": 2.0, "mode": "fan_in", "distribution": "normal", "seed": null}}, "bias_initializer": {"class_name": "Zeros", "config": {}}, "kernel_regularizer": null, "bias_regularizer": null, "activity_regularizer": null, "kernel_constraint": null, "bias_constraint": null}, "inbound_nodes": [[["activation_298", 0, 0, {}]]]}, {"name": "reduction_bn_1_stem_1", "class_name": "BatchNormalization", "config": {"name": "reduction_bn_1_stem_1", "trainable": false, "axis": -1, "momentum": 0.9997, "epsilon": 0.001, "center": true, "scale": true, "beta_initializer": {"class_name": "Zeros", "config": {}}, "gamma_initializer": {"class_name": "Ones", "config": {}}, "moving_mean_initializer": {"class_name": "Zeros", "config": {}}, "moving_variance_initializer": {"class_name": "Ones", "config": {}}, "beta_regularizer": null, "gamma_regularizer": null, "beta_constraint": null, "gamma_constraint": null}, "inbound_nodes": [[["reduction_conv_1_stem_1", 0, 0, {}]]]}, {"name": "activation_299", "class_name": "Activation", "config": {"name": "activation_299", "trainable": false, "activation": "relu"}, "inbound_nodes": [[["reduction_bn_1_stem_1", 0, 0, {}]]]}, {"name": "activation_301", "class_name": "Activation", "config": {"name": "activation_301", "trainable": false, "activation": "relu"}, "inbound_nodes": [[["stem_bn1", 0, 0, {}]]]}, {"name": "separable_conv_1_pad_reduction_left1_stem_1", "class_name": "ZeroPadding2D", "config": {"name": "separable_conv_1_pad_reduction_left1_stem_1", "trainable": false, "padding": [[2, 2], [2, 2]], "data_format": "channels_last"}, "inbound_nodes": [[["activation_299", 0, 0, {}]]]}, {"name": "separable_conv_1_pad_reduction_right1_stem_1", "class_name": "ZeroPadding2D", "config": {"name": "separable_conv_1_pad_reduction_right1_stem_1", "trainable": false, "padding": [[3, 3], [3, 3]], "data_format": "channels_last"}, "inbound_nodes": [[["activation_301", 0, 0, {}]]]}, {"name": "separable_conv_1_reduction_left1_stem_1", "class_name": "SeparableConv2D", "config": {"name": "separable_conv_1_reduction_left1_stem_1", "trainable": false, "filters": 11, "kernel_size": [5, 5], "strides": [2, 2], "padding": "valid", "data_format": "channels_last", "dilation_rate": [1, 1], "activation": "linear", "use_bias": false, "bias_initializer": {"class_name": "Zeros", "config": {}}, "bias_regularizer": null, "activity_regularizer": null, "bias_constraint": null, "depth_multiplier": 1, "depthwise_initializer": {"class_name": "VarianceScaling", "config": {"scale": 1.0, "mode": "fan_avg", "distribution": "uniform", "seed": null}}, "pointwise_initializer": {"class_name": "VarianceScaling", "config": {"scale": 1.0, "mode": "fan_avg", "distribution": "uniform", "seed": null}}, "depthwise_regularizer": null, "pointwise_regularizer": null, "depthwise_constraint": null, "pointwise_constraint": null}, "inbound_nodes": [[["separable_conv_1_pad_reduction_left1_stem_1", 0, 0, {}]]]}, {"name": "separable_conv_1_reduction_right1_stem_1", "class_name": "SeparableConv2D", "config": {"name": "separable_conv_1_reduction_right1_stem_1", "trainable": false, "filters": 11, "kernel_size": [7, 7], "strides": [2, 2], "padding": "valid", "data_format": "channels_last", "dilation_rate": [1, 1], "activation": "linear", "use_bias": false, "bias_initializer": {"class_name": "Zeros", "config": {}}, "bias_regularizer": null, "activity_regularizer": null, "bias_constraint": null, "depth_multiplier": 1, "depthwise_initializer": {"class_name": "VarianceScaling", "config": {"scale": 1.0, "mode": "fan_avg", "distribution": "uniform", "seed": null}}, "pointwise_initializer": {"class_name": "VarianceScaling", "config": {"scale": 1.0, "mode": "fan_avg", "distribution": "uniform", "seed": null}}, "depthwise_regularizer": null, "pointwise_regularizer": null, "depthwise_constraint": null, "pointwise_constraint": null}, "inbound_nodes": [[["separable_conv_1_pad_reduction_right1_stem_1", 0, 0, {}]]]}, {"name": "separable_conv_1_bn_reduction_left1_stem_1", "class_name": "BatchNormalization", "config": {"name": "separable_conv_1_bn_reduction_left1_stem_1", "trainable": false, "axis": -1, "momentum": 0.9997, "epsilon": 0.001, "center": true, "scale": true, "beta_initializer": {"class_name": "Zeros", "config": {}}, "gamma_initializer": {"class_name": "Ones", "config": {}}, "moving_mean_initializer": {"class_name": "Zeros", "config": {}}, "moving_variance_initializer": {"class_name": "Ones", "config": {}}, "beta_regularizer": null, "gamma_regularizer": null, "beta_constraint": null, "gamma_constraint": null}, "inbound_nodes": [[["separable_conv_1_reduction_left1_stem_1", 0, 0, {}]]]}, {"name": "separable_conv_1_bn_reduction_right1_stem_1", "class_name": "BatchNormalization", "config": {"name": "separable_conv_1_bn_reduction_right1_stem_1", "trainable": false, "axis": -1, "momentum": 0.9997, "epsilon": 0.001, "center": true, "scale": true, "beta_initializer": {"class_name": "Zeros", "config": {}}, "gamma_initializer": {"class_name": "Ones", "config": {}}, "moving_mean_initializer": {"class_name": "Zeros", "config": {}}, "moving_variance_initializer": {"class_name": "Ones", "config": {}}, "beta_regularizer": null, "gamma_regularizer": null, "beta_constraint": null, "gamma_constraint": null}, "inbound_nodes": [[["separable_conv_1_reduction_right1_stem_1", 0, 0, {}]]]}, {"name": "activation_300", "class_name": "Activation", "config": {"name": "activation_300", "trainable": false, "activation": "relu"}, "inbound_nodes": [[["separable_conv_1_bn_reduction_left1_stem_1", 0, 0, {}]]]}, {"name": "activation_302", "class_name": "Activation", "config": {"name": "activation_302", "trainable": false, "activation": "relu"}, "inbound_nodes": [[["separable_conv_1_bn_reduction_right1_stem_1", 0, 0, {}]]]}, {"name": "separable_conv_2_reduction_left1_stem_1", "class_name": "SeparableConv2D", "config": {"name": "separable_conv_2_reduction_left1_stem_1", "trainable": false, "filters": 11, "kernel_size": [5, 5], "strides": [1, 1], "padding": "same", "data_format": "channels_last", "dilation_rate": [1, 1], "activation": "linear", "use_bias": false, "bias_initializer": {"class_name": "Zeros", "config": {}}, "bias_regularizer": null, "activity_regularizer": null, "bias_constraint": null, "depth_multiplier": 1, "depthwise_initializer": {"class_name": "VarianceScaling", "config": {"scale": 1.0, "mode": "fan_avg", "distribution": "uniform", "seed": null}}, "pointwise_initializer": {"class_name": "VarianceScaling", "config": {"scale": 1.0, "mode": "fan_avg", "distribution": "uniform", "seed": null}}, "depthwise_regularizer": null, "pointwise_regularizer": null, "depthwise_constraint": null, "pointwise_constraint": null}, "inbound_nodes": [[["activation_300", 0, 0, {}]]]}, {"name": "separable_conv_2_reduction_right1_stem_1", "class_name": "SeparableConv2D", "config": {"name": "separable_conv_2_reduction_right1_stem_1", "trainable": false, "filters": 11, "kernel_size": [7, 7], "strides": [1, 1], "padding": "same", "data_format": "channels_last", "dilation_rate": [1, 1], "activation": "linear", "use_bias": false, "bias_initializer": {"class_name": "Zeros", "config": {}}, "bias_regularizer": null, "activity_regularizer": null, "bias_constraint": null, "depth_multiplier": 1, "depthwise_initializer": {"class_name": "VarianceScaling", "config": {"scale": 1.0, "mode": "fan_avg", "distribution": "uniform", "seed": null}}, "pointwise_initializer": {"class_name": "VarianceScaling", "config": {"scale": 1.0, "mode": "fan_avg", "distribution": "uniform", "seed": null}}, "depthwise_regularizer": null, "pointwise_regularizer": null, "depthwise_constraint": null, "pointwise_constraint": null}, "inbound_nodes": [[["activation_302", 0, 0, {}]]]}, {"name": "activation_303", "class_name": "Activation", "config": {"name": "activation_303", "trainable": false, "activation": "relu"}, "inbound_nodes": [[["stem_bn1", 0, 0, {}]]]}, {"name": "separable_conv_2_bn_reduction_left1_stem_1", "class_name": "BatchNormalization", "config": {"name": "separable_conv_2_bn_reduction_left1_stem_1", "trainable": false, "axis": -1, "momentum": 0.9997, "epsilon": 0.001, "center": true, "scale": true, "beta_initializer": {"class_name": "Zeros", "config": {}}, "gamma_initializer": {"class_name": "Ones", "config": {}}, "moving_mean_initializer": {"class_name": "Zeros", "config": {}}, "moving_variance_initializer": {"class_name": "Ones", "config": {}}, "beta_regularizer": null, "gamma_regularizer": null, "beta_constraint": null, "gamma_constraint": null}, "inbound_nodes": [[["separable_conv_2_reduction_left1_stem_1", 0, 0, {}]]]}, {"name": "separable_conv_2_bn_reduction_right1_stem_1", "class_name": "BatchNormalization", "config": {"name": "separable_conv_2_bn_reduction_right1_stem_1", "trainable": false, "axis": -1, "momentum": 0.9997, "epsilon": 0.001, "center": true, "scale": true, "beta_initializer": {"class_name": "Zeros", "config": {}}, "gamma_initializer": {"class_name": "Ones", "config": {}}, "moving_mean_initializer": {"class_name": "Zeros", "config": {}}, "moving_variance_initializer": {"class_name": "Ones", "config": {}}, "beta_regularizer": null, "gamma_regularizer": null, "beta_constraint": null, "gamma_constraint": null}, "inbound_nodes": [[["separable_conv_2_reduction_right1_stem_1", 0, 0, {}]]]}, {"name": "separable_conv_1_pad_reduction_right2_stem_1", "class_name": "ZeroPadding2D", "config": {"name": "separable_conv_1_pad_reduction_right2_stem_1", "trainable": false, "padding": [[3, 3], [3, 3]], "data_format": "channels_last"}, "inbound_nodes": [[["activation_303", 0, 0, {}]]]}, {"name": "activation_305", "class_name": "Activation", "config": {"name": "activation_305", "trainable": false, "activation": "relu"}, "inbound_nodes": [[["stem_bn1", 0, 0, {}]]]}, {"name": "reduction_add_1_stem_1", "class_name": "Add", "config": {"name": "reduction_add_1_stem_1", "trainable": false}, "inbound_nodes": [[["separable_conv_2_bn_reduction_left1_stem_1", 0, 0, {}], ["separable_conv_2_bn_reduction_right1_stem_1", 0, 0, {}]]]}, {"name": "separable_conv_1_reduction_right2_stem_1", "class_name": "SeparableConv2D", "config": {"name": "separable_conv_1_reduction_right2_stem_1", "trainable": false, "filters": 11, "kernel_size": [7, 7], "strides": [2, 2], "padding": "valid", "data_format": "channels_last", "dilation_rate": [1, 1], "activation": "linear", "use_bias": false, "bias_initializer": {"class_name": "Zeros", "config": {}}, "bias_regularizer": null, "activity_regularizer": null, "bias_constraint": null, "depth_multiplier": 1, "depthwise_initializer": {"class_name": "VarianceScaling", "config": {"scale": 1.0, "mode": "fan_avg", "distribution": "uniform", "seed": null}}, "pointwise_initializer": {"class_name": "VarianceScaling", "config": {"scale": 1.0, "mode": "fan_avg", "distribution": "uniform", "seed": null}}, "depthwise_regularizer": null, "pointwise_regularizer": null, "depthwise_constraint": null, "pointwise_constraint": null}, "inbound_nodes": [[["separable_conv_1_pad_reduction_right2_stem_1", 0, 0, {}]]]}, {"name": "separable_conv_1_pad_reduction_right3_stem_1", "class_name": "ZeroPadding2D", "config": {"name": "separable_conv_1_pad_reduction_right3_stem_1", "trainable": false, "padding": [[2, 2], [2, 2]], "data_format": "channels_last"}, "inbound_nodes": [[["activation_305", 0, 0, {}]]]}, {"name": "activation_307", "class_name": "Activation", "config": {"name": "activation_307", "trainable": false, "activation": "relu"}, "inbound_nodes": [[["reduction_add_1_stem_1", 0, 0, {}]]]}, {"name": "separable_conv_1_bn_reduction_right2_stem_1", "class_name": "BatchNormalization", "config": {"name": "separable_conv_1_bn_reduction_right2_stem_1", "trainable": false, "axis": -1, "momentum": 0.9997, "epsilon": 0.001, "center": true, "scale": true, "beta_initializer": {"class_name": "Zeros", "config": {}}, "gamma_initializer": {"class_name": "Ones", "config": {}}, "moving_mean_initializer": {"class_name": "Zeros", "config": {}}, "moving_variance_initializer": {"class_name": "Ones", "config": {}}, "beta_regularizer": null, "gamma_regularizer": null, "beta_constraint": null, "gamma_constraint": null}, "inbound_nodes": [[["separable_conv_1_reduction_right2_stem_1", 0, 0, {}]]]}, {"name": "separable_conv_1_reduction_right3_stem_1", "class_name": "SeparableConv2D", "config": {"name": "separable_conv_1_reduction_right3_stem_1", "trainable": false, "filters": 11, "kernel_size": [5, 5], "strides": [2, 2], "padding": "valid", "data_format": "channels_last", "dilation_rate": [1, 1], "activation": "linear", "use_bias": false, "bias_initializer": {"class_name": "Zeros", "config": {}}, "bias_regularizer": null, "activity_regularizer": null, "bias_constraint": null, "depth_multiplier": 1, "depthwise_initializer": {"class_name": "VarianceScaling", "config": {"scale": 1.0, "mode": "fan_avg", "distribution": "uniform", "seed": null}}, "pointwise_initializer": {"class_name": "VarianceScaling", "config": {"scale": 1.0, "mode": "fan_avg", "distribution": "uniform", "seed": null}}, "depthwise_regularizer": null, "pointwise_regularizer": null, "depthwise_constraint": null, "pointwise_constraint": null}, "inbound_nodes": [[["separable_conv_1_pad_reduction_right3_stem_1", 0, 0, {}]]]}, {"name": "separable_conv_1_reduction_left4_stem_1", "class_name": "SeparableConv2D", "config": {"name": "separable_conv_1_reduction_left4_stem_1", "trainable": false, "filters": 11, "kernel_size": [3, 3], "strides": [1, 1], "padding": "same", "data_format": "channels_last", "dilation_rate": [1, 1], "activation": "linear", "use_bias": false, "bias_initializer": {"class_name": "Zeros", "config": {}}, "bias_regularizer": null, "activity_regularizer": null, "bias_constraint": null, "depth_multiplier": 1, "depthwise_initializer": {"class_name": "VarianceScaling", "config": {"scale": 1.0, "mode": "fan_avg", "distribution": "uniform", "seed": null}}, "pointwise_initializer": {"class_name": "VarianceScaling", "config": {"scale": 1.0, "mode": "fan_avg", "distribution": "uniform", "seed": null}}, "depthwise_regularizer": null, "pointwise_regularizer": null, "depthwise_constraint": null, "pointwise_constraint": null}, "inbound_nodes": [[["activation_307", 0, 0, {}]]]}, {"name": "activation_304", "class_name": "Activation", "config": {"name": "activation_304", "trainable": false, "activation": "relu"}, "inbound_nodes": [[["separable_conv_1_bn_reduction_right2_stem_1", 0, 0, {}]]]}, {"name": "separable_conv_1_bn_reduction_right3_stem_1", "class_name": "BatchNormalization", "config": {"name": "separable_conv_1_bn_reduction_right3_stem_1", "trainable": false, "axis": -1, "momentum": 0.9997, "epsilon": 0.001, "center": true, "scale": true, "beta_initializer": {"class_name": "Zeros", "config": {}}, "gamma_initializer": {"class_name": "Ones", "config": {}}, "moving_mean_initializer": {"class_name": "Zeros", "config": {}}, "moving_variance_initializer": {"class_name": "Ones", "config": {}}, "beta_regularizer": null, "gamma_regularizer": null, "beta_constraint": null, "gamma_constraint": null}, "inbound_nodes": [[["separable_conv_1_reduction_right3_stem_1", 0, 0, {}]]]}, {"name": "separable_conv_1_bn_reduction_left4_stem_1", "class_name": "BatchNormalization", "config": {"name": "separable_conv_1_bn_reduction_left4_stem_1", "trainable": false, "axis": -1, "momentum": 0.9997, "epsilon": 0.001, "center": true, "scale": true, "beta_initializer": {"class_name": "Zeros", "config": {}}, "gamma_initializer": {"class_name": "Ones", "config": {}}, "moving_mean_initializer": {"class_name": "Zeros", "config": {}}, "moving_variance_initializer": {"class_name": "Ones", "config": {}}, "beta_regularizer": null, "gamma_regularizer": null, "beta_constraint": null, "gamma_constraint": null}, "inbound_nodes": [[["separable_conv_1_reduction_left4_stem_1", 0, 0, {}]]]}, {"name": "reduction_pad_1_stem_1", "class_name": "ZeroPadding2D", "config": {"name": "reduction_pad_1_stem_1", "trainable": false, "padding": [[1, 1], [1, 1]], "data_format": "channels_last"}, "inbound_nodes": [[["reduction_bn_1_stem_1", 0, 0, {}]]]}, {"name": "separable_conv_2_reduction_right2_stem_1", "class_name": "SeparableConv2D", "config": {"name": "separable_conv_2_reduction_right2_stem_1", "trainable": false, "filters": 11, "kernel_size": [7, 7], "strides": [1, 1], "padding": "same", "data_format": "channels_last", "dilation_rate": [1, 1], "activation": "linear", "use_bias": false, "bias_initializer": {"class_name": "Zeros", "config": {}}, "bias_regularizer": null, "activity_regularizer": null, "bias_constraint": null, "depth_multiplier": 1, "depthwise_initializer": {"class_name": "VarianceScaling", "config": {"scale": 1.0, "mode": "fan_avg", "distribution": "uniform", "seed": null}}, "pointwise_initializer": {"class_name": "VarianceScaling", "config": {"scale": 1.0, "mode": "fan_avg", "distribution": "uniform", "seed": null}}, "depthwise_regularizer": null, "pointwise_regularizer": null, "depthwise_constraint": null, "pointwise_constraint": null}, "inbound_nodes": [[["activation_304", 0, 0, {}]]]}, {"name": "activation_306", "class_name": "Activation", "config": {"name": "activation_306", "trainable": false, "activation": "relu"}, "inbound_nodes": [[["separable_conv_1_bn_reduction_right3_stem_1", 0, 0, {}]]]}, {"name": "activation_308", "class_name": "Activation", "config": {"name": "activation_308", "trainable": false, "activation": "relu"}, "inbound_nodes": [[["separable_conv_1_bn_reduction_left4_stem_1", 0, 0, {}]]]}, {"name": "reduction_left2_stem_1", "class_name": "MaxPooling2D", "config": {"name": "reduction_left2_stem_1", "trainable": false, "pool_size": [3, 3], "padding": "valid", "strides": [2, 2], "data_format": "channels_last"}, "inbound_nodes": [[["reduction_pad_1_stem_1", 0, 0, {}]]]}, {"name": "separable_conv_2_bn_reduction_right2_stem_1", "class_name": "BatchNormalization", "config": {"name": "separable_conv_2_bn_reduction_right2_stem_1", "trainable": false, "axis": -1, "momentum": 0.9997, "epsilon": 0.001, "center": true, "scale": true, "beta_initializer": {"class_name": "Zeros", "config": {}}, "gamma_initializer": {"class_name": "Ones", "config": {}}, "moving_mean_initializer": {"class_name": "Zeros", "config": {}}, "moving_variance_initializer": {"class_name": "Ones", "config": {}}, "beta_regularizer": null, "gamma_regularizer": null, "beta_constraint": null, "gamma_constraint": null}, "inbound_nodes": [[["separable_conv_2_reduction_right2_stem_1", 0, 0, {}]]]}, {"name": "separable_conv_2_reduction_right3_stem_1", "class_name": "SeparableConv2D", "config": {"name": "separable_conv_2_reduction_right3_stem_1", "trainable": false, "filters": 11, "kernel_size": [5, 5], "strides": [1, 1], "padding": "same", "data_format": "channels_last", "dilation_rate": [1, 1], "activation": "linear", "use_bias": false, "bias_initializer": {"class_name": "Zeros", "config": {}}, "bias_regularizer": null, "activity_regularizer": null, "bias_constraint": null, "depth_multiplier": 1, "depthwise_initializer": {"class_name": "VarianceScaling", "config": {"scale": 1.0, "mode": "fan_avg", "distribution": "uniform", "seed": null}}, "pointwise_initializer": {"class_name": "VarianceScaling", "config": {"scale": 1.0, "mode": "fan_avg", "distribution": "uniform", "seed": null}}, "depthwise_regularizer": null, "pointwise_regularizer": null, "depthwise_constraint": null, "pointwise_constraint": null}, "inbound_nodes": [[["activation_306", 0, 0, {}]]]}, {"name": "separable_conv_2_reduction_left4_stem_1", "class_name": "SeparableConv2D", "config": {"name": "separable_conv_2_reduction_left4_stem_1", "trainable": false, "filters": 11, "kernel_size": [3, 3], "strides": [1, 1], "padding": "same", "data_format": "channels_last", "dilation_rate": [1, 1], "activation": "linear", "use_bias": false, "bias_initializer": {"class_name": "Zeros", "config": {}}, "bias_regularizer": null, "activity_regularizer": null, "bias_constraint": null, "depth_multiplier": 1, "depthwise_initializer": {"class_name": "VarianceScaling", "config": {"scale": 1.0, "mode": "fan_avg", "distribution": "uniform", "seed": null}}, "pointwise_initializer": {"class_name": "VarianceScaling", "config": {"scale": 1.0, "mode": "fan_avg", "distribution": "uniform", "seed": null}}, "depthwise_regularizer": null, "pointwise_regularizer": null, "depthwise_constraint": null, "pointwise_constraint": null}, "inbound_nodes": [[["activation_308", 0, 0, {}]]]}, {"name": "adjust_relu_1_stem_2", "class_name": "Activation", "config": {"name": "adjust_relu_1_stem_2", "trainable": false, "activation": "relu"}, "inbound_nodes": [[["stem_bn1", 0, 0, {}]]]}, {"name": "reduction_add_2_stem_1", "class_name": "Add", "config": {"name": "reduction_add_2_stem_1", "trainable": false}, "inbound_nodes": [[["reduction_left2_stem_1", 0, 0, {}], ["separable_conv_2_bn_reduction_right2_stem_1", 0, 0, {}]]]}, {"name": "reduction_left3_stem_1", "class_name": "AveragePooling2D", "config": {"name": "reduction_left3_stem_1", "trainable": false, "pool_size": [3, 3], "padding": "valid", "strides": [2, 2], "data_format": "channels_last"}, "inbound_nodes": [[["reduction_pad_1_stem_1", 0, 0, {}]]]}, {"name": "separable_conv_2_bn_reduction_right3_stem_1", "class_name": "BatchNormalization", "config": {"name": "separable_conv_2_bn_reduction_right3_stem_1", "trainable": false, "axis": -1, "momentum": 0.9997, "epsilon": 0.001, "center": true, "scale": true, "beta_initializer": {"class_name": "Zeros", "config": {}}, "gamma_initializer": {"class_name": "Ones", "config": {}}, "moving_mean_initializer": {"class_name": "Zeros", "config": {}}, "moving_variance_initializer": {"class_name": "Ones", "config": {}}, "beta_regularizer": null, "gamma_regularizer": null, "beta_constraint": null, "gamma_constraint": null}, "inbound_nodes": [[["separable_conv_2_reduction_right3_stem_1", 0, 0, {}]]]}, {"name": "reduction_left4_stem_1", "class_name": "AveragePooling2D", "config": {"name": "reduction_left4_stem_1", "trainable": false, "pool_size": [3, 3], "padding": "same", "strides": [1, 1], "data_format": "channels_last"}, "inbound_nodes": [[["reduction_add_1_stem_1", 0, 0, {}]]]}, {"name": "separable_conv_2_bn_reduction_left4_stem_1", "class_name": "BatchNormalization", "config": {"name": "separable_conv_2_bn_reduction_left4_stem_1", "trainable": false, "axis": -1, "momentum": 0.9997, "epsilon": 0.001, "center": true, "scale": true, "beta_initializer": {"class_name": "Zeros", "config": {}}, "gamma_initializer": {"class_name": "Ones", "config": {}}, "moving_mean_initializer": {"class_name": "Zeros", "config": {}}, "moving_variance_initializer": {"class_name": "Ones", "config": {}}, "beta_regularizer": null, "gamma_regularizer": null, "beta_constraint": null, "gamma_constraint": null}, "inbound_nodes": [[["separable_conv_2_reduction_left4_stem_1", 0, 0, {}]]]}, {"name": "reduction_right5_stem_1", "class_name": "MaxPooling2D", "config": {"name": "reduction_right5_stem_1", "trainable": false, "pool_size": [3, 3], "padding": "valid", "strides": [2, 2], "data_format": "channels_last"}, "inbound_nodes": [[["reduction_pad_1_stem_1", 0, 0, {}]]]}, {"name": "zero_padding2d_15", "class_name": "ZeroPadding2D", "config": {"name": "zero_padding2d_15", "trainable": false, "padding": [[0, 1], [0, 1]], "data_format": "channels_last"}, "inbound_nodes": [[["adjust_relu_1_stem_2", 0, 0, {}]]]}, {"name": "reduction_add3_stem_1", "class_name": "Add", "config": {"name": "reduction_add3_stem_1", "trainable": false}, "inbound_nodes": [[["reduction_left3_stem_1", 0, 0, {}], ["separable_conv_2_bn_reduction_right3_stem_1", 0, 0, {}]]]}, {"name": "add_1", "class_name": "Add", "config": {"name": "add_1", "trainable": false}, "inbound_nodes": [[["reduction_add_2_stem_1", 0, 0, {}], ["reduction_left4_stem_1", 0, 0, {}]]]}, {"name": "reduction_add4_stem_1", "class_name": "Add", "config": {"name": "reduction_add4_stem_1", "trainable": false}, "inbound_nodes": [[["separable_conv_2_bn_reduction_left4_stem_1", 0, 0, {}], ["reduction_right5_stem_1", 0, 0, {}]]]}, {"name": "cropping2d_1", "class_name": "Cropping2D", "config": {"name": "cropping2d_1", "trainable": false, "cropping": [[1, 0], [1, 0]], "data_format": "channels_last"}, "inbound_nodes": [[["zero_padding2d_15", 0, 0, {}]]]}, {"name": "reduction_concat_stem_1", "class_name": "Concatenate", "config": {"name": "reduction_concat_stem_1", "trainable": false, "axis": -1}, "inbound_nodes": [[["reduction_add_2_stem_1", 0, 0, {}], ["reduction_add3_stem_1", 0, 0, {}], ["add_1", 0, 0, {}], ["reduction_add4_stem_1", 0, 0, {}]]]}, {"name": "adjust_avg_pool_1_stem_2", "class_name": "AveragePooling2D", "config": {"name": "adjust_avg_pool_1_stem_2", "trainable": false, "pool_size": [1, 1], "padding": "valid", "strides": [2, 2], "data_format": "channels_last"}, "inbound_nodes": [[["adjust_relu_1_stem_2", 0, 0, {}]]]}, {"name": "adjust_avg_pool_2_stem_2", "class_name": "AveragePooling2D", "config": {"name": "adjust_avg_pool_2_stem_2", "trainable": false, "pool_size": [1, 1], "padding": "valid", "strides": [2, 2], "data_format": "channels_last"}, "inbound_nodes": [[["cropping2d_1", 0, 0, {}]]]}, {"name": "activation_309", "class_name": "Activation", "config": {"name": "activation_309", "trainable": false, "activation": "relu"}, "inbound_nodes": [[["reduction_concat_stem_1", 0, 0, {}]]]}, {"name": "adjust_conv_1_stem_2", "class_name": "Conv2D", "config": {"name": "adjust_conv_1_stem_2", "trainable": false, "filters": 11, "kernel_size": [1, 1], "strides": [1, 1], "padding": "same", "data_format": "channels_last", "dilation_rate": [1, 1], "activation": "linear", "use_bias": false, "kernel_initializer": {"class_name": "VarianceScaling", "config": {"scale": 2.0, "mode": "fan_in", "distribution": "normal", "seed": null}}, "bias_initializer": {"class_name": "Zeros", "config": {}}, "kernel_regularizer": null, "bias_regularizer": null, "activity_regularizer": null, "kernel_constraint": null, "bias_constraint": null}, "inbound_nodes": [[["adjust_avg_pool_1_stem_2", 0, 0, {}]]]}, {"name": "adjust_conv_2_stem_2", "class_name": "Conv2D", "config": {"name": "adjust_conv_2_stem_2", "trainable": false, "filters": 11, "kernel_size": [1, 1], "strides": [1, 1], "padding": "same", "data_format": "channels_last", "dilation_rate": [1, 1], "activation": "linear", "use_bias": false, "kernel_initializer": {"class_name": "VarianceScaling", "config": {"scale": 2.0, "mode": "fan_in", "distribution": "normal", "seed": null}}, "bias_initializer": {"class_name": "Zeros", "config": {}}, "kernel_regularizer": null, "bias_regularizer": null, "activity_regularizer": null, "kernel_constraint": null, "bias_constraint": null}, "inbound_nodes": [[["adjust_avg_pool_2_stem_2", 0, 0, {}]]]}, {"name": "reduction_conv_1_stem_2", "class_name": "Conv2D", "config": {"name": "reduction_conv_1_stem_2", "trainable": false, "filters": 22, "kernel_size": [1, 1], "strides": [1, 1], "padding": "same", "data_format": "channels_last", "dilation_rate": [1, 1], "activation": "linear", "use_bias": false, "kernel_initializer": {"class_name": "VarianceScaling", "config": {"scale": 2.0, "mode": "fan_in", "distribution": "normal", "seed": null}}, "bias_initializer": {"class_name": "Zeros", "config": {}}, "kernel_regularizer": null, "bias_regularizer": null, "activity_regularizer": null, "kernel_constraint": null, "bias_constraint": null}, "inbound_nodes": [[["activation_309", 0, 0, {}]]]}, {"name": "concatenate_3", "class_name": "Concatenate", "config": {"name": "concatenate_3", "trainable": false, "axis": -1}, "inbound_nodes": [[["adjust_conv_1_stem_2", 0, 0, {}], ["adjust_conv_2_stem_2", 0, 0, {}]]]}, {"name": "reduction_bn_1_stem_2", "class_name": "BatchNormalization", "config": {"name": "reduction_bn_1_stem_2", "trainable": false, "axis": -1, "momentum": 0.9997, "epsilon": 0.001, "center": true, "scale": true, "beta_initializer": {"class_name": "Zeros", "config": {}}, "gamma_initializer": {"class_name": "Ones", "config": {}}, "moving_mean_initializer": {"class_name": "Zeros", "config": {}}, "moving_variance_initializer": {"class_name": "Ones", "config": {}}, "beta_regularizer": null, "gamma_regularizer": null, "beta_constraint": null, "gamma_constraint": null}, "inbound_nodes": [[["reduction_conv_1_stem_2", 0, 0, {}]]]}, {"name": "adjust_bn_stem_2", "class_name": "BatchNormalization", "config": {"name": "adjust_bn_stem_2", "trainable": false, "axis": -1, "momentum": 0.9997, "epsilon": 0.001, "center": true, "scale": true, "beta_initializer": {"class_name": "Zeros", "config": {}}, "gamma_initializer": {"class_name": "Ones", "config": {}}, "moving_mean_initializer": {"class_name": "Zeros", "config": {}}, "moving_variance_initializer": {"class_name": "Ones", "config": {}}, "beta_regularizer": null, "gamma_regularizer": null, "beta_constraint": null, "gamma_constraint": null}, "inbound_nodes": [[["concatenate_3", 0, 0, {}]]]}, {"name": "activation_310", "class_name": "Activation", "config": {"name": "activation_310", "trainable": false, "activation": "relu"}, "inbound_nodes": [[["reduction_bn_1_stem_2", 0, 0, {}]]]}, {"name": "activation_312", "class_name": "Activation", "config": {"name": "activation_312", "trainable": false, "activation": "relu"}, "inbound_nodes": [[["adjust_bn_stem_2", 0, 0, {}]]]}, {"name": "separable_conv_1_pad_reduction_left1_stem_2", "class_name": "ZeroPadding2D", "config": {"name": "separable_conv_1_pad_reduction_left1_stem_2", "trainable": false, "padding": [[1, 2], [1, 2]], "data_format": "channels_last"}, "inbound_nodes": [[["activation_310", 0, 0, {}]]]}, {"name": "separable_conv_1_pad_reduction_right1_stem_2", "class_name": "ZeroPadding2D", "config": {"name": "separable_conv_1_pad_reduction_right1_stem_2", "trainable": false, "padding": [[2, 3], [2, 3]], "data_format": "channels_last"}, "inbound_nodes": [[["activation_312", 0, 0, {}]]]}, {"name": "separable_conv_1_reduction_left1_stem_2", "class_name": "SeparableConv2D", "config": {"name": "separable_conv_1_reduction_left1_stem_2", "trainable": false, "filters": 22, "kernel_size": [5, 5], "strides": [2, 2], "padding": "valid", "data_format": "channels_last", "dilation_rate": [1, 1], "activation": "linear", "use_bias": false, "bias_initializer": {"class_name": "Zeros", "config": {}}, "bias_regularizer": null, "activity_regularizer": null, "bias_constraint": null, "depth_multiplier": 1, "depthwise_initializer": {"class_name": "VarianceScaling", "config": {"scale": 1.0, "mode": "fan_avg", "distribution": "uniform", "seed": null}}, "pointwise_initializer": {"class_name": "VarianceScaling", "config": {"scale": 1.0, "mode": "fan_avg", "distribution": "uniform", "seed": null}}, "depthwise_regularizer": null, "pointwise_regularizer": null, "depthwise_constraint": null, "pointwise_constraint": null}, "inbound_nodes": [[["separable_conv_1_pad_reduction_left1_stem_2", 0, 0, {}]]]}, {"name": "separable_conv_1_reduction_right1_stem_2", "class_name": "SeparableConv2D", "config": {"name": "separable_conv_1_reduction_right1_stem_2", "trainable": false, "filters": 22, "kernel_size": [7, 7], "strides": [2, 2], "padding": "valid", "data_format": "channels_last", "dilation_rate": [1, 1], "activation": "linear", "use_bias": false, "bias_initializer": {"class_name": "Zeros", "config": {}}, "bias_regularizer": null, "activity_regularizer": null, "bias_constraint": null, "depth_multiplier": 1, "depthwise_initializer": {"class_name": "VarianceScaling", "config": {"scale": 1.0, "mode": "fan_avg", "distribution": "uniform", "seed": null}}, "pointwise_initializer": {"class_name": "VarianceScaling", "config": {"scale": 1.0, "mode": "fan_avg", "distribution": "uniform", "seed": null}}, "depthwise_regularizer": null, "pointwise_regularizer": null, "depthwise_constraint": null, "pointwise_constraint": null}, "inbound_nodes": [[["separable_conv_1_pad_reduction_right1_stem_2", 0, 0, {}]]]}, {"name": "separable_conv_1_bn_reduction_left1_stem_2", "class_name": "BatchNormalization", "config": {"name": "separable_conv_1_bn_reduction_left1_stem_2", "trainable": false, "axis": -1, "momentum": 0.9997, "epsilon": 0.001, "center": true, "scale": true, "beta_initializer": {"class_name": "Zeros", "config": {}}, "gamma_initializer": {"class_name": "Ones", "config": {}}, "moving_mean_initializer": {"class_name": "Zeros", "config": {}}, "moving_variance_initializer": {"class_name": "Ones", "config": {}}, "beta_regularizer": null, "gamma_regularizer": null, "beta_constraint": null, "gamma_constraint": null}, "inbound_nodes": [[["separable_conv_1_reduction_left1_stem_2", 0, 0, {}]]]}, {"name": "separable_conv_1_bn_reduction_right1_stem_2", "class_name": "BatchNormalization", "config": {"name": "separable_conv_1_bn_reduction_right1_stem_2", "trainable": false, "axis": -1, "momentum": 0.9997, "epsilon": 0.001, "center": true, "scale": true, "beta_initializer": {"class_name": "Zeros", "config": {}}, "gamma_initializer": {"class_name": "Ones", "config": {}}, "moving_mean_initializer": {"class_name": "Zeros", "config": {}}, "moving_variance_initializer": {"class_name": "Ones", "config": {}}, "beta_regularizer": null, "gamma_regularizer": null, "beta_constraint": null, "gamma_constraint": null}, "inbound_nodes": [[["separable_conv_1_reduction_right1_stem_2", 0, 0, {}]]]}, {"name": "activation_311", "class_name": "Activation", "config": {"name": "activation_311", "trainable": false, "activation": "relu"}, "inbound_nodes": [[["separable_conv_1_bn_reduction_left1_stem_2", 0, 0, {}]]]}, {"name": "activation_313", "class_name": "Activation", "config": {"name": "activation_313", "trainable": false, "activation": "relu"}, "inbound_nodes": [[["separable_conv_1_bn_reduction_right1_stem_2", 0, 0, {}]]]}, {"name": "separable_conv_2_reduction_left1_stem_2", "class_name": "SeparableConv2D", "config": {"name": "separable_conv_2_reduction_left1_stem_2", "trainable": false, "filters": 22, "kernel_size": [5, 5], "strides": [1, 1], "padding": "same", "data_format": "channels_last", "dilation_rate": [1, 1], "activation": "linear", "use_bias": false, "bias_initializer": {"class_name": "Zeros", "config": {}}, "bias_regularizer": null, "activity_regularizer": null, "bias_constraint": null, "depth_multiplier": 1, "depthwise_initializer": {"class_name": "VarianceScaling", "config": {"scale": 1.0, "mode": "fan_avg", "distribution": "uniform", "seed": null}}, "pointwise_initializer": {"class_name": "VarianceScaling", "config": {"scale": 1.0, "mode": "fan_avg", "distribution": "uniform", "seed": null}}, "depthwise_regularizer": null, "pointwise_regularizer": null, "depthwise_constraint": null, "pointwise_constraint": null}, "inbound_nodes": [[["activation_311", 0, 0, {}]]]}, {"name": "separable_conv_2_reduction_right1_stem_2", "class_name": "SeparableConv2D", "config": {"name": "separable_conv_2_reduction_right1_stem_2", "trainable": false, "filters": 22, "kernel_size": [7, 7], "strides": [1, 1], "padding": "same", "data_format": "channels_last", "dilation_rate": [1, 1], "activation": "linear", "use_bias": false, "bias_initializer": {"class_name": "Zeros", "config": {}}, "bias_regularizer": null, "activity_regularizer": null, "bias_constraint": null, "depth_multiplier": 1, "depthwise_initializer": {"class_name": "VarianceScaling", "config": {"scale": 1.0, "mode": "fan_avg", "distribution": "uniform", "seed": null}}, "pointwise_initializer": {"class_name": "VarianceScaling", "config": {"scale": 1.0, "mode": "fan_avg", "distribution": "uniform", "seed": null}}, "depthwise_regularizer": null, "pointwise_regularizer": null, "depthwise_constraint": null, "pointwise_constraint": null}, "inbound_nodes": [[["activation_313", 0, 0, {}]]]}, {"name": "activation_314", "class_name": "Activation", "config": {"name": "activation_314", "trainable": false, "activation": "relu"}, "inbound_nodes": [[["adjust_bn_stem_2", 0, 0, {}]]]}, {"name": "separable_conv_2_bn_reduction_left1_stem_2", "class_name": "BatchNormalization", "config": {"name": "separable_conv_2_bn_reduction_left1_stem_2", "trainable": false, "axis": -1, "momentum": 0.9997, "epsilon": 0.001, "center": true, "scale": true, "beta_initializer": {"class_name": "Zeros", "config": {}}, "gamma_initializer": {"class_name": "Ones", "config": {}}, "moving_mean_initializer": {"class_name": "Zeros", "config": {}}, "moving_variance_initializer": {"class_name": "Ones", "config": {}}, "beta_regularizer": null, "gamma_regularizer": null, "beta_constraint": null, "gamma_constraint": null}, "inbound_nodes": [[["separable_conv_2_reduction_left1_stem_2", 0, 0, {}]]]}, {"name": "separable_conv_2_bn_reduction_right1_stem_2", "class_name": "BatchNormalization", "config": {"name": "separable_conv_2_bn_reduction_right1_stem_2", "trainable": false, "axis": -1, "momentum": 0.9997, "epsilon": 0.001, "center": true, "scale": true, "beta_initializer": {"class_name": "Zeros", "config": {}}, "gamma_initializer": {"class_name": "Ones", "config": {}}, "moving_mean_initializer": {"class_name": "Zeros", "config": {}}, "moving_variance_initializer": {"class_name": "Ones", "config": {}}, "beta_regularizer": null, "gamma_regularizer": null, "beta_constraint": null, "gamma_constraint": null}, "inbound_nodes": [[["separable_conv_2_reduction_right1_stem_2", 0, 0, {}]]]}, {"name": "separable_conv_1_pad_reduction_right2_stem_2", "class_name": "ZeroPadding2D", "config": {"name": "separable_conv_1_pad_reduction_right2_stem_2", "trainable": false, "padding": [[2, 3], [2, 3]], "data_format": "channels_last"}, "inbound_nodes": [[["activation_314", 0, 0, {}]]]}, {"name": "activation_316", "class_name": "Activation", "config": {"name": "activation_316", "trainable": false, "activation": "relu"}, "inbound_nodes": [[["adjust_bn_stem_2", 0, 0, {}]]]}, {"name": "reduction_add_1_stem_2", "class_name": "Add", "config": {"name": "reduction_add_1_stem_2", "trainable": false}, "inbound_nodes": [[["separable_conv_2_bn_reduction_left1_stem_2", 0, 0, {}], ["separable_conv_2_bn_reduction_right1_stem_2", 0, 0, {}]]]}, {"name": "separable_conv_1_reduction_right2_stem_2", "class_name": "SeparableConv2D", "config": {"name": "separable_conv_1_reduction_right2_stem_2", "trainable": false, "filters": 22, "kernel_size": [7, 7], "strides": [2, 2], "padding": "valid", "data_format": "channels_last", "dilation_rate": [1, 1], "activation": "linear", "use_bias": false, "bias_initializer": {"class_name": "Zeros", "config": {}}, "bias_regularizer": null, "activity_regularizer": null, "bias_constraint": null, "depth_multiplier": 1, "depthwise_initializer": {"class_name": "VarianceScaling", "config": {"scale": 1.0, "mode": "fan_avg", "distribution": "uniform", "seed": null}}, "pointwise_initializer": {"class_name": "VarianceScaling", "config": {"scale": 1.0, "mode": "fan_avg", "distribution": "uniform", "seed": null}}, "depthwise_regularizer": null, "pointwise_regularizer": null, "depthwise_constraint": null, "pointwise_constraint": null}, "inbound_nodes": [[["separable_conv_1_pad_reduction_right2_stem_2", 0, 0, {}]]]}, {"name": "separable_conv_1_pad_reduction_right3_stem_2", "class_name": "ZeroPadding2D", "config": {"name": "separable_conv_1_pad_reduction_right3_stem_2", "trainable": false, "padding": [[1, 2], [1, 2]], "data_format": "channels_last"}, "inbound_nodes": [[["activation_316", 0, 0, {}]]]}, {"name": "activation_318", "class_name": "Activation", "config": {"name": "activation_318", "trainable": false, "activation": "relu"}, "inbound_nodes": [[["reduction_add_1_stem_2", 0, 0, {}]]]}, {"name": "separable_conv_1_bn_reduction_right2_stem_2", "class_name": "BatchNormalization", "config": {"name": "separable_conv_1_bn_reduction_right2_stem_2", "trainable": false, "axis": -1, "momentum": 0.9997, "epsilon": 0.001, "center": true, "scale": true, "beta_initializer": {"class_name": "Zeros", "config": {}}, "gamma_initializer": {"class_name": "Ones", "config": {}}, "moving_mean_initializer": {"class_name": "Zeros", "config": {}}, "moving_variance_initializer": {"class_name": "Ones", "config": {}}, "beta_regularizer": null, "gamma_regularizer": null, "beta_constraint": null, "gamma_constraint": null}, "inbound_nodes": [[["separable_conv_1_reduction_right2_stem_2", 0, 0, {}]]]}, {"name": "separable_conv_1_reduction_right3_stem_2", "class_name": "SeparableConv2D", "config": {"name": "separable_conv_1_reduction_right3_stem_2", "trainable": false, "filters": 22, "kernel_size": [5, 5], "strides": [2, 2], "padding": "valid", "data_format": "channels_last", "dilation_rate": [1, 1], "activation": "linear", "use_bias": false, "bias_initializer": {"class_name": "Zeros", "config": {}}, "bias_regularizer": null, "activity_regularizer": null, "bias_constraint": null, "depth_multiplier": 1, "depthwise_initializer": {"class_name": "VarianceScaling", "config": {"scale": 1.0, "mode": "fan_avg", "distribution": "uniform", "seed": null}}, "pointwise_initializer": {"class_name": "VarianceScaling", "config": {"scale": 1.0, "mode": "fan_avg", "distribution": "uniform", "seed": null}}, "depthwise_regularizer": null, "pointwise_regularizer": null, "depthwise_constraint": null, "pointwise_constraint": null}, "inbound_nodes": [[["separable_conv_1_pad_reduction_right3_stem_2", 0, 0, {}]]]}, {"name": "separable_conv_1_reduction_left4_stem_2", "class_name": "SeparableConv2D", "config": {"name": "separable_conv_1_reduction_left4_stem_2", "trainable": false, "filters": 22, "kernel_size": [3, 3], "strides": [1, 1], "padding": "same", "data_format": "channels_last", "dilation_rate": [1, 1], "activation": "linear", "use_bias": false, "bias_initializer": {"class_name": "Zeros", "config": {}}, "bias_regularizer": null, "activity_regularizer": null, "bias_constraint": null, "depth_multiplier": 1, "depthwise_initializer": {"class_name": "VarianceScaling", "config": {"scale": 1.0, "mode": "fan_avg", "distribution": "uniform", "seed": null}}, "pointwise_initializer": {"class_name": "VarianceScaling", "config": {"scale": 1.0, "mode": "fan_avg", "distribution": "uniform", "seed": null}}, "depthwise_regularizer": null, "pointwise_regularizer": null, "depthwise_constraint": null, "pointwise_constraint": null}, "inbound_nodes": [[["activation_318", 0, 0, {}]]]}, {"name": "activation_315", "class_name": "Activation", "config": {"name": "activation_315", "trainable": false, "activation": "relu"}, "inbound_nodes": [[["separable_conv_1_bn_reduction_right2_stem_2", 0, 0, {}]]]}, {"name": "separable_conv_1_bn_reduction_right3_stem_2", "class_name": "BatchNormalization", "config": {"name": "separable_conv_1_bn_reduction_right3_stem_2", "trainable": false, "axis": -1, "momentum": 0.9997, "epsilon": 0.001, "center": true, "scale": true, "beta_initializer": {"class_name": "Zeros", "config": {}}, "gamma_initializer": {"class_name": "Ones", "config": {}}, "moving_mean_initializer": {"class_name": "Zeros", "config": {}}, "moving_variance_initializer": {"class_name": "Ones", "config": {}}, "beta_regularizer": null, "gamma_regularizer": null, "beta_constraint": null, "gamma_constraint": null}, "inbound_nodes": [[["separable_conv_1_reduction_right3_stem_2", 0, 0, {}]]]}, {"name": "separable_conv_1_bn_reduction_left4_stem_2", "class_name": "BatchNormalization", "config": {"name": "separable_conv_1_bn_reduction_left4_stem_2", "trainable": false, "axis": -1, "momentum": 0.9997, "epsilon": 0.001, "center": true, "scale": true, "beta_initializer": {"class_name": "Zeros", "config": {}}, "gamma_initializer": {"class_name": "Ones", "config": {}}, "moving_mean_initializer": {"class_name": "Zeros", "config": {}}, "moving_variance_initializer": {"class_name": "Ones", "config": {}}, "beta_regularizer": null, "gamma_regularizer": null, "beta_constraint": null, "gamma_constraint": null}, "inbound_nodes": [[["separable_conv_1_reduction_left4_stem_2", 0, 0, {}]]]}, {"name": "reduction_pad_1_stem_2", "class_name": "ZeroPadding2D", "config": {"name": "reduction_pad_1_stem_2", "trainable": false, "padding": [[0, 1], [0, 1]], "data_format": "channels_last"}, "inbound_nodes": [[["reduction_bn_1_stem_2", 0, 0, {}]]]}, {"name": "separable_conv_2_reduction_right2_stem_2", "class_name": "SeparableConv2D", "config": {"name": "separable_conv_2_reduction_right2_stem_2", "trainable": false, "filters": 22, "kernel_size": [7, 7], "strides": [1, 1], "padding": "same", "data_format": "channels_last", "dilation_rate": [1, 1], "activation": "linear", "use_bias": false, "bias_initializer": {"class_name": "Zeros", "config": {}}, "bias_regularizer": null, "activity_regularizer": null, "bias_constraint": null, "depth_multiplier": 1, "depthwise_initializer": {"class_name": "VarianceScaling", "config": {"scale": 1.0, "mode": "fan_avg", "distribution": "uniform", "seed": null}}, "pointwise_initializer": {"class_name": "VarianceScaling", "config": {"scale": 1.0, "mode": "fan_avg", "distribution": "uniform", "seed": null}}, "depthwise_regularizer": null, "pointwise_regularizer": null, "depthwise_constraint": null, "pointwise_constraint": null}, "inbound_nodes": [[["activation_315", 0, 0, {}]]]}, {"name": "activation_317", "class_name": "Activation", "config": {"name": "activation_317", "trainable": false, "activation": "relu"}, "inbound_nodes": [[["separable_conv_1_bn_reduction_right3_stem_2", 0, 0, {}]]]}, {"name": "activation_319", "class_name": "Activation", "config": {"name": "activation_319", "trainable": false, "activation": "relu"}, "inbound_nodes": [[["separable_conv_1_bn_reduction_left4_stem_2", 0, 0, {}]]]}, {"name": "reduction_left2_stem_2", "class_name": "MaxPooling2D", "config": {"name": "reduction_left2_stem_2", "trainable": false, "pool_size": [3, 3], "padding": "valid", "strides": [2, 2], "data_format": "channels_last"}, "inbound_nodes": [[["reduction_pad_1_stem_2", 0, 0, {}]]]}, {"name": "separable_conv_2_bn_reduction_right2_stem_2", "class_name": "BatchNormalization", "config": {"name": "separable_conv_2_bn_reduction_right2_stem_2", "trainable": false, "axis": -1, "momentum": 0.9997, "epsilon": 0.001, "center": true, "scale": true, "beta_initializer": {"class_name": "Zeros", "config": {}}, "gamma_initializer": {"class_name": "Ones", "config": {}}, "moving_mean_initializer": {"class_name": "Zeros", "config": {}}, "moving_variance_initializer": {"class_name": "Ones", "config": {}}, "beta_regularizer": null, "gamma_regularizer": null, "beta_constraint": null, "gamma_constraint": null}, "inbound_nodes": [[["separable_conv_2_reduction_right2_stem_2", 0, 0, {}]]]}, {"name": "separable_conv_2_reduction_right3_stem_2", "class_name": "SeparableConv2D", "config": {"name": "separable_conv_2_reduction_right3_stem_2", "trainable": false, "filters": 22, "kernel_size": [5, 5], "strides": [1, 1], "padding": "same", "data_format": "channels_last", "dilation_rate": [1, 1], "activation": "linear", "use_bias": false, "bias_initializer": {"class_name": "Zeros", "config": {}}, "bias_regularizer": null, "activity_regularizer": null, "bias_constraint": null, "depth_multiplier": 1, "depthwise_initializer": {"class_name": "VarianceScaling", "config": {"scale": 1.0, "mode": "fan_avg", "distribution": "uniform", "seed": null}}, "pointwise_initializer": {"class_name": "VarianceScaling", "config": {"scale": 1.0, "mode": "fan_avg", "distribution": "uniform", "seed": null}}, "depthwise_regularizer": null, "pointwise_regularizer": null, "depthwise_constraint": null, "pointwise_constraint": null}, "inbound_nodes": [[["activation_317", 0, 0, {}]]]}, {"name": "separable_conv_2_reduction_left4_stem_2", "class_name": "SeparableConv2D", "config": {"name": "separable_conv_2_reduction_left4_stem_2", "trainable": false, "filters": 22, "kernel_size": [3, 3], "strides": [1, 1], "padding": "same", "data_format": "channels_last", "dilation_rate": [1, 1], "activation": "linear", "use_bias": false, "bias_initializer": {"class_name": "Zeros", "config": {}}, "bias_regularizer": null, "activity_regularizer": null, "bias_constraint": null, "depth_multiplier": 1, "depthwise_initializer": {"class_name": "VarianceScaling", "config": {"scale": 1.0, "mode": "fan_avg", "distribution": "uniform", "seed": null}}, "pointwise_initializer": {"class_name": "VarianceScaling", "config": {"scale": 1.0, "mode": "fan_avg", "distribution": "uniform", "seed": null}}, "depthwise_regularizer": null, "pointwise_regularizer": null, "depthwise_constraint": null, "pointwise_constraint": null}, "inbound_nodes": [[["activation_319", 0, 0, {}]]]}, {"name": "adjust_relu_1_0", "class_name": "Activation", "config": {"name": "adjust_relu_1_0", "trainable": false, "activation": "relu"}, "inbound_nodes": [[["reduction_concat_stem_1", 0, 0, {}]]]}, {"name": "reduction_add_2_stem_2", "class_name": "Add", "config": {"name": "reduction_add_2_stem_2", "trainable": false}, "inbound_nodes": [[["reduction_left2_stem_2", 0, 0, {}], ["separable_conv_2_bn_reduction_right2_stem_2", 0, 0, {}]]]}, {"name": "reduction_left3_stem_2", "class_name": "AveragePooling2D", "config": {"name": "reduction_left3_stem_2", "trainable": false, "pool_size": [3, 3], "padding": "valid", "strides": [2, 2], "data_format": "channels_last"}, "inbound_nodes": [[["reduction_pad_1_stem_2", 0, 0, {}]]]}, {"name": "separable_conv_2_bn_reduction_right3_stem_2", "class_name": "BatchNormalization", "config": {"name": "separable_conv_2_bn_reduction_right3_stem_2", "trainable": false, "axis": -1, "momentum": 0.9997, "epsilon": 0.001, "center": true, "scale": true, "beta_initializer": {"class_name": "Zeros", "config": {}}, "gamma_initializer": {"class_name": "Ones", "config": {}}, "moving_mean_initializer": {"class_name": "Zeros", "config": {}}, "moving_variance_initializer": {"class_name": "Ones", "config": {}}, "beta_regularizer": null, "gamma_regularizer": null, "beta_constraint": null, "gamma_constraint": null}, "inbound_nodes": [[["separable_conv_2_reduction_right3_stem_2", 0, 0, {}]]]}, {"name": "reduction_left4_stem_2", "class_name": "AveragePooling2D", "config": {"name": "reduction_left4_stem_2", "trainable": false, "pool_size": [3, 3], "padding": "same", "strides": [1, 1], "data_format": "channels_last"}, "inbound_nodes": [[["reduction_add_1_stem_2", 0, 0, {}]]]}, {"name": "separable_conv_2_bn_reduction_left4_stem_2", "class_name": "BatchNormalization", "config": {"name": "separable_conv_2_bn_reduction_left4_stem_2", "trainable": false, "axis": -1, "momentum": 0.9997, "epsilon": 0.001, "center": true, "scale": true, "beta_initializer": {"class_name": "Zeros", "config": {}}, "gamma_initializer": {"class_name": "Ones", "config": {}}, "moving_mean_initializer": {"class_name": "Zeros", "config": {}}, "moving_variance_initializer": {"class_name": "Ones", "config": {}}, "beta_regularizer": null, "gamma_regularizer": null, "beta_constraint": null, "gamma_constraint": null}, "inbound_nodes": [[["separable_conv_2_reduction_left4_stem_2", 0, 0, {}]]]}, {"name": "reduction_right5_stem_2", "class_name": "MaxPooling2D", "config": {"name": "reduction_right5_stem_2", "trainable": false, "pool_size": [3, 3], "padding": "valid", "strides": [2, 2], "data_format": "channels_last"}, "inbound_nodes": [[["reduction_pad_1_stem_2", 0, 0, {}]]]}, {"name": "zero_padding2d_16", "class_name": "ZeroPadding2D", "config": {"name": "zero_padding2d_16", "trainable": false, "padding": [[0, 1], [0, 1]], "data_format": "channels_last"}, "inbound_nodes": [[["adjust_relu_1_0", 0, 0, {}]]]}, {"name": "reduction_add3_stem_2", "class_name": "Add", "config": {"name": "reduction_add3_stem_2", "trainable": false}, "inbound_nodes": [[["reduction_left3_stem_2", 0, 0, {}], ["separable_conv_2_bn_reduction_right3_stem_2", 0, 0, {}]]]}, {"name": "add_2", "class_name": "Add", "config": {"name": "add_2", "trainable": false}, "inbound_nodes": [[["reduction_add_2_stem_2", 0, 0, {}], ["reduction_left4_stem_2", 0, 0, {}]]]}, {"name": "reduction_add4_stem_2", "class_name": "Add", "config": {"name": "reduction_add4_stem_2", "trainable": false}, "inbound_nodes": [[["separable_conv_2_bn_reduction_left4_stem_2", 0, 0, {}], ["reduction_right5_stem_2", 0, 0, {}]]]}, {"name": "cropping2d_2", "class_name": "Cropping2D", "config": {"name": "cropping2d_2", "trainable": false, "cropping": [[1, 0], [1, 0]], "data_format": "channels_last"}, "inbound_nodes": [[["zero_padding2d_16", 0, 0, {}]]]}, {"name": "reduction_concat_stem_2", "class_name": "Concatenate", "config": {"name": "reduction_concat_stem_2", "trainable": false, "axis": -1}, "inbound_nodes": [[["reduction_add_2_stem_2", 0, 0, {}], ["reduction_add3_stem_2", 0, 0, {}], ["add_2", 0, 0, {}], ["reduction_add4_stem_2", 0, 0, {}]]]}, {"name": "adjust_avg_pool_1_0", "class_name": "AveragePooling2D", "config": {"name": "adjust_avg_pool_1_0", "trainable": false, "pool_size": [1, 1], "padding": "valid", "strides": [2, 2], "data_format": "channels_last"}, "inbound_nodes": [[["adjust_relu_1_0", 0, 0, {}]]]}, {"name": "adjust_avg_pool_2_0", "class_name": "AveragePooling2D", "config": {"name": "adjust_avg_pool_2_0", "trainable": false, "pool_size": [1, 1], "padding": "valid", "strides": [2, 2], "data_format": "channels_last"}, "inbound_nodes": [[["cropping2d_2", 0, 0, {}]]]}, {"name": "adjust_conv_1_0", "class_name": "Conv2D", "config": {"name": "adjust_conv_1_0", "trainable": false, "filters": 22, "kernel_size": [1, 1], "strides": [1, 1], "padding": "same", "data_format": "channels_last", "dilation_rate": [1, 1], "activation": "linear", "use_bias": false, "kernel_initializer": {"class_name": "VarianceScaling", "config": {"scale": 2.0, "mode": "fan_in", "distribution": "normal", "seed": null}}, "bias_initializer": {"class_name": "Zeros", "config": {}}, "kernel_regularizer": null, "bias_regularizer": null, "activity_regularizer": null, "kernel_constraint": null, "bias_constraint": null}, "inbound_nodes": [[["adjust_avg_pool_1_0", 0, 0, {}]]]}, {"name": "adjust_conv_2_0", "class_name": "Conv2D", "config": {"name": "adjust_conv_2_0", "trainable": false, "filters": 22, "kernel_size": [1, 1], "strides": [1, 1], "padding": "same", "data_format": "channels_last", "dilation_rate": [1, 1], "activation": "linear", "use_bias": false, "kernel_initializer": {"class_name": "VarianceScaling", "config": {"scale": 2.0, "mode": "fan_in", "distribution": "normal", "seed": null}}, "bias_initializer": {"class_name": "Zeros", "config": {}}, "kernel_regularizer": null, "bias_regularizer": null, "activity_regularizer": null, "kernel_constraint": null, "bias_constraint": null}, "inbound_nodes": [[["adjust_avg_pool_2_0", 0, 0, {}]]]}, {"name": "activation_320", "class_name": "Activation", "config": {"name": "activation_320", "trainable": false, "activation": "relu"}, "inbound_nodes": [[["reduction_concat_stem_2", 0, 0, {}]]]}, {"name": "concatenate_4", "class_name": "Concatenate", "config": {"name": "concatenate_4", "trainable": false, "axis": -1}, "inbound_nodes": [[["adjust_conv_1_0", 0, 0, {}], ["adjust_conv_2_0", 0, 0, {}]]]}, {"name": "normal_conv_1_0", "class_name": "Conv2D", "config": {"name": "normal_conv_1_0", "trainable": false, "filters": 44, "kernel_size": [1, 1], "strides": [1, 1], "padding": "same", "data_format": "channels_last", "dilation_rate": [1, 1], "activation": "linear", "use_bias": false, "kernel_initializer": {"class_name": "VarianceScaling", "config": {"scale": 2.0, "mode": "fan_in", "distribution": "normal", "seed": null}}, "bias_initializer": {"class_name": "Zeros", "config": {}}, "kernel_regularizer": null, "bias_regularizer": null, "activity_regularizer": null, "kernel_constraint": null, "bias_constraint": null}, "inbound_nodes": [[["activation_320", 0, 0, {}]]]}, {"name": "adjust_bn_0", "class_name": "BatchNormalization", "config": {"name": "adjust_bn_0", "trainable": false, "axis": -1, "momentum": 0.9997, "epsilon": 0.001, "center": true, "scale": true, "beta_initializer": {"class_name": "Zeros", "config": {}}, "gamma_initializer": {"class_name": "Ones", "config": {}}, "moving_mean_initializer": {"class_name": "Zeros", "config": {}}, "moving_variance_initializer": {"class_name": "Ones", "config": {}}, "beta_regularizer": null, "gamma_regularizer": null, "beta_constraint": null, "gamma_constraint": null}, "inbound_nodes": [[["concatenate_4", 0, 0, {}]]]}, {"name": "normal_bn_1_0", "class_name": "BatchNormalization", "config": {"name": "normal_bn_1_0", "trainable": false, "axis": -1, "momentum": 0.9997, "epsilon": 0.001, "center": true, "scale": true, "beta_initializer": {"class_name": "Zeros", "config": {}}, "gamma_initializer": {"class_name": "Ones", "config": {}}, "moving_mean_initializer": {"class_name": "Zeros", "config": {}}, "moving_variance_initializer": {"class_name": "Ones", "config": {}}, "beta_regularizer": null, "gamma_regularizer": null, "beta_constraint": null, "gamma_constraint": null}, "inbound_nodes": [[["normal_conv_1_0", 0, 0, {}]]]}, {"name": "activation_321", "class_name": "Activation", "config": {"name": "activation_321", "trainable": false, "activation": "relu"}, "inbound_nodes": [[["normal_bn_1_0", 0, 0, {}]]]}, {"name": "activation_323", "class_name": "Activation", "config": {"name": "activation_323", "trainable": false, "activation": "relu"}, "inbound_nodes": [[["adjust_bn_0", 0, 0, {}]]]}, {"name": "activation_325", "class_name": "Activation", "config": {"name": "activation_325", "trainable": false, "activation": "relu"}, "inbound_nodes": [[["adjust_bn_0", 0, 0, {}]]]}, {"name": "activation_327", "class_name": "Activation", "config": {"name": "activation_327", "trainable": false, "activation": "relu"}, "inbound_nodes": [[["adjust_bn_0", 0, 0, {}]]]}, {"name": "activation_329", "class_name": "Activation", "config": {"name": "activation_329", "trainable": false, "activation": "relu"}, "inbound_nodes": [[["normal_bn_1_0", 0, 0, {}]]]}, {"name": "separable_conv_1_normal_left1_0", "class_name": "SeparableConv2D", "config": {"name": "separable_conv_1_normal_left1_0", "trainable": false, "filters": 44, "kernel_size": [5, 5], "strides": [1, 1], "padding": "same", "data_format": "channels_last", "dilation_rate": [1, 1], "activation": "linear", "use_bias": false, "bias_initializer": {"class_name": "Zeros", "config": {}}, "bias_regularizer": null, "activity_regularizer": null, "bias_constraint": null, "depth_multiplier": 1, "depthwise_initializer": {"class_name": "VarianceScaling", "config": {"scale": 1.0, "mode": "fan_avg", "distribution": "uniform", "seed": null}}, "pointwise_initializer": {"class_name": "VarianceScaling", "config": {"scale": 1.0, "mode": "fan_avg", "distribution": "uniform", "seed": null}}, "depthwise_regularizer": null, "pointwise_regularizer": null, "depthwise_constraint": null, "pointwise_constraint": null}, "inbound_nodes": [[["activation_321", 0, 0, {}]]]}, {"name": "separable_conv_1_normal_right1_0", "class_name": "SeparableConv2D", "config": {"name": "separable_conv_1_normal_right1_0", "trainable": false, "filters": 44, "kernel_size": [3, 3], "strides": [1, 1], "padding": "same", "data_format": "channels_last", "dilation_rate": [1, 1], "activation": "linear", "use_bias": false, "bias_initializer": {"class_name": "Zeros", "config": {}}, "bias_regularizer": null, "activity_regularizer": null, "bias_constraint": null, "depth_multiplier": 1, "depthwise_initializer": {"class_name": "VarianceScaling", "config": {"scale": 1.0, "mode": "fan_avg", "distribution": "uniform", "seed": null}}, "pointwise_initializer": {"class_name": "VarianceScaling", "config": {"scale": 1.0, "mode": "fan_avg", "distribution": "uniform", "seed": null}}, "depthwise_regularizer": null, "pointwise_regularizer": null, "depthwise_constraint": null, "pointwise_constraint": null}, "inbound_nodes": [[["activation_323", 0, 0, {}]]]}, {"name": "separable_conv_1_normal_left2_0", "class_name": "SeparableConv2D", "config": {"name": "separable_conv_1_normal_left2_0", "trainable": false, "filters": 44, "kernel_size": [5, 5], "strides": [1, 1], "padding": "same", "data_format": "channels_last", "dilation_rate": [1, 1], "activation": "linear", "use_bias": false, "bias_initializer": {"class_name": "Zeros", "config": {}}, "bias_regularizer": null, "activity_regularizer": null, "bias_constraint": null, "depth_multiplier": 1, "depthwise_initializer": {"class_name": "VarianceScaling", "config": {"scale": 1.0, "mode": "fan_avg", "distribution": "uniform", "seed": null}}, "pointwise_initializer": {"class_name": "VarianceScaling", "config": {"scale": 1.0, "mode": "fan_avg", "distribution": "uniform", "seed": null}}, "depthwise_regularizer": null, "pointwise_regularizer": null, "depthwise_constraint": null, "pointwise_constraint": null}, "inbound_nodes": [[["activation_325", 0, 0, {}]]]}, {"name": "separable_conv_1_normal_right2_0", "class_name": "SeparableConv2D", "config": {"name": "separable_conv_1_normal_right2_0", "trainable": false, "filters": 44, "kernel_size": [3, 3], "strides": [1, 1], "padding": "same", "data_format": "channels_last", "dilation_rate": [1, 1], "activation": "linear", "use_bias": false, "bias_initializer": {"class_name": "Zeros", "config": {}}, "bias_regularizer": null, "activity_regularizer": null, "bias_constraint": null, "depth_multiplier": 1, "depthwise_initializer": {"class_name": "VarianceScaling", "config": {"scale": 1.0, "mode": "fan_avg", "distribution": "uniform", "seed": null}}, "pointwise_initializer": {"class_name": "VarianceScaling", "config": {"scale": 1.0, "mode": "fan_avg", "distribution": "uniform", "seed": null}}, "depthwise_regularizer": null, "pointwise_regularizer": null, "depthwise_constraint": null, "pointwise_constraint": null}, "inbound_nodes": [[["activation_327", 0, 0, {}]]]}, {"name": "separable_conv_1_normal_left5_0", "class_name": "SeparableConv2D", "config": {"name": "separable_conv_1_normal_left5_0", "trainable": false, "filters": 44, "kernel_size": [3, 3], "strides": [1, 1], "padding": "same", "data_format": "channels_last", "dilation_rate": [1, 1], "activation": "linear", "use_bias": false, "bias_initializer": {"class_name": "Zeros", "config": {}}, "bias_regularizer": null, "activity_regularizer": null, "bias_constraint": null, "depth_multiplier": 1, "depthwise_initializer": {"class_name": "VarianceScaling", "config": {"scale": 1.0, "mode": "fan_avg", "distribution": "uniform", "seed": null}}, "pointwise_initializer": {"class_name": "VarianceScaling", "config": {"scale": 1.0, "mode": "fan_avg", "distribution": "uniform", "seed": null}}, "depthwise_regularizer": null, "pointwise_regularizer": null, "depthwise_constraint": null, "pointwise_constraint": null}, "inbound_nodes": [[["activation_329", 0, 0, {}]]]}, {"name": "separable_conv_1_bn_normal_left1_0", "class_name": "BatchNormalization", "config": {"name": "separable_conv_1_bn_normal_left1_0", "trainable": false, "axis": -1, "momentum": 0.9997, "epsilon": 0.001, "center": true, "scale": true, "beta_initializer": {"class_name": "Zeros", "config": {}}, "gamma_initializer": {"class_name": "Ones", "config": {}}, "moving_mean_initializer": {"class_name": "Zeros", "config": {}}, "moving_variance_initializer": {"class_name": "Ones", "config": {}}, "beta_regularizer": null, "gamma_regularizer": null, "beta_constraint": null, "gamma_constraint": null}, "inbound_nodes": [[["separable_conv_1_normal_left1_0", 0, 0, {}]]]}, {"name": "separable_conv_1_bn_normal_right1_0", "class_name": "BatchNormalization", "config": {"name": "separable_conv_1_bn_normal_right1_0", "trainable": false, "axis": -1, "momentum": 0.9997, "epsilon": 0.001, "center": true, "scale": true, "beta_initializer": {"class_name": "Zeros", "config": {}}, "gamma_initializer": {"class_name": "Ones", "config": {}}, "moving_mean_initializer": {"class_name": "Zeros", "config": {}}, "moving_variance_initializer": {"class_name": "Ones", "config": {}}, "beta_regularizer": null, "gamma_regularizer": null, "beta_constraint": null, "gamma_constraint": null}, "inbound_nodes": [[["separable_conv_1_normal_right1_0", 0, 0, {}]]]}, {"name": "separable_conv_1_bn_normal_left2_0", "class_name": "BatchNormalization", "config": {"name": "separable_conv_1_bn_normal_left2_0", "trainable": false, "axis": -1, "momentum": 0.9997, "epsilon": 0.001, "center": true, "scale": true, "beta_initializer": {"class_name": "Zeros", "config": {}}, "gamma_initializer": {"class_name": "Ones", "config": {}}, "moving_mean_initializer": {"class_name": "Zeros", "config": {}}, "moving_variance_initializer": {"class_name": "Ones", "config": {}}, "beta_regularizer": null, "gamma_regularizer": null, "beta_constraint": null, "gamma_constraint": null}, "inbound_nodes": [[["separable_conv_1_normal_left2_0", 0, 0, {}]]]}, {"name": "separable_conv_1_bn_normal_right2_0", "class_name": "BatchNormalization", "config": {"name": "separable_conv_1_bn_normal_right2_0", "trainable": false, "axis": -1, "momentum": 0.9997, "epsilon": 0.001, "center": true, "scale": true, "beta_initializer": {"class_name": "Zeros", "config": {}}, "gamma_initializer": {"class_name": "Ones", "config": {}}, "moving_mean_initializer": {"class_name": "Zeros", "config": {}}, "moving_variance_initializer": {"class_name": "Ones", "config": {}}, "beta_regularizer": null, "gamma_regularizer": null, "beta_constraint": null, "gamma_constraint": null}, "inbound_nodes": [[["separable_conv_1_normal_right2_0", 0, 0, {}]]]}, {"name": "separable_conv_1_bn_normal_left5_0", "class_name": "BatchNormalization", "config": {"name": "separable_conv_1_bn_normal_left5_0", "trainable": false, "axis": -1, "momentum": 0.9997, "epsilon": 0.001, "center": true, "scale": true, "beta_initializer": {"class_name": "Zeros", "config": {}}, "gamma_initializer": {"class_name": "Ones", "config": {}}, "moving_mean_initializer": {"class_name": "Zeros", "config": {}}, "moving_variance_initializer": {"class_name": "Ones", "config": {}}, "beta_regularizer": null, "gamma_regularizer": null, "beta_constraint": null, "gamma_constraint": null}, "inbound_nodes": [[["separable_conv_1_normal_left5_0", 0, 0, {}]]]}, {"name": "activation_322", "class_name": "Activation", "config": {"name": "activation_322", "trainable": false, "activation": "relu"}, "inbound_nodes": [[["separable_conv_1_bn_normal_left1_0", 0, 0, {}]]]}, {"name": "activation_324", "class_name": "Activation", "config": {"name": "activation_324", "trainable": false, "activation": "relu"}, "inbound_nodes": [[["separable_conv_1_bn_normal_right1_0", 0, 0, {}]]]}, {"name": "activation_326", "class_name": "Activation", "config": {"name": "activation_326", "trainable": false, "activation": "relu"}, "inbound_nodes": [[["separable_conv_1_bn_normal_left2_0", 0, 0, {}]]]}, {"name": "activation_328", "class_name": "Activation", "config": {"name": "activation_328", "trainable": false, "activation": "relu"}, "inbound_nodes": [[["separable_conv_1_bn_normal_right2_0", 0, 0, {}]]]}, {"name": "activation_330", "class_name": "Activation", "config": {"name": "activation_330", "trainable": false, "activation": "relu"}, "inbound_nodes": [[["separable_conv_1_bn_normal_left5_0", 0, 0, {}]]]}, {"name": "separable_conv_2_normal_left1_0", "class_name": "SeparableConv2D", "config": {"name": "separable_conv_2_normal_left1_0", "trainable": false, "filters": 44, "kernel_size": [5, 5], "strides": [1, 1], "padding": "same", "data_format": "channels_last", "dilation_rate": [1, 1], "activation": "linear", "use_bias": false, "bias_initializer": {"class_name": "Zeros", "config": {}}, "bias_regularizer": null, "activity_regularizer": null, "bias_constraint": null, "depth_multiplier": 1, "depthwise_initializer": {"class_name": "VarianceScaling", "config": {"scale": 1.0, "mode": "fan_avg", "distribution": "uniform", "seed": null}}, "pointwise_initializer": {"class_name": "VarianceScaling", "config": {"scale": 1.0, "mode": "fan_avg", "distribution": "uniform", "seed": null}}, "depthwise_regularizer": null, "pointwise_regularizer": null, "depthwise_constraint": null, "pointwise_constraint": null}, "inbound_nodes": [[["activation_322", 0, 0, {}]]]}, {"name": "separable_conv_2_normal_right1_0", "class_name": "SeparableConv2D", "config": {"name": "separable_conv_2_normal_right1_0", "trainable": false, "filters": 44, "kernel_size": [3, 3], "strides": [1, 1], "padding": "same", "data_format": "channels_last", "dilation_rate": [1, 1], "activation": "linear", "use_bias": false, "bias_initializer": {"class_name": "Zeros", "config": {}}, "bias_regularizer": null, "activity_regularizer": null, "bias_constraint": null, "depth_multiplier": 1, "depthwise_initializer": {"class_name": "VarianceScaling", "config": {"scale": 1.0, "mode": "fan_avg", "distribution": "uniform", "seed": null}}, "pointwise_initializer": {"class_name": "VarianceScaling", "config": {"scale": 1.0, "mode": "fan_avg", "distribution": "uniform", "seed": null}}, "depthwise_regularizer": null, "pointwise_regularizer": null, "depthwise_constraint": null, "pointwise_constraint": null}, "inbound_nodes": [[["activation_324", 0, 0, {}]]]}, {"name": "separable_conv_2_normal_left2_0", "class_name": "SeparableConv2D", "config": {"name": "separable_conv_2_normal_left2_0", "trainable": false, "filters": 44, "kernel_size": [5, 5], "strides": [1, 1], "padding": "same", "data_format": "channels_last", "dilation_rate": [1, 1], "activation": "linear", "use_bias": false, "bias_initializer": {"class_name": "Zeros", "config": {}}, "bias_regularizer": null, "activity_regularizer": null, "bias_constraint": null, "depth_multiplier": 1, "depthwise_initializer": {"class_name": "VarianceScaling", "config": {"scale": 1.0, "mode": "fan_avg", "distribution": "uniform", "seed": null}}, "pointwise_initializer": {"class_name": "VarianceScaling", "config": {"scale": 1.0, "mode": "fan_avg", "distribution": "uniform", "seed": null}}, "depthwise_regularizer": null, "pointwise_regularizer": null, "depthwise_constraint": null, "pointwise_constraint": null}, "inbound_nodes": [[["activation_326", 0, 0, {}]]]}, {"name": "separable_conv_2_normal_right2_0", "class_name": "SeparableConv2D", "config": {"name": "separable_conv_2_normal_right2_0", "trainable": false, "filters": 44, "kernel_size": [3, 3], "strides": [1, 1], "padding": "same", "data_format": "channels_last", "dilation_rate": [1, 1], "activation": "linear", "use_bias": false, "bias_initializer": {"class_name": "Zeros", "config": {}}, "bias_regularizer": null, "activity_regularizer": null, "bias_constraint": null, "depth_multiplier": 1, "depthwise_initializer": {"class_name": "VarianceScaling", "config": {"scale": 1.0, "mode": "fan_avg", "distribution": "uniform", "seed": null}}, "pointwise_initializer": {"class_name": "VarianceScaling", "config": {"scale": 1.0, "mode": "fan_avg", "distribution": "uniform", "seed": null}}, "depthwise_regularizer": null, "pointwise_regularizer": null, "depthwise_constraint": null, "pointwise_constraint": null}, "inbound_nodes": [[["activation_328", 0, 0, {}]]]}, {"name": "separable_conv_2_normal_left5_0", "class_name": "SeparableConv2D", "config": {"name": "separable_conv_2_normal_left5_0", "trainable": false, "filters": 44, "kernel_size": [3, 3], "strides": [1, 1], "padding": "same", "data_format": "channels_last", "dilation_rate": [1, 1], "activation": "linear", "use_bias": false, "bias_initializer": {"class_name": "Zeros", "config": {}}, "bias_regularizer": null, "activity_regularizer": null, "bias_constraint": null, "depth_multiplier": 1, "depthwise_initializer": {"class_name": "VarianceScaling", "config": {"scale": 1.0, "mode": "fan_avg", "distribution": "uniform", "seed": null}}, "pointwise_initializer": {"class_name": "VarianceScaling", "config": {"scale": 1.0, "mode": "fan_avg", "distribution": "uniform", "seed": null}}, "depthwise_regularizer": null, "pointwise_regularizer": null, "depthwise_constraint": null, "pointwise_constraint": null}, "inbound_nodes": [[["activation_330", 0, 0, {}]]]}, {"name": "separable_conv_2_bn_normal_left1_0", "class_name": "BatchNormalization", "config": {"name": "separable_conv_2_bn_normal_left1_0", "trainable": false, "axis": -1, "momentum": 0.9997, "epsilon": 0.001, "center": true, "scale": true, "beta_initializer": {"class_name": "Zeros", "config": {}}, "gamma_initializer": {"class_name": "Ones", "config": {}}, "moving_mean_initializer": {"class_name": "Zeros", "config": {}}, "moving_variance_initializer": {"class_name": "Ones", "config": {}}, "beta_regularizer": null, "gamma_regularizer": null, "beta_constraint": null, "gamma_constraint": null}, "inbound_nodes": [[["separable_conv_2_normal_left1_0", 0, 0, {}]]]}, {"name": "separable_conv_2_bn_normal_right1_0", "class_name": "BatchNormalization", "config": {"name": "separable_conv_2_bn_normal_right1_0", "trainable": false, "axis": -1, "momentum": 0.9997, "epsilon": 0.001, "center": true, "scale": true, "beta_initializer": {"class_name": "Zeros", "config": {}}, "gamma_initializer": {"class_name": "Ones", "config": {}}, "moving_mean_initializer": {"class_name": "Zeros", "config": {}}, "moving_variance_initializer": {"class_name": "Ones", "config": {}}, "beta_regularizer": null, "gamma_regularizer": null, "beta_constraint": null, "gamma_constraint": null}, "inbound_nodes": [[["separable_conv_2_normal_right1_0", 0, 0, {}]]]}, {"name": "separable_conv_2_bn_normal_left2_0", "class_name": "BatchNormalization", "config": {"name": "separable_conv_2_bn_normal_left2_0", "trainable": false, "axis": -1, "momentum": 0.9997, "epsilon": 0.001, "center": true, "scale": true, "beta_initializer": {"class_name": "Zeros", "config": {}}, "gamma_initializer": {"class_name": "Ones", "config": {}}, "moving_mean_initializer": {"class_name": "Zeros", "config": {}}, "moving_variance_initializer": {"class_name": "Ones", "config": {}}, "beta_regularizer": null, "gamma_regularizer": null, "beta_constraint": null, "gamma_constraint": null}, "inbound_nodes": [[["separable_conv_2_normal_left2_0", 0, 0, {}]]]}, {"name": "separable_conv_2_bn_normal_right2_0", "class_name": "BatchNormalization", "config": {"name": "separable_conv_2_bn_normal_right2_0", "trainable": false, "axis": -1, "momentum": 0.9997, "epsilon": 0.001, "center": true, "scale": true, "beta_initializer": {"class_name": "Zeros", "config": {}}, "gamma_initializer": {"class_name": "Ones", "config": {}}, "moving_mean_initializer": {"class_name": "Zeros", "config": {}}, "moving_variance_initializer": {"class_name": "Ones", "config": {}}, "beta_regularizer": null, "gamma_regularizer": null, "beta_constraint": null, "gamma_constraint": null}, "inbound_nodes": [[["separable_conv_2_normal_right2_0", 0, 0, {}]]]}, {"name": "normal_left3_0", "class_name": "AveragePooling2D", "config": {"name": "normal_left3_0", "trainable": false, "pool_size": [3, 3], "padding": "same", "strides": [1, 1], "data_format": "channels_last"}, "inbound_nodes": [[["normal_bn_1_0", 0, 0, {}]]]}, {"name": "normal_left4_0", "class_name": "AveragePooling2D", "config": {"name": "normal_left4_0", "trainable": false, "pool_size": [3, 3], "padding": "same", "strides": [1, 1], "data_format": "channels_last"}, "inbound_nodes": [[["adjust_bn_0", 0, 0, {}]]]}, {"name": "normal_right4_0", "class_name": "AveragePooling2D", "config": {"name": "normal_right4_0", "trainable": false, "pool_size": [3, 3], "padding": "same", "strides": [1, 1], "data_format": "channels_last"}, "inbound_nodes": [[["adjust_bn_0", 0, 0, {}]]]}, {"name": "separable_conv_2_bn_normal_left5_0", "class_name": "BatchNormalization", "config": {"name": "separable_conv_2_bn_normal_left5_0", "trainable": false, "axis": -1, "momentum": 0.9997, "epsilon": 0.001, "center": true, "scale": true, "beta_initializer": {"class_name": "Zeros", "config": {}}, "gamma_initializer": {"class_name": "Ones", "config": {}}, "moving_mean_initializer": {"class_name": "Zeros", "config": {}}, "moving_variance_initializer": {"class_name": "Ones", "config": {}}, "beta_regularizer": null, "gamma_regularizer": null, "beta_constraint": null, "gamma_constraint": null}, "inbound_nodes": [[["separable_conv_2_normal_left5_0", 0, 0, {}]]]}, {"name": "normal_add_1_0", "class_name": "Add", "config": {"name": "normal_add_1_0", "trainable": false}, "inbound_nodes": [[["separable_conv_2_bn_normal_left1_0", 0, 0, {}], ["separable_conv_2_bn_normal_right1_0", 0, 0, {}]]]}, {"name": "normal_add_2_0", "class_name": "Add", "config": {"name": "normal_add_2_0", "trainable": false}, "inbound_nodes": [[["separable_conv_2_bn_normal_left2_0", 0, 0, {}], ["separable_conv_2_bn_normal_right2_0", 0, 0, {}]]]}, {"name": "normal_add_3_0", "class_name": "Add", "config": {"name": "normal_add_3_0", "trainable": false}, "inbound_nodes": [[["normal_left3_0", 0, 0, {}], ["adjust_bn_0", 0, 0, {}]]]}, {"name": "normal_add_4_0", "class_name": "Add", "config": {"name": "normal_add_4_0", "trainable": false}, "inbound_nodes": [[["normal_left4_0", 0, 0, {}], ["normal_right4_0", 0, 0, {}]]]}, {"name": "normal_add_5_0", "class_name": "Add", "config": {"name": "normal_add_5_0", "trainable": false}, "inbound_nodes": [[["separable_conv_2_bn_normal_left5_0", 0, 0, {}], ["normal_bn_1_0", 0, 0, {}]]]}, {"name": "normal_concat_0", "class_name": "Concatenate", "config": {"name": "normal_concat_0", "trainable": false, "axis": -1}, "inbound_nodes": [[["adjust_bn_0", 0, 0, {}], ["normal_add_1_0", 0, 0, {}], ["normal_add_2_0", 0, 0, {}], ["normal_add_3_0", 0, 0, {}], ["normal_add_4_0", 0, 0, {}], ["normal_add_5_0", 0, 0, {}]]]}, {"name": "activation_331", "class_name": "Activation", "config": {"name": "activation_331", "trainable": false, "activation": "relu"}, "inbound_nodes": [[["reduction_concat_stem_2", 0, 0, {}]]]}, {"name": "activation_332", "class_name": "Activation", "config": {"name": "activation_332", "trainable": false, "activation": "relu"}, "inbound_nodes": [[["normal_concat_0", 0, 0, {}]]]}, {"name": "adjust_conv_projection_1", "class_name": "Conv2D", "config": {"name": "adjust_conv_projection_1", "trainable": false, "filters": 44, "kernel_size": [1, 1], "strides": [1, 1], "padding": "same", "data_format": "channels_last", "dilation_rate": [1, 1], "activation": "linear", "use_bias": false, "kernel_initializer": {"class_name": "VarianceScaling", "config": {"scale": 2.0, "mode": "fan_in", "distribution": "normal", "seed": null}}, "bias_initializer": {"class_name": "Zeros", "config": {}}, "kernel_regularizer": null, "bias_regularizer": null, "activity_regularizer": null, "kernel_constraint": null, "bias_constraint": null}, "inbound_nodes": [[["activation_331", 0, 0, {}]]]}, {"name": "normal_conv_1_1", "class_name": "Conv2D", "config": {"name": "normal_conv_1_1", "trainable": false, "filters": 44, "kernel_size": [1, 1], "strides": [1, 1], "padding": "same", "data_format": "channels_last", "dilation_rate": [1, 1], "activation": "linear", "use_bias": false, "kernel_initializer": {"class_name": "VarianceScaling", "config": {"scale": 2.0, "mode": "fan_in", "distribution": "normal", "seed": null}}, "bias_initializer": {"class_name": "Zeros", "config": {}}, "kernel_regularizer": null, "bias_regularizer": null, "activity_regularizer": null, "kernel_constraint": null, "bias_constraint": null}, "inbound_nodes": [[["activation_332", 0, 0, {}]]]}, {"name": "adjust_bn_1", "class_name": "BatchNormalization", "config": {"name": "adjust_bn_1", "trainable": false, "axis": -1, "momentum": 0.9997, "epsilon": 0.001, "center": true, "scale": true, "beta_initializer": {"class_name": "Zeros", "config": {}}, "gamma_initializer": {"class_name": "Ones", "config": {}}, "moving_mean_initializer": {"class_name": "Zeros", "config": {}}, "moving_variance_initializer": {"class_name": "Ones", "config": {}}, "beta_regularizer": null, "gamma_regularizer": null, "beta_constraint": null, "gamma_constraint": null}, "inbound_nodes": [[["adjust_conv_projection_1", 0, 0, {}]]]}, {"name": "normal_bn_1_1", "class_name": "BatchNormalization", "config": {"name": "normal_bn_1_1", "trainable": false, "axis": -1, "momentum": 0.9997, "epsilon": 0.001, "center": true, "scale": true, "beta_initializer": {"class_name": "Zeros", "config": {}}, "gamma_initializer": {"class_name": "Ones", "config": {}}, "moving_mean_initializer": {"class_name": "Zeros", "config": {}}, "moving_variance_initializer": {"class_name": "Ones", "config": {}}, "beta_regularizer": null, "gamma_regularizer": null, "beta_constraint": null, "gamma_constraint": null}, "inbound_nodes": [[["normal_conv_1_1", 0, 0, {}]]]}, {"name": "activation_333", "class_name": "Activation", "config": {"name": "activation_333", "trainable": false, "activation": "relu"}, "inbound_nodes": [[["normal_bn_1_1", 0, 0, {}]]]}, {"name": "activation_335", "class_name": "Activation", "config": {"name": "activation_335", "trainable": false, "activation": "relu"}, "inbound_nodes": [[["adjust_bn_1", 0, 0, {}]]]}, {"name": "activation_337", "class_name": "Activation", "config": {"name": "activation_337", "trainable": false, "activation": "relu"}, "inbound_nodes": [[["adjust_bn_1", 0, 0, {}]]]}, {"name": "activation_339", "class_name": "Activation", "config": {"name": "activation_339", "trainable": false, "activation": "relu"}, "inbound_nodes": [[["adjust_bn_1", 0, 0, {}]]]}, {"name": "activation_341", "class_name": "Activation", "config": {"name": "activation_341", "trainable": false, "activation": "relu"}, "inbound_nodes": [[["normal_bn_1_1", 0, 0, {}]]]}, {"name": "separable_conv_1_normal_left1_1", "class_name": "SeparableConv2D", "config": {"name": "separable_conv_1_normal_left1_1", "trainable": false, "filters": 44, "kernel_size": [5, 5], "strides": [1, 1], "padding": "same", "data_format": "channels_last", "dilation_rate": [1, 1], "activation": "linear", "use_bias": false, "bias_initializer": {"class_name": "Zeros", "config": {}}, "bias_regularizer": null, "activity_regularizer": null, "bias_constraint": null, "depth_multiplier": 1, "depthwise_initializer": {"class_name": "VarianceScaling", "config": {"scale": 1.0, "mode": "fan_avg", "distribution": "uniform", "seed": null}}, "pointwise_initializer": {"class_name": "VarianceScaling", "config": {"scale": 1.0, "mode": "fan_avg", "distribution": "uniform", "seed": null}}, "depthwise_regularizer": null, "pointwise_regularizer": null, "depthwise_constraint": null, "pointwise_constraint": null}, "inbound_nodes": [[["activation_333", 0, 0, {}]]]}, {"name": "separable_conv_1_normal_right1_1", "class_name": "SeparableConv2D", "config": {"name": "separable_conv_1_normal_right1_1", "trainable": false, "filters": 44, "kernel_size": [3, 3], "strides": [1, 1], "padding": "same", "data_format": "channels_last", "dilation_rate": [1, 1], "activation": "linear", "use_bias": false, "bias_initializer": {"class_name": "Zeros", "config": {}}, "bias_regularizer": null, "activity_regularizer": null, "bias_constraint": null, "depth_multiplier": 1, "depthwise_initializer": {"class_name": "VarianceScaling", "config": {"scale": 1.0, "mode": "fan_avg", "distribution": "uniform", "seed": null}}, "pointwise_initializer": {"class_name": "VarianceScaling", "config": {"scale": 1.0, "mode": "fan_avg", "distribution": "uniform", "seed": null}}, "depthwise_regularizer": null, "pointwise_regularizer": null, "depthwise_constraint": null, "pointwise_constraint": null}, "inbound_nodes": [[["activation_335", 0, 0, {}]]]}, {"name": "separable_conv_1_normal_left2_1", "class_name": "SeparableConv2D", "config": {"name": "separable_conv_1_normal_left2_1", "trainable": false, "filters": 44, "kernel_size": [5, 5], "strides": [1, 1], "padding": "same", "data_format": "channels_last", "dilation_rate": [1, 1], "activation": "linear", "use_bias": false, "bias_initializer": {"class_name": "Zeros", "config": {}}, "bias_regularizer": null, "activity_regularizer": null, "bias_constraint": null, "depth_multiplier": 1, "depthwise_initializer": {"class_name": "VarianceScaling", "config": {"scale": 1.0, "mode": "fan_avg", "distribution": "uniform", "seed": null}}, "pointwise_initializer": {"class_name": "VarianceScaling", "config": {"scale": 1.0, "mode": "fan_avg", "distribution": "uniform", "seed": null}}, "depthwise_regularizer": null, "pointwise_regularizer": null, "depthwise_constraint": null, "pointwise_constraint": null}, "inbound_nodes": [[["activation_337", 0, 0, {}]]]}, {"name": "separable_conv_1_normal_right2_1", "class_name": "SeparableConv2D", "config": {"name": "separable_conv_1_normal_right2_1", "trainable": false, "filters": 44, "kernel_size": [3, 3], "strides": [1, 1], "padding": "same", "data_format": "channels_last", "dilation_rate": [1, 1], "activation": "linear", "use_bias": false, "bias_initializer": {"class_name": "Zeros", "config": {}}, "bias_regularizer": null, "activity_regularizer": null, "bias_constraint": null, "depth_multiplier": 1, "depthwise_initializer": {"class_name": "VarianceScaling", "config": {"scale": 1.0, "mode": "fan_avg", "distribution": "uniform", "seed": null}}, "pointwise_initializer": {"class_name": "VarianceScaling", "config": {"scale": 1.0, "mode": "fan_avg", "distribution": "uniform", "seed": null}}, "depthwise_regularizer": null, "pointwise_regularizer": null, "depthwise_constraint": null, "pointwise_constraint": null}, "inbound_nodes": [[["activation_339", 0, 0, {}]]]}, {"name": "separable_conv_1_normal_left5_1", "class_name": "SeparableConv2D", "config": {"name": "separable_conv_1_normal_left5_1", "trainable": false, "filters": 44, "kernel_size": [3, 3], "strides": [1, 1], "padding": "same", "data_format": "channels_last", "dilation_rate": [1, 1], "activation": "linear", "use_bias": false, "bias_initializer": {"class_name": "Zeros", "config": {}}, "bias_regularizer": null, "activity_regularizer": null, "bias_constraint": null, "depth_multiplier": 1, "depthwise_initializer": {"class_name": "VarianceScaling", "config": {"scale": 1.0, "mode": "fan_avg", "distribution": "uniform", "seed": null}}, "pointwise_initializer": {"class_name": "VarianceScaling", "config": {"scale": 1.0, "mode": "fan_avg", "distribution": "uniform", "seed": null}}, "depthwise_regularizer": null, "pointwise_regularizer": null, "depthwise_constraint": null, "pointwise_constraint": null}, "inbound_nodes": [[["activation_341", 0, 0, {}]]]}, {"name": "separable_conv_1_bn_normal_left1_1", "class_name": "BatchNormalization", "config": {"name": "separable_conv_1_bn_normal_left1_1", "trainable": false, "axis": -1, "momentum": 0.9997, "epsilon": 0.001, "center": true, "scale": true, "beta_initializer": {"class_name": "Zeros", "config": {}}, "gamma_initializer": {"class_name": "Ones", "config": {}}, "moving_mean_initializer": {"class_name": "Zeros", "config": {}}, "moving_variance_initializer": {"class_name": "Ones", "config": {}}, "beta_regularizer": null, "gamma_regularizer": null, "beta_constraint": null, "gamma_constraint": null}, "inbound_nodes": [[["separable_conv_1_normal_left1_1", 0, 0, {}]]]}, {"name": "separable_conv_1_bn_normal_right1_1", "class_name": "BatchNormalization", "config": {"name": "separable_conv_1_bn_normal_right1_1", "trainable": false, "axis": -1, "momentum": 0.9997, "epsilon": 0.001, "center": true, "scale": true, "beta_initializer": {"class_name": "Zeros", "config": {}}, "gamma_initializer": {"class_name": "Ones", "config": {}}, "moving_mean_initializer": {"class_name": "Zeros", "config": {}}, "moving_variance_initializer": {"class_name": "Ones", "config": {}}, "beta_regularizer": null, "gamma_regularizer": null, "beta_constraint": null, "gamma_constraint": null}, "inbound_nodes": [[["separable_conv_1_normal_right1_1", 0, 0, {}]]]}, {"name": "separable_conv_1_bn_normal_left2_1", "class_name": "BatchNormalization", "config": {"name": "separable_conv_1_bn_normal_left2_1", "trainable": false, "axis": -1, "momentum": 0.9997, "epsilon": 0.001, "center": true, "scale": true, "beta_initializer": {"class_name": "Zeros", "config": {}}, "gamma_initializer": {"class_name": "Ones", "config": {}}, "moving_mean_initializer": {"class_name": "Zeros", "config": {}}, "moving_variance_initializer": {"class_name": "Ones", "config": {}}, "beta_regularizer": null, "gamma_regularizer": null, "beta_constraint": null, "gamma_constraint": null}, "inbound_nodes": [[["separable_conv_1_normal_left2_1", 0, 0, {}]]]}, {"name": "separable_conv_1_bn_normal_right2_1", "class_name": "BatchNormalization", "config": {"name": "separable_conv_1_bn_normal_right2_1", "trainable": false, "axis": -1, "momentum": 0.9997, "epsilon": 0.001, "center": true, "scale": true, "beta_initializer": {"class_name": "Zeros", "config": {}}, "gamma_initializer": {"class_name": "Ones", "config": {}}, "moving_mean_initializer": {"class_name": "Zeros", "config": {}}, "moving_variance_initializer": {"class_name": "Ones", "config": {}}, "beta_regularizer": null, "gamma_regularizer": null, "beta_constraint": null, "gamma_constraint": null}, "inbound_nodes": [[["separable_conv_1_normal_right2_1", 0, 0, {}]]]}, {"name": "separable_conv_1_bn_normal_left5_1", "class_name": "BatchNormalization", "config": {"name": "separable_conv_1_bn_normal_left5_1", "trainable": false, "axis": -1, "momentum": 0.9997, "epsilon": 0.001, "center": true, "scale": true, "beta_initializer": {"class_name": "Zeros", "config": {}}, "gamma_initializer": {"class_name": "Ones", "config": {}}, "moving_mean_initializer": {"class_name": "Zeros", "config": {}}, "moving_variance_initializer": {"class_name": "Ones", "config": {}}, "beta_regularizer": null, "gamma_regularizer": null, "beta_constraint": null, "gamma_constraint": null}, "inbound_nodes": [[["separable_conv_1_normal_left5_1", 0, 0, {}]]]}, {"name": "activation_334", "class_name": "Activation", "config": {"name": "activation_334", "trainable": false, "activation": "relu"}, "inbound_nodes": [[["separable_conv_1_bn_normal_left1_1", 0, 0, {}]]]}, {"name": "activation_336", "class_name": "Activation", "config": {"name": "activation_336", "trainable": false, "activation": "relu"}, "inbound_nodes": [[["separable_conv_1_bn_normal_right1_1", 0, 0, {}]]]}, {"name": "activation_338", "class_name": "Activation", "config": {"name": "activation_338", "trainable": false, "activation": "relu"}, "inbound_nodes": [[["separable_conv_1_bn_normal_left2_1", 0, 0, {}]]]}, {"name": "activation_340", "class_name": "Activation", "config": {"name": "activation_340", "trainable": false, "activation": "relu"}, "inbound_nodes": [[["separable_conv_1_bn_normal_right2_1", 0, 0, {}]]]}, {"name": "activation_342", "class_name": "Activation", "config": {"name": "activation_342", "trainable": false, "activation": "relu"}, "inbound_nodes": [[["separable_conv_1_bn_normal_left5_1", 0, 0, {}]]]}, {"name": "separable_conv_2_normal_left1_1", "class_name": "SeparableConv2D", "config": {"name": "separable_conv_2_normal_left1_1", "trainable": false, "filters": 44, "kernel_size": [5, 5], "strides": [1, 1], "padding": "same", "data_format": "channels_last", "dilation_rate": [1, 1], "activation": "linear", "use_bias": false, "bias_initializer": {"class_name": "Zeros", "config": {}}, "bias_regularizer": null, "activity_regularizer": null, "bias_constraint": null, "depth_multiplier": 1, "depthwise_initializer": {"class_name": "VarianceScaling", "config": {"scale": 1.0, "mode": "fan_avg", "distribution": "uniform", "seed": null}}, "pointwise_initializer": {"class_name": "VarianceScaling", "config": {"scale": 1.0, "mode": "fan_avg", "distribution": "uniform", "seed": null}}, "depthwise_regularizer": null, "pointwise_regularizer": null, "depthwise_constraint": null, "pointwise_constraint": null}, "inbound_nodes": [[["activation_334", 0, 0, {}]]]}, {"name": "separable_conv_2_normal_right1_1", "class_name": "SeparableConv2D", "config": {"name": "separable_conv_2_normal_right1_1", "trainable": false, "filters": 44, "kernel_size": [3, 3], "strides": [1, 1], "padding": "same", "data_format": "channels_last", "dilation_rate": [1, 1], "activation": "linear", "use_bias": false, "bias_initializer": {"class_name": "Zeros", "config": {}}, "bias_regularizer": null, "activity_regularizer": null, "bias_constraint": null, "depth_multiplier": 1, "depthwise_initializer": {"class_name": "VarianceScaling", "config": {"scale": 1.0, "mode": "fan_avg", "distribution": "uniform", "seed": null}}, "pointwise_initializer": {"class_name": "VarianceScaling", "config": {"scale": 1.0, "mode": "fan_avg", "distribution": "uniform", "seed": null}}, "depthwise_regularizer": null, "pointwise_regularizer": null, "depthwise_constraint": null, "pointwise_constraint": null}, "inbound_nodes": [[["activation_336", 0, 0, {}]]]}, {"name": "separable_conv_2_normal_left2_1", "class_name": "SeparableConv2D", "config": {"name": "separable_conv_2_normal_left2_1", "trainable": false, "filters": 44, "kernel_size": [5, 5], "strides": [1, 1], "padding": "same", "data_format": "channels_last", "dilation_rate": [1, 1], "activation": "linear", "use_bias": false, "bias_initializer": {"class_name": "Zeros", "config": {}}, "bias_regularizer": null, "activity_regularizer": null, "bias_constraint": null, "depth_multiplier": 1, "depthwise_initializer": {"class_name": "VarianceScaling", "config": {"scale": 1.0, "mode": "fan_avg", "distribution": "uniform", "seed": null}}, "pointwise_initializer": {"class_name": "VarianceScaling", "config": {"scale": 1.0, "mode": "fan_avg", "distribution": "uniform", "seed": null}}, "depthwise_regularizer": null, "pointwise_regularizer": null, "depthwise_constraint": null, "pointwise_constraint": null}, "inbound_nodes": [[["activation_338", 0, 0, {}]]]}, {"name": "separable_conv_2_normal_right2_1", "class_name": "SeparableConv2D", "config": {"name": "separable_conv_2_normal_right2_1", "trainable": false, "filters": 44, "kernel_size": [3, 3], "strides": [1, 1], "padding": "same", "data_format": "channels_last", "dilation_rate": [1, 1], "activation": "linear", "use_bias": false, "bias_initializer": {"class_name": "Zeros", "config": {}}, "bias_regularizer": null, "activity_regularizer": null, "bias_constraint": null, "depth_multiplier": 1, "depthwise_initializer": {"class_name": "VarianceScaling", "config": {"scale": 1.0, "mode": "fan_avg", "distribution": "uniform", "seed": null}}, "pointwise_initializer": {"class_name": "VarianceScaling", "config": {"scale": 1.0, "mode": "fan_avg", "distribution": "uniform", "seed": null}}, "depthwise_regularizer": null, "pointwise_regularizer": null, "depthwise_constraint": null, "pointwise_constraint": null}, "inbound_nodes": [[["activation_340", 0, 0, {}]]]}, {"name": "separable_conv_2_normal_left5_1", "class_name": "SeparableConv2D", "config": {"name": "separable_conv_2_normal_left5_1", "trainable": false, "filters": 44, "kernel_size": [3, 3], "strides": [1, 1], "padding": "same", "data_format": "channels_last", "dilation_rate": [1, 1], "activation": "linear", "use_bias": false, "bias_initializer": {"class_name": "Zeros", "config": {}}, "bias_regularizer": null, "activity_regularizer": null, "bias_constraint": null, "depth_multiplier": 1, "depthwise_initializer": {"class_name": "VarianceScaling", "config": {"scale": 1.0, "mode": "fan_avg", "distribution": "uniform", "seed": null}}, "pointwise_initializer": {"class_name": "VarianceScaling", "config": {"scale": 1.0, "mode": "fan_avg", "distribution": "uniform", "seed": null}}, "depthwise_regularizer": null, "pointwise_regularizer": null, "depthwise_constraint": null, "pointwise_constraint": null}, "inbound_nodes": [[["activation_342", 0, 0, {}]]]}, {"name": "separable_conv_2_bn_normal_left1_1", "class_name": "BatchNormalization", "config": {"name": "separable_conv_2_bn_normal_left1_1", "trainable": false, "axis": -1, "momentum": 0.9997, "epsilon": 0.001, "center": true, "scale": true, "beta_initializer": {"class_name": "Zeros", "config": {}}, "gamma_initializer": {"class_name": "Ones", "config": {}}, "moving_mean_initializer": {"class_name": "Zeros", "config": {}}, "moving_variance_initializer": {"class_name": "Ones", "config": {}}, "beta_regularizer": null, "gamma_regularizer": null, "beta_constraint": null, "gamma_constraint": null}, "inbound_nodes": [[["separable_conv_2_normal_left1_1", 0, 0, {}]]]}, {"name": "separable_conv_2_bn_normal_right1_1", "class_name": "BatchNormalization", "config": {"name": "separable_conv_2_bn_normal_right1_1", "trainable": false, "axis": -1, "momentum": 0.9997, "epsilon": 0.001, "center": true, "scale": true, "beta_initializer": {"class_name": "Zeros", "config": {}}, "gamma_initializer": {"class_name": "Ones", "config": {}}, "moving_mean_initializer": {"class_name": "Zeros", "config": {}}, "moving_variance_initializer": {"class_name": "Ones", "config": {}}, "beta_regularizer": null, "gamma_regularizer": null, "beta_constraint": null, "gamma_constraint": null}, "inbound_nodes": [[["separable_conv_2_normal_right1_1", 0, 0, {}]]]}, {"name": "separable_conv_2_bn_normal_left2_1", "class_name": "BatchNormalization", "config": {"name": "separable_conv_2_bn_normal_left2_1", "trainable": false, "axis": -1, "momentum": 0.9997, "epsilon": 0.001, "center": true, "scale": true, "beta_initializer": {"class_name": "Zeros", "config": {}}, "gamma_initializer": {"class_name": "Ones", "config": {}}, "moving_mean_initializer": {"class_name": "Zeros", "config": {}}, "moving_variance_initializer": {"class_name": "Ones", "config": {}}, "beta_regularizer": null, "gamma_regularizer": null, "beta_constraint": null, "gamma_constraint": null}, "inbound_nodes": [[["separable_conv_2_normal_left2_1", 0, 0, {}]]]}, {"name": "separable_conv_2_bn_normal_right2_1", "class_name": "BatchNormalization", "config": {"name": "separable_conv_2_bn_normal_right2_1", "trainable": false, "axis": -1, "momentum": 0.9997, "epsilon": 0.001, "center": true, "scale": true, "beta_initializer": {"class_name": "Zeros", "config": {}}, "gamma_initializer": {"class_name": "Ones", "config": {}}, "moving_mean_initializer": {"class_name": "Zeros", "config": {}}, "moving_variance_initializer": {"class_name": "Ones", "config": {}}, "beta_regularizer": null, "gamma_regularizer": null, "beta_constraint": null, "gamma_constraint": null}, "inbound_nodes": [[["separable_conv_2_normal_right2_1", 0, 0, {}]]]}, {"name": "normal_left3_1", "class_name": "AveragePooling2D", "config": {"name": "normal_left3_1", "trainable": false, "pool_size": [3, 3], "padding": "same", "strides": [1, 1], "data_format": "channels_last"}, "inbound_nodes": [[["normal_bn_1_1", 0, 0, {}]]]}, {"name": "normal_left4_1", "class_name": "AveragePooling2D", "config": {"name": "normal_left4_1", "trainable": false, "pool_size": [3, 3], "padding": "same", "strides": [1, 1], "data_format": "channels_last"}, "inbound_nodes": [[["adjust_bn_1", 0, 0, {}]]]}, {"name": "normal_right4_1", "class_name": "AveragePooling2D", "config": {"name": "normal_right4_1", "trainable": false, "pool_size": [3, 3], "padding": "same", "strides": [1, 1], "data_format": "channels_last"}, "inbound_nodes": [[["adjust_bn_1", 0, 0, {}]]]}, {"name": "separable_conv_2_bn_normal_left5_1", "class_name": "BatchNormalization", "config": {"name": "separable_conv_2_bn_normal_left5_1", "trainable": false, "axis": -1, "momentum": 0.9997, "epsilon": 0.001, "center": true, "scale": true, "beta_initializer": {"class_name": "Zeros", "config": {}}, "gamma_initializer": {"class_name": "Ones", "config": {}}, "moving_mean_initializer": {"class_name": "Zeros", "config": {}}, "moving_variance_initializer": {"class_name": "Ones", "config": {}}, "beta_regularizer": null, "gamma_regularizer": null, "beta_constraint": null, "gamma_constraint": null}, "inbound_nodes": [[["separable_conv_2_normal_left5_1", 0, 0, {}]]]}, {"name": "normal_add_1_1", "class_name": "Add", "config": {"name": "normal_add_1_1", "trainable": false}, "inbound_nodes": [[["separable_conv_2_bn_normal_left1_1", 0, 0, {}], ["separable_conv_2_bn_normal_right1_1", 0, 0, {}]]]}, {"name": "normal_add_2_1", "class_name": "Add", "config": {"name": "normal_add_2_1", "trainable": false}, "inbound_nodes": [[["separable_conv_2_bn_normal_left2_1", 0, 0, {}], ["separable_conv_2_bn_normal_right2_1", 0, 0, {}]]]}, {"name": "normal_add_3_1", "class_name": "Add", "config": {"name": "normal_add_3_1", "trainable": false}, "inbound_nodes": [[["normal_left3_1", 0, 0, {}], ["adjust_bn_1", 0, 0, {}]]]}, {"name": "normal_add_4_1", "class_name": "Add", "config": {"name": "normal_add_4_1", "trainable": false}, "inbound_nodes": [[["normal_left4_1", 0, 0, {}], ["normal_right4_1", 0, 0, {}]]]}, {"name": "normal_add_5_1", "class_name": "Add", "config": {"name": "normal_add_5_1", "trainable": false}, "inbound_nodes": [[["separable_conv_2_bn_normal_left5_1", 0, 0, {}], ["normal_bn_1_1", 0, 0, {}]]]}, {"name": "normal_concat_1", "class_name": "Concatenate", "config": {"name": "normal_concat_1", "trainable": false, "axis": -1}, "inbound_nodes": [[["adjust_bn_1", 0, 0, {}], ["normal_add_1_1", 0, 0, {}], ["normal_add_2_1", 0, 0, {}], ["normal_add_3_1", 0, 0, {}], ["normal_add_4_1", 0, 0, {}], ["normal_add_5_1", 0, 0, {}]]]}, {"name": "activation_343", "class_name": "Activation", "config": {"name": "activation_343", "trainable": false, "activation": "relu"}, "inbound_nodes": [[["normal_concat_0", 0, 0, {}]]]}, {"name": "activation_344", "class_name": "Activation", "config": {"name": "activation_344", "trainable": false, "activation": "relu"}, "inbound_nodes": [[["normal_concat_1", 0, 0, {}]]]}, {"name": "adjust_conv_projection_2", "class_name": "Conv2D", "config": {"name": "adjust_conv_projection_2", "trainable": false, "filters": 44, "kernel_size": [1, 1], "strides": [1, 1], "padding": "same", "data_format": "channels_last", "dilation_rate": [1, 1], "activation": "linear", "use_bias": false, "kernel_initializer": {"class_name": "VarianceScaling", "config": {"scale": 2.0, "mode": "fan_in", "distribution": "normal", "seed": null}}, "bias_initializer": {"class_name": "Zeros", "config": {}}, "kernel_regularizer": null, "bias_regularizer": null, "activity_regularizer": null, "kernel_constraint": null, "bias_constraint": null}, "inbound_nodes": [[["activation_343", 0, 0, {}]]]}, {"name": "normal_conv_1_2", "class_name": "Conv2D", "config": {"name": "normal_conv_1_2", "trainable": false, "filters": 44, "kernel_size": [1, 1], "strides": [1, 1], "padding": "same", "data_format": "channels_last", "dilation_rate": [1, 1], "activation": "linear", "use_bias": false, "kernel_initializer": {"class_name": "VarianceScaling", "config": {"scale": 2.0, "mode": "fan_in", "distribution": "normal", "seed": null}}, "bias_initializer": {"class_name": "Zeros", "config": {}}, "kernel_regularizer": null, "bias_regularizer": null, "activity_regularizer": null, "kernel_constraint": null, "bias_constraint": null}, "inbound_nodes": [[["activation_344", 0, 0, {}]]]}, {"name": "adjust_bn_2", "class_name": "BatchNormalization", "config": {"name": "adjust_bn_2", "trainable": false, "axis": -1, "momentum": 0.9997, "epsilon": 0.001, "center": true, "scale": true, "beta_initializer": {"class_name": "Zeros", "config": {}}, "gamma_initializer": {"class_name": "Ones", "config": {}}, "moving_mean_initializer": {"class_name": "Zeros", "config": {}}, "moving_variance_initializer": {"class_name": "Ones", "config": {}}, "beta_regularizer": null, "gamma_regularizer": null, "beta_constraint": null, "gamma_constraint": null}, "inbound_nodes": [[["adjust_conv_projection_2", 0, 0, {}]]]}, {"name": "normal_bn_1_2", "class_name": "BatchNormalization", "config": {"name": "normal_bn_1_2", "trainable": false, "axis": -1, "momentum": 0.9997, "epsilon": 0.001, "center": true, "scale": true, "beta_initializer": {"class_name": "Zeros", "config": {}}, "gamma_initializer": {"class_name": "Ones", "config": {}}, "moving_mean_initializer": {"class_name": "Zeros", "config": {}}, "moving_variance_initializer": {"class_name": "Ones", "config": {}}, "beta_regularizer": null, "gamma_regularizer": null, "beta_constraint": null, "gamma_constraint": null}, "inbound_nodes": [[["normal_conv_1_2", 0, 0, {}]]]}, {"name": "activation_345", "class_name": "Activation", "config": {"name": "activation_345", "trainable": false, "activation": "relu"}, "inbound_nodes": [[["normal_bn_1_2", 0, 0, {}]]]}, {"name": "activation_347", "class_name": "Activation", "config": {"name": "activation_347", "trainable": false, "activation": "relu"}, "inbound_nodes": [[["adjust_bn_2", 0, 0, {}]]]}, {"name": "activation_349", "class_name": "Activation", "config": {"name": "activation_349", "trainable": false, "activation": "relu"}, "inbound_nodes": [[["adjust_bn_2", 0, 0, {}]]]}, {"name": "activation_351", "class_name": "Activation", "config": {"name": "activation_351", "trainable": false, "activation": "relu"}, "inbound_nodes": [[["adjust_bn_2", 0, 0, {}]]]}, {"name": "activation_353", "class_name": "Activation", "config": {"name": "activation_353", "trainable": false, "activation": "relu"}, "inbound_nodes": [[["normal_bn_1_2", 0, 0, {}]]]}, {"name": "separable_conv_1_normal_left1_2", "class_name": "SeparableConv2D", "config": {"name": "separable_conv_1_normal_left1_2", "trainable": false, "filters": 44, "kernel_size": [5, 5], "strides": [1, 1], "padding": "same", "data_format": "channels_last", "dilation_rate": [1, 1], "activation": "linear", "use_bias": false, "bias_initializer": {"class_name": "Zeros", "config": {}}, "bias_regularizer": null, "activity_regularizer": null, "bias_constraint": null, "depth_multiplier": 1, "depthwise_initializer": {"class_name": "VarianceScaling", "config": {"scale": 1.0, "mode": "fan_avg", "distribution": "uniform", "seed": null}}, "pointwise_initializer": {"class_name": "VarianceScaling", "config": {"scale": 1.0, "mode": "fan_avg", "distribution": "uniform", "seed": null}}, "depthwise_regularizer": null, "pointwise_regularizer": null, "depthwise_constraint": null, "pointwise_constraint": null}, "inbound_nodes": [[["activation_345", 0, 0, {}]]]}, {"name": "separable_conv_1_normal_right1_2", "class_name": "SeparableConv2D", "config": {"name": "separable_conv_1_normal_right1_2", "trainable": false, "filters": 44, "kernel_size": [3, 3], "strides": [1, 1], "padding": "same", "data_format": "channels_last", "dilation_rate": [1, 1], "activation": "linear", "use_bias": false, "bias_initializer": {"class_name": "Zeros", "config": {}}, "bias_regularizer": null, "activity_regularizer": null, "bias_constraint": null, "depth_multiplier": 1, "depthwise_initializer": {"class_name": "VarianceScaling", "config": {"scale": 1.0, "mode": "fan_avg", "distribution": "uniform", "seed": null}}, "pointwise_initializer": {"class_name": "VarianceScaling", "config": {"scale": 1.0, "mode": "fan_avg", "distribution": "uniform", "seed": null}}, "depthwise_regularizer": null, "pointwise_regularizer": null, "depthwise_constraint": null, "pointwise_constraint": null}, "inbound_nodes": [[["activation_347", 0, 0, {}]]]}, {"name": "separable_conv_1_normal_left2_2", "class_name": "SeparableConv2D", "config": {"name": "separable_conv_1_normal_left2_2", "trainable": false, "filters": 44, "kernel_size": [5, 5], "strides": [1, 1], "padding": "same", "data_format": "channels_last", "dilation_rate": [1, 1], "activation": "linear", "use_bias": false, "bias_initializer": {"class_name": "Zeros", "config": {}}, "bias_regularizer": null, "activity_regularizer": null, "bias_constraint": null, "depth_multiplier": 1, "depthwise_initializer": {"class_name": "VarianceScaling", "config": {"scale": 1.0, "mode": "fan_avg", "distribution": "uniform", "seed": null}}, "pointwise_initializer": {"class_name": "VarianceScaling", "config": {"scale": 1.0, "mode": "fan_avg", "distribution": "uniform", "seed": null}}, "depthwise_regularizer": null, "pointwise_regularizer": null, "depthwise_constraint": null, "pointwise_constraint": null}, "inbound_nodes": [[["activation_349", 0, 0, {}]]]}, {"name": "separable_conv_1_normal_right2_2", "class_name": "SeparableConv2D", "config": {"name": "separable_conv_1_normal_right2_2", "trainable": false, "filters": 44, "kernel_size": [3, 3], "strides": [1, 1], "padding": "same", "data_format": "channels_last", "dilation_rate": [1, 1], "activation": "linear", "use_bias": false, "bias_initializer": {"class_name": "Zeros", "config": {}}, "bias_regularizer": null, "activity_regularizer": null, "bias_constraint": null, "depth_multiplier": 1, "depthwise_initializer": {"class_name": "VarianceScaling", "config": {"scale": 1.0, "mode": "fan_avg", "distribution": "uniform", "seed": null}}, "pointwise_initializer": {"class_name": "VarianceScaling", "config": {"scale": 1.0, "mode": "fan_avg", "distribution": "uniform", "seed": null}}, "depthwise_regularizer": null, "pointwise_regularizer": null, "depthwise_constraint": null, "pointwise_constraint": null}, "inbound_nodes": [[["activation_351", 0, 0, {}]]]}, {"name": "separable_conv_1_normal_left5_2", "class_name": "SeparableConv2D", "config": {"name": "separable_conv_1_normal_left5_2", "trainable": false, "filters": 44, "kernel_size": [3, 3], "strides": [1, 1], "padding": "same", "data_format": "channels_last", "dilation_rate": [1, 1], "activation": "linear", "use_bias": false, "bias_initializer": {"class_name": "Zeros", "config": {}}, "bias_regularizer": null, "activity_regularizer": null, "bias_constraint": null, "depth_multiplier": 1, "depthwise_initializer": {"class_name": "VarianceScaling", "config": {"scale": 1.0, "mode": "fan_avg", "distribution": "uniform", "seed": null}}, "pointwise_initializer": {"class_name": "VarianceScaling", "config": {"scale": 1.0, "mode": "fan_avg", "distribution": "uniform", "seed": null}}, "depthwise_regularizer": null, "pointwise_regularizer": null, "depthwise_constraint": null, "pointwise_constraint": null}, "inbound_nodes": [[["activation_353", 0, 0, {}]]]}, {"name": "separable_conv_1_bn_normal_left1_2", "class_name": "BatchNormalization", "config": {"name": "separable_conv_1_bn_normal_left1_2", "trainable": false, "axis": -1, "momentum": 0.9997, "epsilon": 0.001, "center": true, "scale": true, "beta_initializer": {"class_name": "Zeros", "config": {}}, "gamma_initializer": {"class_name": "Ones", "config": {}}, "moving_mean_initializer": {"class_name": "Zeros", "config": {}}, "moving_variance_initializer": {"class_name": "Ones", "config": {}}, "beta_regularizer": null, "gamma_regularizer": null, "beta_constraint": null, "gamma_constraint": null}, "inbound_nodes": [[["separable_conv_1_normal_left1_2", 0, 0, {}]]]}, {"name": "separable_conv_1_bn_normal_right1_2", "class_name": "BatchNormalization", "config": {"name": "separable_conv_1_bn_normal_right1_2", "trainable": false, "axis": -1, "momentum": 0.9997, "epsilon": 0.001, "center": true, "scale": true, "beta_initializer": {"class_name": "Zeros", "config": {}}, "gamma_initializer": {"class_name": "Ones", "config": {}}, "moving_mean_initializer": {"class_name": "Zeros", "config": {}}, "moving_variance_initializer": {"class_name": "Ones", "config": {}}, "beta_regularizer": null, "gamma_regularizer": null, "beta_constraint": null, "gamma_constraint": null}, "inbound_nodes": [[["separable_conv_1_normal_right1_2", 0, 0, {}]]]}, {"name": "separable_conv_1_bn_normal_left2_2", "class_name": "BatchNormalization", "config": {"name": "separable_conv_1_bn_normal_left2_2", "trainable": false, "axis": -1, "momentum": 0.9997, "epsilon": 0.001, "center": true, "scale": true, "beta_initializer": {"class_name": "Zeros", "config": {}}, "gamma_initializer": {"class_name": "Ones", "config": {}}, "moving_mean_initializer": {"class_name": "Zeros", "config": {}}, "moving_variance_initializer": {"class_name": "Ones", "config": {}}, "beta_regularizer": null, "gamma_regularizer": null, "beta_constraint": null, "gamma_constraint": null}, "inbound_nodes": [[["separable_conv_1_normal_left2_2", 0, 0, {}]]]}, {"name": "separable_conv_1_bn_normal_right2_2", "class_name": "BatchNormalization", "config": {"name": "separable_conv_1_bn_normal_right2_2", "trainable": false, "axis": -1, "momentum": 0.9997, "epsilon": 0.001, "center": true, "scale": true, "beta_initializer": {"class_name": "Zeros", "config": {}}, "gamma_initializer": {"class_name": "Ones", "config": {}}, "moving_mean_initializer": {"class_name": "Zeros", "config": {}}, "moving_variance_initializer": {"class_name": "Ones", "config": {}}, "beta_regularizer": null, "gamma_regularizer": null, "beta_constraint": null, "gamma_constraint": null}, "inbound_nodes": [[["separable_conv_1_normal_right2_2", 0, 0, {}]]]}, {"name": "separable_conv_1_bn_normal_left5_2", "class_name": "BatchNormalization", "config": {"name": "separable_conv_1_bn_normal_left5_2", "trainable": false, "axis": -1, "momentum": 0.9997, "epsilon": 0.001, "center": true, "scale": true, "beta_initializer": {"class_name": "Zeros", "config": {}}, "gamma_initializer": {"class_name": "Ones", "config": {}}, "moving_mean_initializer": {"class_name": "Zeros", "config": {}}, "moving_variance_initializer": {"class_name": "Ones", "config": {}}, "beta_regularizer": null, "gamma_regularizer": null, "beta_constraint": null, "gamma_constraint": null}, "inbound_nodes": [[["separable_conv_1_normal_left5_2", 0, 0, {}]]]}, {"name": "activation_346", "class_name": "Activation", "config": {"name": "activation_346", "trainable": false, "activation": "relu"}, "inbound_nodes": [[["separable_conv_1_bn_normal_left1_2", 0, 0, {}]]]}, {"name": "activation_348", "class_name": "Activation", "config": {"name": "activation_348", "trainable": false, "activation": "relu"}, "inbound_nodes": [[["separable_conv_1_bn_normal_right1_2", 0, 0, {}]]]}, {"name": "activation_350", "class_name": "Activation", "config": {"name": "activation_350", "trainable": false, "activation": "relu"}, "inbound_nodes": [[["separable_conv_1_bn_normal_left2_2", 0, 0, {}]]]}, {"name": "activation_352", "class_name": "Activation", "config": {"name": "activation_352", "trainable": false, "activation": "relu"}, "inbound_nodes": [[["separable_conv_1_bn_normal_right2_2", 0, 0, {}]]]}, {"name": "activation_354", "class_name": "Activation", "config": {"name": "activation_354", "trainable": false, "activation": "relu"}, "inbound_nodes": [[["separable_conv_1_bn_normal_left5_2", 0, 0, {}]]]}, {"name": "separable_conv_2_normal_left1_2", "class_name": "SeparableConv2D", "config": {"name": "separable_conv_2_normal_left1_2", "trainable": false, "filters": 44, "kernel_size": [5, 5], "strides": [1, 1], "padding": "same", "data_format": "channels_last", "dilation_rate": [1, 1], "activation": "linear", "use_bias": false, "bias_initializer": {"class_name": "Zeros", "config": {}}, "bias_regularizer": null, "activity_regularizer": null, "bias_constraint": null, "depth_multiplier": 1, "depthwise_initializer": {"class_name": "VarianceScaling", "config": {"scale": 1.0, "mode": "fan_avg", "distribution": "uniform", "seed": null}}, "pointwise_initializer": {"class_name": "VarianceScaling", "config": {"scale": 1.0, "mode": "fan_avg", "distribution": "uniform", "seed": null}}, "depthwise_regularizer": null, "pointwise_regularizer": null, "depthwise_constraint": null, "pointwise_constraint": null}, "inbound_nodes": [[["activation_346", 0, 0, {}]]]}, {"name": "separable_conv_2_normal_right1_2", "class_name": "SeparableConv2D", "config": {"name": "separable_conv_2_normal_right1_2", "trainable": false, "filters": 44, "kernel_size": [3, 3], "strides": [1, 1], "padding": "same", "data_format": "channels_last", "dilation_rate": [1, 1], "activation": "linear", "use_bias": false, "bias_initializer": {"class_name": "Zeros", "config": {}}, "bias_regularizer": null, "activity_regularizer": null, "bias_constraint": null, "depth_multiplier": 1, "depthwise_initializer": {"class_name": "VarianceScaling", "config": {"scale": 1.0, "mode": "fan_avg", "distribution": "uniform", "seed": null}}, "pointwise_initializer": {"class_name": "VarianceScaling", "config": {"scale": 1.0, "mode": "fan_avg", "distribution": "uniform", "seed": null}}, "depthwise_regularizer": null, "pointwise_regularizer": null, "depthwise_constraint": null, "pointwise_constraint": null}, "inbound_nodes": [[["activation_348", 0, 0, {}]]]}, {"name": "separable_conv_2_normal_left2_2", "class_name": "SeparableConv2D", "config": {"name": "separable_conv_2_normal_left2_2", "trainable": false, "filters": 44, "kernel_size": [5, 5], "strides": [1, 1], "padding": "same", "data_format": "channels_last", "dilation_rate": [1, 1], "activation": "linear", "use_bias": false, "bias_initializer": {"class_name": "Zeros", "config": {}}, "bias_regularizer": null, "activity_regularizer": null, "bias_constraint": null, "depth_multiplier": 1, "depthwise_initializer": {"class_name": "VarianceScaling", "config": {"scale": 1.0, "mode": "fan_avg", "distribution": "uniform", "seed": null}}, "pointwise_initializer": {"class_name": "VarianceScaling", "config": {"scale": 1.0, "mode": "fan_avg", "distribution": "uniform", "seed": null}}, "depthwise_regularizer": null, "pointwise_regularizer": null, "depthwise_constraint": null, "pointwise_constraint": null}, "inbound_nodes": [[["activation_350", 0, 0, {}]]]}, {"name": "separable_conv_2_normal_right2_2", "class_name": "SeparableConv2D", "config": {"name": "separable_conv_2_normal_right2_2", "trainable": false, "filters": 44, "kernel_size": [3, 3], "strides": [1, 1], "padding": "same", "data_format": "channels_last", "dilation_rate": [1, 1], "activation": "linear", "use_bias": false, "bias_initializer": {"class_name": "Zeros", "config": {}}, "bias_regularizer": null, "activity_regularizer": null, "bias_constraint": null, "depth_multiplier": 1, "depthwise_initializer": {"class_name": "VarianceScaling", "config": {"scale": 1.0, "mode": "fan_avg", "distribution": "uniform", "seed": null}}, "pointwise_initializer": {"class_name": "VarianceScaling", "config": {"scale": 1.0, "mode": "fan_avg", "distribution": "uniform", "seed": null}}, "depthwise_regularizer": null, "pointwise_regularizer": null, "depthwise_constraint": null, "pointwise_constraint": null}, "inbound_nodes": [[["activation_352", 0, 0, {}]]]}, {"name": "separable_conv_2_normal_left5_2", "class_name": "SeparableConv2D", "config": {"name": "separable_conv_2_normal_left5_2", "trainable": false, "filters": 44, "kernel_size": [3, 3], "strides": [1, 1], "padding": "same", "data_format": "channels_last", "dilation_rate": [1, 1], "activation": "linear", "use_bias": false, "bias_initializer": {"class_name": "Zeros", "config": {}}, "bias_regularizer": null, "activity_regularizer": null, "bias_constraint": null, "depth_multiplier": 1, "depthwise_initializer": {"class_name": "VarianceScaling", "config": {"scale": 1.0, "mode": "fan_avg", "distribution": "uniform", "seed": null}}, "pointwise_initializer": {"class_name": "VarianceScaling", "config": {"scale": 1.0, "mode": "fan_avg", "distribution": "uniform", "seed": null}}, "depthwise_regularizer": null, "pointwise_regularizer": null, "depthwise_constraint": null, "pointwise_constraint": null}, "inbound_nodes": [[["activation_354", 0, 0, {}]]]}, {"name": "separable_conv_2_bn_normal_left1_2", "class_name": "BatchNormalization", "config": {"name": "separable_conv_2_bn_normal_left1_2", "trainable": false, "axis": -1, "momentum": 0.9997, "epsilon": 0.001, "center": true, "scale": true, "beta_initializer": {"class_name": "Zeros", "config": {}}, "gamma_initializer": {"class_name": "Ones", "config": {}}, "moving_mean_initializer": {"class_name": "Zeros", "config": {}}, "moving_variance_initializer": {"class_name": "Ones", "config": {}}, "beta_regularizer": null, "gamma_regularizer": null, "beta_constraint": null, "gamma_constraint": null}, "inbound_nodes": [[["separable_conv_2_normal_left1_2", 0, 0, {}]]]}, {"name": "separable_conv_2_bn_normal_right1_2", "class_name": "BatchNormalization", "config": {"name": "separable_conv_2_bn_normal_right1_2", "trainable": false, "axis": -1, "momentum": 0.9997, "epsilon": 0.001, "center": true, "scale": true, "beta_initializer": {"class_name": "Zeros", "config": {}}, "gamma_initializer": {"class_name": "Ones", "config": {}}, "moving_mean_initializer": {"class_name": "Zeros", "config": {}}, "moving_variance_initializer": {"class_name": "Ones", "config": {}}, "beta_regularizer": null, "gamma_regularizer": null, "beta_constraint": null, "gamma_constraint": null}, "inbound_nodes": [[["separable_conv_2_normal_right1_2", 0, 0, {}]]]}, {"name": "separable_conv_2_bn_normal_left2_2", "class_name": "BatchNormalization", "config": {"name": "separable_conv_2_bn_normal_left2_2", "trainable": false, "axis": -1, "momentum": 0.9997, "epsilon": 0.001, "center": true, "scale": true, "beta_initializer": {"class_name": "Zeros", "config": {}}, "gamma_initializer": {"class_name": "Ones", "config": {}}, "moving_mean_initializer": {"class_name": "Zeros", "config": {}}, "moving_variance_initializer": {"class_name": "Ones", "config": {}}, "beta_regularizer": null, "gamma_regularizer": null, "beta_constraint": null, "gamma_constraint": null}, "inbound_nodes": [[["separable_conv_2_normal_left2_2", 0, 0, {}]]]}, {"name": "separable_conv_2_bn_normal_right2_2", "class_name": "BatchNormalization", "config": {"name": "separable_conv_2_bn_normal_right2_2", "trainable": false, "axis": -1, "momentum": 0.9997, "epsilon": 0.001, "center": true, "scale": true, "beta_initializer": {"class_name": "Zeros", "config": {}}, "gamma_initializer": {"class_name": "Ones", "config": {}}, "moving_mean_initializer": {"class_name": "Zeros", "config": {}}, "moving_variance_initializer": {"class_name": "Ones", "config": {}}, "beta_regularizer": null, "gamma_regularizer": null, "beta_constraint": null, "gamma_constraint": null}, "inbound_nodes": [[["separable_conv_2_normal_right2_2", 0, 0, {}]]]}, {"name": "normal_left3_2", "class_name": "AveragePooling2D", "config": {"name": "normal_left3_2", "trainable": false, "pool_size": [3, 3], "padding": "same", "strides": [1, 1], "data_format": "channels_last"}, "inbound_nodes": [[["normal_bn_1_2", 0, 0, {}]]]}, {"name": "normal_left4_2", "class_name": "AveragePooling2D", "config": {"name": "normal_left4_2", "trainable": false, "pool_size": [3, 3], "padding": "same", "strides": [1, 1], "data_format": "channels_last"}, "inbound_nodes": [[["adjust_bn_2", 0, 0, {}]]]}, {"name": "normal_right4_2", "class_name": "AveragePooling2D", "config": {"name": "normal_right4_2", "trainable": false, "pool_size": [3, 3], "padding": "same", "strides": [1, 1], "data_format": "channels_last"}, "inbound_nodes": [[["adjust_bn_2", 0, 0, {}]]]}, {"name": "separable_conv_2_bn_normal_left5_2", "class_name": "BatchNormalization", "config": {"name": "separable_conv_2_bn_normal_left5_2", "trainable": false, "axis": -1, "momentum": 0.9997, "epsilon": 0.001, "center": true, "scale": true, "beta_initializer": {"class_name": "Zeros", "config": {}}, "gamma_initializer": {"class_name": "Ones", "config": {}}, "moving_mean_initializer": {"class_name": "Zeros", "config": {}}, "moving_variance_initializer": {"class_name": "Ones", "config": {}}, "beta_regularizer": null, "gamma_regularizer": null, "beta_constraint": null, "gamma_constraint": null}, "inbound_nodes": [[["separable_conv_2_normal_left5_2", 0, 0, {}]]]}, {"name": "normal_add_1_2", "class_name": "Add", "config": {"name": "normal_add_1_2", "trainable": false}, "inbound_nodes": [[["separable_conv_2_bn_normal_left1_2", 0, 0, {}], ["separable_conv_2_bn_normal_right1_2", 0, 0, {}]]]}, {"name": "normal_add_2_2", "class_name": "Add", "config": {"name": "normal_add_2_2", "trainable": false}, "inbound_nodes": [[["separable_conv_2_bn_normal_left2_2", 0, 0, {}], ["separable_conv_2_bn_normal_right2_2", 0, 0, {}]]]}, {"name": "normal_add_3_2", "class_name": "Add", "config": {"name": "normal_add_3_2", "trainable": false}, "inbound_nodes": [[["normal_left3_2", 0, 0, {}], ["adjust_bn_2", 0, 0, {}]]]}, {"name": "normal_add_4_2", "class_name": "Add", "config": {"name": "normal_add_4_2", "trainable": false}, "inbound_nodes": [[["normal_left4_2", 0, 0, {}], ["normal_right4_2", 0, 0, {}]]]}, {"name": "normal_add_5_2", "class_name": "Add", "config": {"name": "normal_add_5_2", "trainable": false}, "inbound_nodes": [[["separable_conv_2_bn_normal_left5_2", 0, 0, {}], ["normal_bn_1_2", 0, 0, {}]]]}, {"name": "normal_concat_2", "class_name": "Concatenate", "config": {"name": "normal_concat_2", "trainable": false, "axis": -1}, "inbound_nodes": [[["adjust_bn_2", 0, 0, {}], ["normal_add_1_2", 0, 0, {}], ["normal_add_2_2", 0, 0, {}], ["normal_add_3_2", 0, 0, {}], ["normal_add_4_2", 0, 0, {}], ["normal_add_5_2", 0, 0, {}]]]}, {"name": "activation_355", "class_name": "Activation", "config": {"name": "activation_355", "trainable": false, "activation": "relu"}, "inbound_nodes": [[["normal_concat_1", 0, 0, {}]]]}, {"name": "activation_356", "class_name": "Activation", "config": {"name": "activation_356", "trainable": false, "activation": "relu"}, "inbound_nodes": [[["normal_concat_2", 0, 0, {}]]]}, {"name": "adjust_conv_projection_3", "class_name": "Conv2D", "config": {"name": "adjust_conv_projection_3", "trainable": false, "filters": 44, "kernel_size": [1, 1], "strides": [1, 1], "padding": "same", "data_format": "channels_last", "dilation_rate": [1, 1], "activation": "linear", "use_bias": false, "kernel_initializer": {"class_name": "VarianceScaling", "config": {"scale": 2.0, "mode": "fan_in", "distribution": "normal", "seed": null}}, "bias_initializer": {"class_name": "Zeros", "config": {}}, "kernel_regularizer": null, "bias_regularizer": null, "activity_regularizer": null, "kernel_constraint": null, "bias_constraint": null}, "inbound_nodes": [[["activation_355", 0, 0, {}]]]}, {"name": "normal_conv_1_3", "class_name": "Conv2D", "config": {"name": "normal_conv_1_3", "trainable": false, "filters": 44, "kernel_size": [1, 1], "strides": [1, 1], "padding": "same", "data_format": "channels_last", "dilation_rate": [1, 1], "activation": "linear", "use_bias": false, "kernel_initializer": {"class_name": "VarianceScaling", "config": {"scale": 2.0, "mode": "fan_in", "distribution": "normal", "seed": null}}, "bias_initializer": {"class_name": "Zeros", "config": {}}, "kernel_regularizer": null, "bias_regularizer": null, "activity_regularizer": null, "kernel_constraint": null, "bias_constraint": null}, "inbound_nodes": [[["activation_356", 0, 0, {}]]]}, {"name": "adjust_bn_3", "class_name": "BatchNormalization", "config": {"name": "adjust_bn_3", "trainable": false, "axis": -1, "momentum": 0.9997, "epsilon": 0.001, "center": true, "scale": true, "beta_initializer": {"class_name": "Zeros", "config": {}}, "gamma_initializer": {"class_name": "Ones", "config": {}}, "moving_mean_initializer": {"class_name": "Zeros", "config": {}}, "moving_variance_initializer": {"class_name": "Ones", "config": {}}, "beta_regularizer": null, "gamma_regularizer": null, "beta_constraint": null, "gamma_constraint": null}, "inbound_nodes": [[["adjust_conv_projection_3", 0, 0, {}]]]}, {"name": "normal_bn_1_3", "class_name": "BatchNormalization", "config": {"name": "normal_bn_1_3", "trainable": false, "axis": -1, "momentum": 0.9997, "epsilon": 0.001, "center": true, "scale": true, "beta_initializer": {"class_name": "Zeros", "config": {}}, "gamma_initializer": {"class_name": "Ones", "config": {}}, "moving_mean_initializer": {"class_name": "Zeros", "config": {}}, "moving_variance_initializer": {"class_name": "Ones", "config": {}}, "beta_regularizer": null, "gamma_regularizer": null, "beta_constraint": null, "gamma_constraint": null}, "inbound_nodes": [[["normal_conv_1_3", 0, 0, {}]]]}, {"name": "activation_357", "class_name": "Activation", "config": {"name": "activation_357", "trainable": false, "activation": "relu"}, "inbound_nodes": [[["normal_bn_1_3", 0, 0, {}]]]}, {"name": "activation_359", "class_name": "Activation", "config": {"name": "activation_359", "trainable": false, "activation": "relu"}, "inbound_nodes": [[["adjust_bn_3", 0, 0, {}]]]}, {"name": "activation_361", "class_name": "Activation", "config": {"name": "activation_361", "trainable": false, "activation": "relu"}, "inbound_nodes": [[["adjust_bn_3", 0, 0, {}]]]}, {"name": "activation_363", "class_name": "Activation", "config": {"name": "activation_363", "trainable": false, "activation": "relu"}, "inbound_nodes": [[["adjust_bn_3", 0, 0, {}]]]}, {"name": "activation_365", "class_name": "Activation", "config": {"name": "activation_365", "trainable": false, "activation": "relu"}, "inbound_nodes": [[["normal_bn_1_3", 0, 0, {}]]]}, {"name": "separable_conv_1_normal_left1_3", "class_name": "SeparableConv2D", "config": {"name": "separable_conv_1_normal_left1_3", "trainable": false, "filters": 44, "kernel_size": [5, 5], "strides": [1, 1], "padding": "same", "data_format": "channels_last", "dilation_rate": [1, 1], "activation": "linear", "use_bias": false, "bias_initializer": {"class_name": "Zeros", "config": {}}, "bias_regularizer": null, "activity_regularizer": null, "bias_constraint": null, "depth_multiplier": 1, "depthwise_initializer": {"class_name": "VarianceScaling", "config": {"scale": 1.0, "mode": "fan_avg", "distribution": "uniform", "seed": null}}, "pointwise_initializer": {"class_name": "VarianceScaling", "config": {"scale": 1.0, "mode": "fan_avg", "distribution": "uniform", "seed": null}}, "depthwise_regularizer": null, "pointwise_regularizer": null, "depthwise_constraint": null, "pointwise_constraint": null}, "inbound_nodes": [[["activation_357", 0, 0, {}]]]}, {"name": "separable_conv_1_normal_right1_3", "class_name": "SeparableConv2D", "config": {"name": "separable_conv_1_normal_right1_3", "trainable": false, "filters": 44, "kernel_size": [3, 3], "strides": [1, 1], "padding": "same", "data_format": "channels_last", "dilation_rate": [1, 1], "activation": "linear", "use_bias": false, "bias_initializer": {"class_name": "Zeros", "config": {}}, "bias_regularizer": null, "activity_regularizer": null, "bias_constraint": null, "depth_multiplier": 1, "depthwise_initializer": {"class_name": "VarianceScaling", "config": {"scale": 1.0, "mode": "fan_avg", "distribution": "uniform", "seed": null}}, "pointwise_initializer": {"class_name": "VarianceScaling", "config": {"scale": 1.0, "mode": "fan_avg", "distribution": "uniform", "seed": null}}, "depthwise_regularizer": null, "pointwise_regularizer": null, "depthwise_constraint": null, "pointwise_constraint": null}, "inbound_nodes": [[["activation_359", 0, 0, {}]]]}, {"name": "separable_conv_1_normal_left2_3", "class_name": "SeparableConv2D", "config": {"name": "separable_conv_1_normal_left2_3", "trainable": false, "filters": 44, "kernel_size": [5, 5], "strides": [1, 1], "padding": "same", "data_format": "channels_last", "dilation_rate": [1, 1], "activation": "linear", "use_bias": false, "bias_initializer": {"class_name": "Zeros", "config": {}}, "bias_regularizer": null, "activity_regularizer": null, "bias_constraint": null, "depth_multiplier": 1, "depthwise_initializer": {"class_name": "VarianceScaling", "config": {"scale": 1.0, "mode": "fan_avg", "distribution": "uniform", "seed": null}}, "pointwise_initializer": {"class_name": "VarianceScaling", "config": {"scale": 1.0, "mode": "fan_avg", "distribution": "uniform", "seed": null}}, "depthwise_regularizer": null, "pointwise_regularizer": null, "depthwise_constraint": null, "pointwise_constraint": null}, "inbound_nodes": [[["activation_361", 0, 0, {}]]]}, {"name": "separable_conv_1_normal_right2_3", "class_name": "SeparableConv2D", "config": {"name": "separable_conv_1_normal_right2_3", "trainable": false, "filters": 44, "kernel_size": [3, 3], "strides": [1, 1], "padding": "same", "data_format": "channels_last", "dilation_rate": [1, 1], "activation": "linear", "use_bias": false, "bias_initializer": {"class_name": "Zeros", "config": {}}, "bias_regularizer": null, "activity_regularizer": null, "bias_constraint": null, "depth_multiplier": 1, "depthwise_initializer": {"class_name": "VarianceScaling", "config": {"scale": 1.0, "mode": "fan_avg", "distribution": "uniform", "seed": null}}, "pointwise_initializer": {"class_name": "VarianceScaling", "config": {"scale": 1.0, "mode": "fan_avg", "distribution": "uniform", "seed": null}}, "depthwise_regularizer": null, "pointwise_regularizer": null, "depthwise_constraint": null, "pointwise_constraint": null}, "inbound_nodes": [[["activation_363", 0, 0, {}]]]}, {"name": "separable_conv_1_normal_left5_3", "class_name": "SeparableConv2D", "config": {"name": "separable_conv_1_normal_left5_3", "trainable": false, "filters": 44, "kernel_size": [3, 3], "strides": [1, 1], "padding": "same", "data_format": "channels_last", "dilation_rate": [1, 1], "activation": "linear", "use_bias": false, "bias_initializer": {"class_name": "Zeros", "config": {}}, "bias_regularizer": null, "activity_regularizer": null, "bias_constraint": null, "depth_multiplier": 1, "depthwise_initializer": {"class_name": "VarianceScaling", "config": {"scale": 1.0, "mode": "fan_avg", "distribution": "uniform", "seed": null}}, "pointwise_initializer": {"class_name": "VarianceScaling", "config": {"scale": 1.0, "mode": "fan_avg", "distribution": "uniform", "seed": null}}, "depthwise_regularizer": null, "pointwise_regularizer": null, "depthwise_constraint": null, "pointwise_constraint": null}, "inbound_nodes": [[["activation_365", 0, 0, {}]]]}, {"name": "separable_conv_1_bn_normal_left1_3", "class_name": "BatchNormalization", "config": {"name": "separable_conv_1_bn_normal_left1_3", "trainable": false, "axis": -1, "momentum": 0.9997, "epsilon": 0.001, "center": true, "scale": true, "beta_initializer": {"class_name": "Zeros", "config": {}}, "gamma_initializer": {"class_name": "Ones", "config": {}}, "moving_mean_initializer": {"class_name": "Zeros", "config": {}}, "moving_variance_initializer": {"class_name": "Ones", "config": {}}, "beta_regularizer": null, "gamma_regularizer": null, "beta_constraint": null, "gamma_constraint": null}, "inbound_nodes": [[["separable_conv_1_normal_left1_3", 0, 0, {}]]]}, {"name": "separable_conv_1_bn_normal_right1_3", "class_name": "BatchNormalization", "config": {"name": "separable_conv_1_bn_normal_right1_3", "trainable": false, "axis": -1, "momentum": 0.9997, "epsilon": 0.001, "center": true, "scale": true, "beta_initializer": {"class_name": "Zeros", "config": {}}, "gamma_initializer": {"class_name": "Ones", "config": {}}, "moving_mean_initializer": {"class_name": "Zeros", "config": {}}, "moving_variance_initializer": {"class_name": "Ones", "config": {}}, "beta_regularizer": null, "gamma_regularizer": null, "beta_constraint": null, "gamma_constraint": null}, "inbound_nodes": [[["separable_conv_1_normal_right1_3", 0, 0, {}]]]}, {"name": "separable_conv_1_bn_normal_left2_3", "class_name": "BatchNormalization", "config": {"name": "separable_conv_1_bn_normal_left2_3", "trainable": false, "axis": -1, "momentum": 0.9997, "epsilon": 0.001, "center": true, "scale": true, "beta_initializer": {"class_name": "Zeros", "config": {}}, "gamma_initializer": {"class_name": "Ones", "config": {}}, "moving_mean_initializer": {"class_name": "Zeros", "config": {}}, "moving_variance_initializer": {"class_name": "Ones", "config": {}}, "beta_regularizer": null, "gamma_regularizer": null, "beta_constraint": null, "gamma_constraint": null}, "inbound_nodes": [[["separable_conv_1_normal_left2_3", 0, 0, {}]]]}, {"name": "separable_conv_1_bn_normal_right2_3", "class_name": "BatchNormalization", "config": {"name": "separable_conv_1_bn_normal_right2_3", "trainable": false, "axis": -1, "momentum": 0.9997, "epsilon": 0.001, "center": true, "scale": true, "beta_initializer": {"class_name": "Zeros", "config": {}}, "gamma_initializer": {"class_name": "Ones", "config": {}}, "moving_mean_initializer": {"class_name": "Zeros", "config": {}}, "moving_variance_initializer": {"class_name": "Ones", "config": {}}, "beta_regularizer": null, "gamma_regularizer": null, "beta_constraint": null, "gamma_constraint": null}, "inbound_nodes": [[["separable_conv_1_normal_right2_3", 0, 0, {}]]]}, {"name": "separable_conv_1_bn_normal_left5_3", "class_name": "BatchNormalization", "config": {"name": "separable_conv_1_bn_normal_left5_3", "trainable": false, "axis": -1, "momentum": 0.9997, "epsilon": 0.001, "center": true, "scale": true, "beta_initializer": {"class_name": "Zeros", "config": {}}, "gamma_initializer": {"class_name": "Ones", "config": {}}, "moving_mean_initializer": {"class_name": "Zeros", "config": {}}, "moving_variance_initializer": {"class_name": "Ones", "config": {}}, "beta_regularizer": null, "gamma_regularizer": null, "beta_constraint": null, "gamma_constraint": null}, "inbound_nodes": [[["separable_conv_1_normal_left5_3", 0, 0, {}]]]}, {"name": "activation_358", "class_name": "Activation", "config": {"name": "activation_358", "trainable": false, "activation": "relu"}, "inbound_nodes": [[["separable_conv_1_bn_normal_left1_3", 0, 0, {}]]]}, {"name": "activation_360", "class_name": "Activation", "config": {"name": "activation_360", "trainable": false, "activation": "relu"}, "inbound_nodes": [[["separable_conv_1_bn_normal_right1_3", 0, 0, {}]]]}, {"name": "activation_362", "class_name": "Activation", "config": {"name": "activation_362", "trainable": false, "activation": "relu"}, "inbound_nodes": [[["separable_conv_1_bn_normal_left2_3", 0, 0, {}]]]}, {"name": "activation_364", "class_name": "Activation", "config": {"name": "activation_364", "trainable": false, "activation": "relu"}, "inbound_nodes": [[["separable_conv_1_bn_normal_right2_3", 0, 0, {}]]]}, {"name": "activation_366", "class_name": "Activation", "config": {"name": "activation_366", "trainable": false, "activation": "relu"}, "inbound_nodes": [[["separable_conv_1_bn_normal_left5_3", 0, 0, {}]]]}, {"name": "separable_conv_2_normal_left1_3", "class_name": "SeparableConv2D", "config": {"name": "separable_conv_2_normal_left1_3", "trainable": false, "filters": 44, "kernel_size": [5, 5], "strides": [1, 1], "padding": "same", "data_format": "channels_last", "dilation_rate": [1, 1], "activation": "linear", "use_bias": false, "bias_initializer": {"class_name": "Zeros", "config": {}}, "bias_regularizer": null, "activity_regularizer": null, "bias_constraint": null, "depth_multiplier": 1, "depthwise_initializer": {"class_name": "VarianceScaling", "config": {"scale": 1.0, "mode": "fan_avg", "distribution": "uniform", "seed": null}}, "pointwise_initializer": {"class_name": "VarianceScaling", "config": {"scale": 1.0, "mode": "fan_avg", "distribution": "uniform", "seed": null}}, "depthwise_regularizer": null, "pointwise_regularizer": null, "depthwise_constraint": null, "pointwise_constraint": null}, "inbound_nodes": [[["activation_358", 0, 0, {}]]]}, {"name": "separable_conv_2_normal_right1_3", "class_name": "SeparableConv2D", "config": {"name": "separable_conv_2_normal_right1_3", "trainable": false, "filters": 44, "kernel_size": [3, 3], "strides": [1, 1], "padding": "same", "data_format": "channels_last", "dilation_rate": [1, 1], "activation": "linear", "use_bias": false, "bias_initializer": {"class_name": "Zeros", "config": {}}, "bias_regularizer": null, "activity_regularizer": null, "bias_constraint": null, "depth_multiplier": 1, "depthwise_initializer": {"class_name": "VarianceScaling", "config": {"scale": 1.0, "mode": "fan_avg", "distribution": "uniform", "seed": null}}, "pointwise_initializer": {"class_name": "VarianceScaling", "config": {"scale": 1.0, "mode": "fan_avg", "distribution": "uniform", "seed": null}}, "depthwise_regularizer": null, "pointwise_regularizer": null, "depthwise_constraint": null, "pointwise_constraint": null}, "inbound_nodes": [[["activation_360", 0, 0, {}]]]}, {"name": "separable_conv_2_normal_left2_3", "class_name": "SeparableConv2D", "config": {"name": "separable_conv_2_normal_left2_3", "trainable": false, "filters": 44, "kernel_size": [5, 5], "strides": [1, 1], "padding": "same", "data_format": "channels_last", "dilation_rate": [1, 1], "activation": "linear", "use_bias": false, "bias_initializer": {"class_name": "Zeros", "config": {}}, "bias_regularizer": null, "activity_regularizer": null, "bias_constraint": null, "depth_multiplier": 1, "depthwise_initializer": {"class_name": "VarianceScaling", "config": {"scale": 1.0, "mode": "fan_avg", "distribution": "uniform", "seed": null}}, "pointwise_initializer": {"class_name": "VarianceScaling", "config": {"scale": 1.0, "mode": "fan_avg", "distribution": "uniform", "seed": null}}, "depthwise_regularizer": null, "pointwise_regularizer": null, "depthwise_constraint": null, "pointwise_constraint": null}, "inbound_nodes": [[["activation_362", 0, 0, {}]]]}, {"name": "separable_conv_2_normal_right2_3", "class_name": "SeparableConv2D", "config": {"name": "separable_conv_2_normal_right2_3", "trainable": false, "filters": 44, "kernel_size": [3, 3], "strides": [1, 1], "padding": "same", "data_format": "channels_last", "dilation_rate": [1, 1], "activation": "linear", "use_bias": false, "bias_initializer": {"class_name": "Zeros", "config": {}}, "bias_regularizer": null, "activity_regularizer": null, "bias_constraint": null, "depth_multiplier": 1, "depthwise_initializer": {"class_name": "VarianceScaling", "config": {"scale": 1.0, "mode": "fan_avg", "distribution": "uniform", "seed": null}}, "pointwise_initializer": {"class_name": "VarianceScaling", "config": {"scale": 1.0, "mode": "fan_avg", "distribution": "uniform", "seed": null}}, "depthwise_regularizer": null, "pointwise_regularizer": null, "depthwise_constraint": null, "pointwise_constraint": null}, "inbound_nodes": [[["activation_364", 0, 0, {}]]]}, {"name": "separable_conv_2_normal_left5_3", "class_name": "SeparableConv2D", "config": {"name": "separable_conv_2_normal_left5_3", "trainable": false, "filters": 44, "kernel_size": [3, 3], "strides": [1, 1], "padding": "same", "data_format": "channels_last", "dilation_rate": [1, 1], "activation": "linear", "use_bias": false, "bias_initializer": {"class_name": "Zeros", "config": {}}, "bias_regularizer": null, "activity_regularizer": null, "bias_constraint": null, "depth_multiplier": 1, "depthwise_initializer": {"class_name": "VarianceScaling", "config": {"scale": 1.0, "mode": "fan_avg", "distribution": "uniform", "seed": null}}, "pointwise_initializer": {"class_name": "VarianceScaling", "config": {"scale": 1.0, "mode": "fan_avg", "distribution": "uniform", "seed": null}}, "depthwise_regularizer": null, "pointwise_regularizer": null, "depthwise_constraint": null, "pointwise_constraint": null}, "inbound_nodes": [[["activation_366", 0, 0, {}]]]}, {"name": "separable_conv_2_bn_normal_left1_3", "class_name": "BatchNormalization", "config": {"name": "separable_conv_2_bn_normal_left1_3", "trainable": false, "axis": -1, "momentum": 0.9997, "epsilon": 0.001, "center": true, "scale": true, "beta_initializer": {"class_name": "Zeros", "config": {}}, "gamma_initializer": {"class_name": "Ones", "config": {}}, "moving_mean_initializer": {"class_name": "Zeros", "config": {}}, "moving_variance_initializer": {"class_name": "Ones", "config": {}}, "beta_regularizer": null, "gamma_regularizer": null, "beta_constraint": null, "gamma_constraint": null}, "inbound_nodes": [[["separable_conv_2_normal_left1_3", 0, 0, {}]]]}, {"name": "separable_conv_2_bn_normal_right1_3", "class_name": "BatchNormalization", "config": {"name": "separable_conv_2_bn_normal_right1_3", "trainable": false, "axis": -1, "momentum": 0.9997, "epsilon": 0.001, "center": true, "scale": true, "beta_initializer": {"class_name": "Zeros", "config": {}}, "gamma_initializer": {"class_name": "Ones", "config": {}}, "moving_mean_initializer": {"class_name": "Zeros", "config": {}}, "moving_variance_initializer": {"class_name": "Ones", "config": {}}, "beta_regularizer": null, "gamma_regularizer": null, "beta_constraint": null, "gamma_constraint": null}, "inbound_nodes": [[["separable_conv_2_normal_right1_3", 0, 0, {}]]]}, {"name": "separable_conv_2_bn_normal_left2_3", "class_name": "BatchNormalization", "config": {"name": "separable_conv_2_bn_normal_left2_3", "trainable": false, "axis": -1, "momentum": 0.9997, "epsilon": 0.001, "center": true, "scale": true, "beta_initializer": {"class_name": "Zeros", "config": {}}, "gamma_initializer": {"class_name": "Ones", "config": {}}, "moving_mean_initializer": {"class_name": "Zeros", "config": {}}, "moving_variance_initializer": {"class_name": "Ones", "config": {}}, "beta_regularizer": null, "gamma_regularizer": null, "beta_constraint": null, "gamma_constraint": null}, "inbound_nodes": [[["separable_conv_2_normal_left2_3", 0, 0, {}]]]}, {"name": "separable_conv_2_bn_normal_right2_3", "class_name": "BatchNormalization", "config": {"name": "separable_conv_2_bn_normal_right2_3", "trainable": false, "axis": -1, "momentum": 0.9997, "epsilon": 0.001, "center": true, "scale": true, "beta_initializer": {"class_name": "Zeros", "config": {}}, "gamma_initializer": {"class_name": "Ones", "config": {}}, "moving_mean_initializer": {"class_name": "Zeros", "config": {}}, "moving_variance_initializer": {"class_name": "Ones", "config": {}}, "beta_regularizer": null, "gamma_regularizer": null, "beta_constraint": null, "gamma_constraint": null}, "inbound_nodes": [[["separable_conv_2_normal_right2_3", 0, 0, {}]]]}, {"name": "normal_left3_3", "class_name": "AveragePooling2D", "config": {"name": "normal_left3_3", "trainable": false, "pool_size": [3, 3], "padding": "same", "strides": [1, 1], "data_format": "channels_last"}, "inbound_nodes": [[["normal_bn_1_3", 0, 0, {}]]]}, {"name": "normal_left4_3", "class_name": "AveragePooling2D", "config": {"name": "normal_left4_3", "trainable": false, "pool_size": [3, 3], "padding": "same", "strides": [1, 1], "data_format": "channels_last"}, "inbound_nodes": [[["adjust_bn_3", 0, 0, {}]]]}, {"name": "normal_right4_3", "class_name": "AveragePooling2D", "config": {"name": "normal_right4_3", "trainable": false, "pool_size": [3, 3], "padding": "same", "strides": [1, 1], "data_format": "channels_last"}, "inbound_nodes": [[["adjust_bn_3", 0, 0, {}]]]}, {"name": "separable_conv_2_bn_normal_left5_3", "class_name": "BatchNormalization", "config": {"name": "separable_conv_2_bn_normal_left5_3", "trainable": false, "axis": -1, "momentum": 0.9997, "epsilon": 0.001, "center": true, "scale": true, "beta_initializer": {"class_name": "Zeros", "config": {}}, "gamma_initializer": {"class_name": "Ones", "config": {}}, "moving_mean_initializer": {"class_name": "Zeros", "config": {}}, "moving_variance_initializer": {"class_name": "Ones", "config": {}}, "beta_regularizer": null, "gamma_regularizer": null, "beta_constraint": null, "gamma_constraint": null}, "inbound_nodes": [[["separable_conv_2_normal_left5_3", 0, 0, {}]]]}, {"name": "normal_add_1_3", "class_name": "Add", "config": {"name": "normal_add_1_3", "trainable": false}, "inbound_nodes": [[["separable_conv_2_bn_normal_left1_3", 0, 0, {}], ["separable_conv_2_bn_normal_right1_3", 0, 0, {}]]]}, {"name": "normal_add_2_3", "class_name": "Add", "config": {"name": "normal_add_2_3", "trainable": false}, "inbound_nodes": [[["separable_conv_2_bn_normal_left2_3", 0, 0, {}], ["separable_conv_2_bn_normal_right2_3", 0, 0, {}]]]}, {"name": "normal_add_3_3", "class_name": "Add", "config": {"name": "normal_add_3_3", "trainable": false}, "inbound_nodes": [[["normal_left3_3", 0, 0, {}], ["adjust_bn_3", 0, 0, {}]]]}, {"name": "normal_add_4_3", "class_name": "Add", "config": {"name": "normal_add_4_3", "trainable": false}, "inbound_nodes": [[["normal_left4_3", 0, 0, {}], ["normal_right4_3", 0, 0, {}]]]}, {"name": "normal_add_5_3", "class_name": "Add", "config": {"name": "normal_add_5_3", "trainable": false}, "inbound_nodes": [[["separable_conv_2_bn_normal_left5_3", 0, 0, {}], ["normal_bn_1_3", 0, 0, {}]]]}, {"name": "normal_concat_3", "class_name": "Concatenate", "config": {"name": "normal_concat_3", "trainable": false, "axis": -1}, "inbound_nodes": [[["adjust_bn_3", 0, 0, {}], ["normal_add_1_3", 0, 0, {}], ["normal_add_2_3", 0, 0, {}], ["normal_add_3_3", 0, 0, {}], ["normal_add_4_3", 0, 0, {}], ["normal_add_5_3", 0, 0, {}]]]}, {"name": "activation_368", "class_name": "Activation", "config": {"name": "activation_368", "trainable": false, "activation": "relu"}, "inbound_nodes": [[["normal_concat_3", 0, 0, {}]]]}, {"name": "activation_367", "class_name": "Activation", "config": {"name": "activation_367", "trainable": false, "activation": "relu"}, "inbound_nodes": [[["normal_concat_2", 0, 0, {}]]]}, {"name": "reduction_conv_1_reduce_4", "class_name": "Conv2D", "config": {"name": "reduction_conv_1_reduce_4", "trainable": false, "filters": 88, "kernel_size": [1, 1], "strides": [1, 1], "padding": "same", "data_format": "channels_last", "dilation_rate": [1, 1], "activation": "linear", "use_bias": false, "kernel_initializer": {"class_name": "VarianceScaling", "config": {"scale": 2.0, "mode": "fan_in", "distribution": "normal", "seed": null}}, "bias_initializer": {"class_name": "Zeros", "config": {}}, "kernel_regularizer": null, "bias_regularizer": null, "activity_regularizer": null, "kernel…
": 0.008508794681698668, "dtype": "uint8"}}, {"name": "separable_conv_2_bn_normal_right2_9/beta", "shape": [176], "dtype": "float32", "quantization": {"min": -2.9051900788849476, "scale": 0.013703726787193149, "dtype": "uint8"}}, {"name": "separable_conv_2_bn_normal_right2_9/moving_mean", "shape": [176], "dtype": "float32", "quantization": {"min": -0.1442130323718576, "scale": 0.0012650265997531367, "dtype": "uint8"}}, {"name": "separable_conv_2_bn_normal_right2_9/moving_variance", "shape": [176], "dtype": "float32", "quantization": {"min": 0.003977760206907988, "scale": 2.819631504369717e-05, "dtype": "uint8"}}, {"name": "separable_conv_2_bn_reduction_left1_reduce_4/gamma", "shape": [88], "dtype": "float32", "quantization": {"min": 0.2157404124736786, "scale": 0.022218957718680887, "dtype": "uint8"}}, {"name": "separable_conv_2_bn_reduction_left1_reduce_4/beta", "shape": [88], "dtype": "float32", "quantization": {"min": -3.8598246742697326, "scale": 0.024742465860703413, "dtype": "uint8"}}, {"name": "separable_conv_2_bn_reduction_left1_reduce_4/moving_mean", "shape": [88], "dtype": "float32", "quantization": {"min": -1.7302987615267436, "scale": 0.010001726945241292, "dtype": "uint8"}}, {"name": "separable_conv_2_bn_reduction_left1_reduce_4/moving_variance", "shape": [88], "dtype": "float32", "quantization": {"min": 0.11742560565471649, "scale": 0.003405606571365805, "dtype": "uint8"}}, {"name": "separable_conv_2_bn_reduction_left1_reduce_8/gamma", "shape": [176], "dtype": "float32", "quantization": {"min": 0.3828413784503937, "scale": 0.01574757601700577, "dtype": "uint8"}}, {"name": "separable_conv_2_bn_reduction_left1_reduce_8/beta", "shape": [176], "dtype": "float32", "quantization": {"min": -6.021375445758595, "scale": 0.028673216408374263, "dtype": "uint8"}}, {"name": "separable_conv_2_bn_reduction_left1_reduce_8/moving_mean", "shape": [176], "dtype": "float32", "quantization": {"min": -0.5205897022696102, "scale": 0.005205897022696102, "dtype": "uint8"}}, {"name": "separable_conv_2_bn_reduction_left1_reduce_8/moving_variance", "shape": [176], "dtype": "float32", "quantization": {"min": 0.01614886149764061, "scale": 0.0008925535661332747, "dtype": "uint8"}}, {"name": "separable_conv_2_bn_reduction_left1_stem_1/gamma", "shape": [11], "dtype": "float32", "quantization": {"min": -3.1284775453455307, "scale": 0.04171303393794041, "dtype": "uint8"}}, {"name": "separable_conv_2_bn_reduction_left1_stem_1/beta", "shape": [11], "dtype": "float32", "quantization": {"min": -1.202259087562561, "scale": 0.027959513664245605, "dtype": "uint8"}}, {"name": "separable_conv_2_bn_reduction_left1_stem_1/moving_mean", "shape": [11], "dtype": "float32", "quantization": {"min": -7.877525189343621, "scale": 0.0750240494223202, "dtype": "uint8"}}, {"name": "separable_conv_2_bn_reduction_left1_stem_1/moving_variance", "shape": [11], "dtype": "float32", "quantization": {"min": 1.3764604330062866, "scale": 0.2541787114797854, "dtype": "uint8"}}, {"name": "separable_conv_2_bn_reduction_left1_stem_2/gamma", "shape": [22], "dtype": "float32", "quantization": {"min": 0.5581681132316589, "scale": 0.015940682327046114, "dtype": "uint8"}}, {"name": "separable_conv_2_bn_reduction_left1_stem_2/beta", "shape": [22], "dtype": "float32", "quantization": {"min": -4.624790303847369, "scale": 0.036998322430778954, "dtype": "uint8"}}, {"name": "separable_conv_2_bn_reduction_left1_stem_2/moving_mean", "shape": [22], "dtype": "float32", "quantization": {"min": -2.4467750161301858, "scale": 0.010546444035043904, "dtype": "uint8"}}, {"name": "separable_conv_2_bn_reduction_left1_stem_2/moving_variance", "shape": [22], "dtype": "float32", "quantization": {"min": 0.04434365779161453, "scale": 0.00943569502994126, "dtype": "uint8"}}, {"name": "separable_conv_2_bn_reduction_left4_reduce_4/gamma", "shape": [88], "dtype": "float32", "quantization": {"min": -0.6087322160309436, "scale": 0.01902288175096699, "dtype": "uint8"}}, {"name": "separable_conv_2_bn_reduction_left4_reduce_4/beta", "shape": [88], "dtype": "float32", "quantization": {"min": -2.819661641588398, "scale": 0.03064849610422172, "dtype": "uint8"}}, {"name": "separable_conv_2_bn_reduction_left4_reduce_4/moving_mean", "shape": [88], "dtype": "float32", "quantization": {"min": -0.44468542863340943, "scale": 0.0030250709430844178, "dtype": "uint8"}}, {"name": "separable_conv_2_bn_reduction_left4_reduce_4/moving_variance", "shape": [88], "dtype": "float32", "quantization": {"min": 0.019040117040276527, "scale": 0.002150713659676851, "dtype": "uint8"}}, {"name": "separable_conv_2_bn_reduction_left4_reduce_8/gamma", "shape": [176], "dtype": "float32", "quantization": {"min": -0.5546621434828815, "scale": 0.030814563526826745, "dtype": "uint8"}}, {"name": "separable_conv_2_bn_reduction_left4_reduce_8/beta", "shape": [176], "dtype": "float32", "quantization": {"min": -2.102357265995998, "scale": 0.02102357265995998, "dtype": "uint8"}}, {"name": "separable_conv_2_bn_reduction_left4_reduce_8/moving_mean", "shape": [176], "dtype": "float32", "quantization": {"min": -0.2237426402814248, "scale": 0.0012640827134543773, "dtype": "uint8"}}, {"name": "separable_conv_2_bn_reduction_left4_reduce_8/moving_variance", "shape": [176], "dtype": "float32", "quantization": {"min": 0.005883985664695501, "scale": 0.003475495436977522, "dtype": "uint8"}}, {"name": "separable_conv_2_bn_reduction_left4_stem_1/gamma", "shape": [11], "dtype": "float32", "quantization": {"min": -3.7430245044184667, "scale": 0.031720546647614124, "dtype": "uint8"}}, {"name": "separable_conv_2_bn_reduction_left4_stem_1/beta", "shape": [11], "dtype": "float32", "quantization": {"min": -6.116683988010182, "scale": 0.0421840275035185, "dtype": "uint8"}}, {"name": "separable_conv_2_bn_reduction_left4_stem_1/moving_mean", "shape": [11], "dtype": "float32", "quantization": {"min": -15.636488991157682, "scale": 0.08186643450867896, "dtype": "uint8"}}, {"name": "separable_conv_2_bn_reduction_left4_stem_1/moving_variance", "shape": [11], "dtype": "float32", "quantization": {"min": 0.2392168492078781, "scale": 0.032500188315615935, "dtype": "uint8"}}, {"name": "separable_conv_2_bn_reduction_left4_stem_2/gamma", "shape": [22], "dtype": "float32", "quantization": {"min": -1.0754490871055453, "scale": 0.016803891986024146, "dtype": "uint8"}}, {"name": "separable_conv_2_bn_reduction_left4_stem_2/beta", "shape": [22], "dtype": "float32", "quantization": {"min": -5.099021070143756, "scale": 0.03445284506853889, "dtype": "uint8"}}, {"name": "separable_conv_2_bn_reduction_left4_stem_2/moving_mean", "shape": [22], "dtype": "float32", "quantization": {"min": -1.682967185974121, "scale": 0.014024726549784343, "dtype": "uint8"}}, {"name": "separable_conv_2_bn_reduction_left4_stem_2/moving_variance", "shape": [22], "dtype": "float32", "quantization": {"min": 0.021217819303274155, "scale": 0.0008149321318841448, "dtype": "uint8"}}, {"name": "separable_conv_2_bn_reduction_right1_reduce_4/gamma", "shape": [88], "dtype": "float32", "quantization": {"min": 0.44564834237098694, "scale": 0.023538168154510798, "dtype": "uint8"}}, {"name": "separable_conv_2_bn_reduction_right1_reduce_4/beta", "shape": [88], "dtype": "float32", "quantization": {"min": -3.8360137640261183, "scale": 0.024909180285883886, "dtype": "uint8"}}, {"name": "separable_conv_2_bn_reduction_right1_reduce_4/moving_mean", "shape": [88], "dtype": "float32", "quantization": {"min": -2.7076929765589095, "scale": 0.01602185193230124, "dtype": "uint8"}}, {"name": "separable_conv_2_bn_reduction_right1_reduce_4/moving_variance", "shape": [88], "dtype": "float32", "quantization": {"min": 0.0864412933588028, "scale": 0.0063821955638773305, "dtype": "uint8"}}, {"name": "separable_conv_2_bn_reduction_right1_reduce_8/gamma", "shape": [176], "dtype": "float32", "quantization": {"min": 0.3888516426086426, "scale": 0.018947633107503255, "dtype": "uint8"}}, {"name": "separable_conv_2_bn_reduction_right1_reduce_8/beta", "shape": [176], "dtype": "float32", "quantization": {"min": -6.0028354794371355, "scale": 0.028859785958832384, "dtype": "uint8"}}, {"name": "separable_conv_2_bn_reduction_right1_reduce_8/moving_mean", "shape": [176], "dtype": "float32", "quantization": {"min": -0.7934878674207949, "scale": 0.004928496070936614, "dtype": "uint8"}}, {"name": "separable_conv_2_bn_reduction_right1_reduce_8/moving_variance", "shape": [176], "dtype": "float32", "quantization": {"min": 0.07046602666378021, "scale": 0.0036929678098828185, "dtype": "uint8"}}, {"name": "separable_conv_2_bn_reduction_right1_stem_1/gamma", "shape": [11], "dtype": "float32", "quantization": {"min": -2.8619653290393305, "scale": 0.03577456661299163, "dtype": "uint8"}}, {"name": "separable_conv_2_bn_reduction_right1_stem_1/beta", "shape": [11], "dtype": "float32", "quantization": {"min": -0.7133106180265838, "scale": 0.024596917862985648, "dtype": "uint8"}}, {"name": "separable_conv_2_bn_reduction_right1_stem_1/moving_mean", "shape": [11], "dtype": "float32", "quantization": {"min": -2.730736970901489, "scale": 0.0165499210357666, "dtype": "uint8"}}, {"name": "separable_conv_2_bn_reduction_right1_stem_1/moving_variance", "shape": [11], "dtype": "float32", "quantization": {"min": 0.6487742066383362, "scale": 0.040069617243374094, "dtype": "uint8"}}, {"name": "separable_conv_2_bn_reduction_right1_stem_2/gamma", "shape": [22], "dtype": "float32", "quantization": {"min": -0.8841659620696423, "scale": 0.02763018631467632, "dtype": "uint8"}}, {"name": "separable_conv_2_bn_reduction_right1_stem_2/beta", "shape": [22], "dtype": "float32", "quantization": {"min": -4.587511646046358, "scale": 0.03699606166166418, "dtype": "uint8"}}, {"name": "separable_conv_2_bn_reduction_right1_stem_2/moving_mean", "shape": [22], "dtype": "float32", "quantization": {"min": -1.3618403729270485, "scale": 0.01249394837547751, "dtype": "uint8"}}, {"name": "separable_conv_2_bn_reduction_right1_stem_2/moving_variance", "shape": [22], "dtype": "float32", "quantization": {"min": 0.03367659077048302, "scale": 0.010571781925710977, "dtype": "uint8"}}, {"name": "separable_conv_2_bn_reduction_right2_reduce_4/gamma", "shape": [88], "dtype": "float32", "quantization": {"min": 0.7535995841026306, "scale": 0.012321935214248358, "dtype": "uint8"}}, {"name": "separable_conv_2_bn_reduction_right2_reduce_4/beta", "shape": [88], "dtype": "float32", "quantization": {"min": -4.59543132314495, "scale": 0.02964794402029, "dtype": "uint8"}}, {"name": "separable_conv_2_bn_reduction_right2_reduce_4/moving_mean", "shape": [88], "dtype": "float32", "quantization": {"min": -1.3477157845216639, "scale": 0.0074873099140092434, "dtype": "uint8"}}, {"name": "separable_conv_2_bn_reduction_right2_reduce_4/moving_variance", "shape": [88], "dtype": "float32", "quantization": {"min": 0.20028391480445862, "scale": 0.00575292005258448, "dtype": "uint8"}}, {"name": "separable_conv_2_bn_reduction_right2_reduce_8/gamma", "shape": [176], "dtype": "float32", "quantization": {"min": 0.44925588369369507, "scale": 0.008664013591467165, "dtype": "uint8"}}, {"name": "separable_conv_2_bn_reduction_right2_reduce_8/beta", "shape": [176], "dtype": "float32", "quantization": {"min": -4.05040781731699, "scale": 0.025157812529919193, "dtype": "uint8"}}, {"name": "separable_conv_2_bn_reduction_right2_reduce_8/moving_mean", "shape": [176], "dtype": "float32", "quantization": {"min": -0.47963716317625604, "scale": 0.002537762768128339, "dtype": "uint8"}}, {"name": "separable_conv_2_bn_reduction_right2_reduce_8/moving_variance", "shape": [176], "dtype": "float32", "quantization": {"min": 0.08504820615053177, "scale": 0.0017710042642612083, "dtype": "uint8"}}, {"name": "separable_conv_2_bn_reduction_right2_stem_1/gamma", "shape": [11], "dtype": "float32", "quantization": {"min": -8.60864123176126, "scale": 0.06149029451258042, "dtype": "uint8"}}, {"name": "separable_conv_2_bn_reduction_right2_stem_1/beta", "shape": [11], "dtype": "float32", "quantization": {"min": -11.5868356218525, "scale": 0.06856115752575444, "dtype": "uint8"}}, {"name": "separable_conv_2_bn_reduction_right2_stem_1/moving_mean", "shape": [11], "dtype": "float32", "quantization": {"min": -1.962452411651611, "scale": 0.038479459051992376, "dtype": "uint8"}}, {"name": "separable_conv_2_bn_reduction_right2_stem_1/moving_variance", "shape": [11], "dtype": "float32", "quantization": {"min": 1.509892225265503, "scale": 0.25591823820974313, "dtype": "uint8"}}, {"name": "separable_conv_2_bn_reduction_right2_stem_2/gamma", "shape": [22], "dtype": "float32", "quantization": {"min": -0.5348446495392744, "scale": 0.028149718396803913, "dtype": "uint8"}}, {"name": "separable_conv_2_bn_reduction_right2_stem_2/beta", "shape": [22], "dtype": "float32", "quantization": {"min": -6.0484143313239604, "scale": 0.048003288343840954, "dtype": "uint8"}}, {"name": "separable_conv_2_bn_reduction_right2_stem_2/moving_mean", "shape": [22], "dtype": "float32", "quantization": {"min": -1.2636581121706496, "scale": 0.0098723290013332, "dtype": "uint8"}}, {"name": "separable_conv_2_bn_reduction_right2_stem_2/moving_variance", "shape": [22], "dtype": "float32", "quantization": {"min": 0.11812084913253784, "scale": 0.1474221671328825, "dtype": "uint8"}}, {"name": "separable_conv_2_bn_reduction_right3_reduce_4/gamma", "shape": [88], "dtype": "float32", "quantization": {"min": 0.9528600573539734, "scale": 0.020898702331617766, "dtype": "uint8"}}, {"name": "separable_conv_2_bn_reduction_right3_reduce_4/beta", "shape": [88], "dtype": "float32", "quantization": {"min": -4.0674884646546605, "scale": 0.04067488464654661, "dtype": "uint8"}}, {"name": "separable_conv_2_bn_reduction_right3_reduce_4/moving_mean", "shape": [88], "dtype": "float32", "quantization": {"min": -4.3697630461524515, "scale": 0.02555416986054065, "dtype": "uint8"}}, {"name": "separable_conv_2_bn_reduction_right3_reduce_4/moving_variance", "shape": [88], "dtype": "float32", "quantization": {"min": 0.8206043243408203, "scale": 0.016234768138212317, "dtype": "uint8"}}, {"name": "separable_conv_2_bn_reduction_right3_reduce_8/gamma", "shape": [176], "dtype": "float32", "quantization": {"min": 1.1120613813400269, "scale": 0.008949069883309159, "dtype": "uint8"}}, {"name": "separable_conv_2_bn_reduction_right3_reduce_8/beta", "shape": [176], "dtype": "float32", "quantization": {"min": -1.6058508844936594, "scale": 0.011389013365203258, "dtype": "uint8"}}, {"name": "separable_conv_2_bn_reduction_right3_reduce_8/moving_mean", "shape": [176], "dtype": "float32", "quantization": {"min": -0.7268338493272369, "scale": 0.0032447939702108792, "dtype": "uint8"}}, {"name": "separable_conv_2_bn_reduction_right3_reduce_8/moving_variance", "shape": [176], "dtype": "float32", "quantization": {"min": 0.1152905523777008, "scale": 0.004217049070433074, "dtype": "uint8"}}, {"name": "separable_conv_2_bn_reduction_right3_stem_1/gamma", "shape": [11], "dtype": "float32", "quantization": {"min": -2.475086894689822, "scale": 0.04950173789379644, "dtype": "uint8"}}, {"name": "separable_conv_2_bn_reduction_right3_stem_1/beta", "shape": [11], "dtype": "float32", "quantization": {"min": -3.4403688430786135, "scale": 0.0603573481241862, "dtype": "uint8"}}, {"name": "separable_conv_2_bn_reduction_right3_stem_1/moving_mean", "shape": [11], "dtype": "float32", "quantization": {"min": -5.494978153004366, "scale": 0.038159570506974765, "dtype": "uint8"}}, {"name": "separable_conv_2_bn_reduction_right3_stem_1/moving_variance", "shape": [11], "dtype": "float32", "quantization": {"min": 5.390002727508545, "scale": 0.09891418943218157, "dtype": "uint8"}}, {"name": "separable_conv_2_bn_reduction_right3_stem_2/gamma", "shape": [22], "dtype": "float32", "quantization": {"min": 0.29804298281669617, "scale": 0.036418253884595984, "dtype": "uint8"}}, {"name": "separable_conv_2_bn_reduction_right3_stem_2/beta", "shape": [22], "dtype": "float32", "quantization": {"min": -3.279059014600866, "scale": 0.047522594414505306, "dtype": "uint8"}}, {"name": "separable_conv_2_bn_reduction_right3_stem_2/moving_mean", "shape": [22], "dtype": "float32", "quantization": {"min": -3.6777060845318963, "scale": 0.03014513184042538, "dtype": "uint8"}}, {"name": "separable_conv_2_bn_reduction_right3_stem_2/moving_variance", "shape": [22], "dtype": "float32", "quantization": {"min": 0.7284296154975891, "scale": 0.12948040751849904, "dtype": "uint8"}}, {"name": "separable_conv_2_normal_left1_0/depthwise_kernel", "shape": [5, 5, 44, 1], "dtype": "float32", "quantization": {"min": -0.5220661214753693, "scale": 0.0043145960452509865, "dtype": "uint8"}}, {"name": "separable_conv_2_normal_left1_0/pointwise_kernel", "shape": [1, 1, 44, 44], "dtype": "float32", "quantization": {"min": -0.5055136021445779, "scale": 0.004012012715433158, "dtype": "uint8"}}, {"name": "separable_conv_2_normal_left1_1/depthwise_kernel", "shape": [5, 5, 44, 1], "dtype": "float32", "quantization": {"min": -0.9361221383599674, "scale": 0.00663916410184374, "dtype": "uint8"}}, {"name": "separable_conv_2_normal_left1_1/pointwise_kernel", "shape": [1, 1, 44, 44], "dtype": "float32", "quantization": {"min": -0.5675326828863106, "scale": 0.005022413122887705, "dtype": "uint8"}}, {"name": "separable_conv_2_normal_left1_10/depthwise_kernel", "shape": [5, 5, 176, 1], "dtype": "float32", "quantization": {"min": -0.6939836969562606, "scale": 0.00401146645639457, "dtype": "uint8"}}, {"name": "separable_conv_2_normal_left1_10/pointwise_kernel", "shape": [1, 1, 176, 176], "dtype": "float32", "quantization": {"min": -0.7830346285128126, "scale": 0.005051836312985888, "dtype": "uint8"}}, {"name": "separable_conv_2_normal_left1_11/depthwise_kernel", "shape": [5, 5, 176, 1], "dtype": "float32", "quantization": {"min": -0.5497596263885498, "scale": 0.004042350194033454, "dtype": "uint8"}}, {"name": "separable_conv_2_normal_left1_11/pointwise_kernel", "shape": [1, 1, 176, 176], "dtype": "float32", "quantization": {"min": -0.5110939361301123, "scale": 0.0035247857664145676, "dtype": "uint8"}}, {"name": "separable_conv_2_normal_left1_12/depthwise_kernel", "shape": [5, 5, 176, 1], "dtype": "float32", "quantization": {"min": -0.6554521434447345, "scale": 0.003948506888221292, "dtype": "uint8"}}, {"name": "separable_conv_2_normal_left1_12/pointwise_kernel", "shape": [1, 1, 176, 176], "dtype": "float32", "quantization": {"min": -0.1959556477911332, "scale": 0.0014733507352716782, "dtype": "uint8"}}, {"name": "separable_conv_2_normal_left1_2/depthwise_kernel", "shape": [5, 5, 44, 1], "dtype": "float32", "quantization": {"min": -0.5836391981910256, "scale": 0.004706767727346981, "dtype": "uint8"}}, {"name": "separable_conv_2_normal_left1_2/pointwise_kernel", "shape": [1, 1, 44, 44], "dtype": "float32", "quantization": {"min": -0.5858779294818055, "scale": 0.00447235060673134, "dtype": "uint8"}}, {"name": "separable_conv_2_normal_left1_3/depthwise_kernel", "shape": [5, 5, 44, 1], "dtype": "float32", "quantization": {"min": -0.47780122967327343, "scale": 0.0041912388567831, "dtype": "uint8"}}, {"name": "separable_conv_2_normal_left1_3/pointwise_kernel", "shape": [1, 1, 44, 44], "dtype": "float32", "quantization": {"min": -0.45144242959864, "scale": 0.003201719358855603, "dtype": "uint8"}}, {"name": "separable_conv_2_normal_left1_5/depthwise_kernel", "shape": [5, 5, 88, 1], "dtype": "float32", "quantization": {"min": -0.6333109201169481, "scale": 0.007364080466476141, "dtype": "uint8"}}, {"name": "separable_conv_2_normal_left1_5/pointwise_kernel", "shape": [1, 1, 88, 88], "dtype": "float32", "quantization": {"min": -0.5511592427889506, "scale": 0.00648422638575236, "dtype": "uint8"}}, {"name": "separable_conv_2_normal_left1_6/depthwise_kernel", "shape": [5, 5, 88, 1], "dtype": "float32", "quantization": {"min": -0.7003613983883576, "scale": 0.004967102116229487, "dtype": "uint8"}}, {"name": "separable_conv_2_normal_left1_6/pointwise_kernel", "shape": [1, 1, 88, 88], "dtype": "float32", "quantization": {"min": -0.5880573412951301, "scale": 0.003868798297994277, "dtype": "uint8"}}, {"name": "separable_conv_2_normal_left1_7/depthwise_kernel", "shape": [5, 5, 88, 1], "dtype": "float32", "quantization": {"min": -0.7979996639139513, "scale": 0.006820509947982489, "dtype": "uint8"}}, {"name": "separable_conv_2_normal_left1_7/pointwise_kernel", "shape": [1, 1, 88, 88], "dtype": "float32", "quantization": {"min": -1.000283907441532, "scale": 0.00606232671176686, "dtype": "uint8"}}, {"name": "separable_conv_2_normal_left1_8/depthwise_kernel", "shape": [5, 5, 88, 1], "dtype": "float32", "quantization": {"min": -0.6728309322805965, "scale": 0.0045461549478418685, "dtype": "uint8"}}, {"name": "separable_conv_2_normal_left1_8/pointwise_kernel", "shape": [1, 1, 88, 88], "dtype": "float32", "quantization": {"min": -0.9493309441734763, "scale": 0.005650779429604026, "dtype": "uint8"}}, {"name": "separable_conv_2_normal_left1_9/depthwise_kernel", "shape": [5, 5, 176, 1], "dtype": "float32", "quantization": {"min": -0.5783284126543531, "scale": 0.005404938436021992, "dtype": "uint8"}}, {"name": "separable_conv_2_normal_left1_9/pointwise_kernel", "shape": [1, 1, 176, 176], "dtype": "float32", "quantization": {"min": -0.3603061427088345, "scale": 0.003639455986957924, "dtype": "uint8"}}, {"name": "separable_conv_2_normal_left2_0/depthwise_kernel", "shape": [5, 5, 44, 1], "dtype": "float32", "quantization": {"min": -0.9567518009858973, "scale": 0.008108066110049977, "dtype": "uint8"}}, {"name": "separable_conv_2_normal_left2_0/pointwise_kernel", "shape": [1, 1, 44, 44], "dtype": "float32", "quantization": {"min": -0.6690555979223812, "scale": 0.005439476405873018, "dtype": "uint8"}}, {"name": "separable_conv_2_normal_left2_1/depthwise_kernel", "shape": [5, 5, 44, 1], "dtype": "float32", "quantization": {"min": -0.7480772137641907, "scale": 0.0048893935540143185, "dtype": "uint8"}}, {"name": "separable_conv_2_normal_left2_1/pointwise_kernel", "shape": [1, 1, 44, 44], "dtype": "float32", "quantization": {"min": -0.6758833924929302, "scale": 0.005407067139943441, "dtype": "uint8"}}, {"name": "separable_conv_2_normal_left2_10/depthwise_kernel", "shape": [5, 5, 176, 1], "dtype": "float32", "quantization": {"min": -0.33188376239701817, "scale": 0.002552952018438601, "dtype": "uint8"}}, {"name": "separable_conv_2_normal_left2_10/pointwise_kernel", "shape": [1, 1, 176, 176], "dtype": "float32", "quantization": {"min": -0.33185135266360116, "scale": 0.0031604890729866777, "dtype": "uint8"}}, {"name": "separable_conv_2_normal_left2_11/depthwise_kernel", "shape": [5, 5, 176, 1], "dtype": "float32", "quantization": {"min": -0.3095729678284888, "scale": 0.0024765837426279106, "dtype": "uint8"}}, {"name": "separable_conv_2_normal_left2_11/pointwise_kernel", "shape": [1, 1, 176, 176], "dtype": "float32", "quantization": {"min": -0.3834073912863638, "scale": 0.0025905904816646203, "dtype": "uint8"}}, {"name": "separable_conv_2_normal_left2_12/depthwise_kernel", "shape": [5, 5, 176, 1], "dtype": "float32", "quantization": {"min": -0.23733333115484198, "scale": 0.0025797101212482825, "dtype": "uint8"}}, {"name": "separable_conv_2_normal_left2_12/pointwise_kernel", "shape": [1, 1, 176, 176], "dtype": "float32", "quantization": {"min": -0.14247784334070543, "scale": 0.0011131081510992612, "dtype": "uint8"}}, {"name": "separable_conv_2_normal_left2_2/depthwise_kernel", "shape": [5, 5, 44, 1], "dtype": "float32", "quantization": {"min": -0.5648457288742066, "scale": 0.004954787095387777, "dtype": "uint8"}}, {"name": "separable_conv_2_normal_left2_2/pointwise_kernel", "shape": [1, 1, 44, 44], "dtype": "float32", "quantization": {"min": -0.647156195079579, "scale": 0.004829523843877455, "dtype": "uint8"}}, {"name": "separable_conv_2_normal_left2_3/depthwise_kernel", "shape": [5, 5, 44, 1], "dtype": "float32", "quantization": {"min": -0.49861882854910455, "scale": 0.004373849373237759, "dtype": "uint8"}}, {"name": "separable_conv_2_normal_left2_3/pointwise_kernel", "shape": [1, 1, 44, 44], "dtype": "float32", "quantization": {"min": -0.7683521105962641, "scale": 0.004957110390943639, "dtype": "uint8"}}, {"name": "separable_conv_2_normal_left2_5/depthwise_kernel", "shape": [5, 5, 88, 1], "dtype": "float32", "quantization": {"min": -0.36989575566030014, "scale": 0.003216484831828697, "dtype": "uint8"}}, {"name": "separable_conv_2_normal_left2_5/pointwise_kernel", "shape": [1, 1, 88, 88], "dtype": "float32", "quantization": {"min": -0.4951258135776894, "scale": 0.00454243865667605, "dtype": "uint8"}}, {"name": "separable_conv_2_normal_left2_6/depthwise_kernel", "shape": [5, 5, 88, 1], "dtype": "float32", "quantization": {"min": -0.43761594330563264, "scale": 0.003500927546445061, "dtype": "uint8"}}, {"name": "separable_conv_2_normal_left2_6/pointwise_kernel", "shape": [1, 1, 88, 88], "dtype": "float32", "quantization": {"min": -0.4855258765173893, "scale": 0.003650570500130747, "dtype": "uint8"}}, {"name": "separable_conv_2_normal_left2_7/depthwise_kernel", "shape": [5, 5, 88, 1], "dtype": "float32", "quantization": {"min": -0.4952829893897562, "scale": 0.003174890957626642, "dtype": "uint8"}}, {"name": "separable_conv_2_normal_left2_7/pointwise_kernel", "shape": [1, 1, 88, 88], "dtype": "float32", "quantization": {"min": -0.4156851392166287, "scale": 0.0029905405699038037, "dtype": "uint8"}}, {"name": "separable_conv_2_normal_left2_8/depthwise_kernel", "shape": [5, 5, 88, 1], "dtype": "float32", "quantization": {"min": -0.35130246562116285, "scale": 0.003164887077668134, "dtype": "uint8"}}, {"name": "separable_conv_2_normal_left2_8/pointwise_kernel", "shape": [1, 1, 88, 88], "dtype": "float32", "quantization": {"min": -0.47855146527290343, "scale": 0.004021440884646247, "dtype": "uint8"}}, {"name": "separable_conv_2_normal_left2_9/depthwise_kernel", "shape": [5, 5, 176, 1], "dtype": "float32", "quantization": {"min": -0.26329248325497495, "scale": 0.0037613211893567852, "dtype": "uint8"}}, {"name": "separable_conv_2_normal_left2_9/pointwise_kernel", "shape": [1, 1, 176, 176], "dtype": "float32", "quantization": {"min": -0.474833863623002, "scale": 0.0031655590908200135, "dtype": "uint8"}}, {"name": "separable_conv_2_normal_left5_0/depthwise_kernel", "shape": [3, 3, 44, 1], "dtype": "float32", "quantization": {"min": -0.7298717617988587, "scale": 0.006133376149570241, "dtype": "uint8"}}, {"name": "separable_conv_2_normal_left5_0/pointwise_kernel", "shape": [1, 1, 44, 44], "dtype": "float32", "quantization": {"min": -0.5156638383865356, "scale": 0.004333309566273409, "dtype": "uint8"}}, {"name": "separable_conv_2_normal_left5_1/depthwise_kernel", "shape": [3, 3, 44, 1], "dtype": "float32", "quantization": {"min": -0.6946870446205139, "scale": 0.005837706257315243, "dtype": "uint8"}}, {"name": "separable_conv_2_normal_left5_1/pointwise_kernel", "shape": [1, 1, 44, 44], "dtype": "float32", "quantization": {"min": -0.8497853793349921, "scale": 0.005703257579429477, "dtype": "uint8"}}, {"name": "separable_conv_2_normal_left5_10/depthwise_kernel", "shape": [3, 3, 176, 1], "dtype": "float32", "quantization": {"min": -0.5574815214848986, "scale": 0.003898472178216074, "dtype": "uint8"}}, {"name": "separable_conv_2_normal_left5_10/pointwise_kernel", "shape": [1, 1, 176, 176], "dtype": "float32", "quantization": {"min": -0.6606231775938296, "scale": 0.0037749895862504547, "dtype": "uint8"}}, {"name": "separable_conv_2_normal_left5_11/depthwise_kernel", "shape": [3, 3, 176, 1], "dtype": "float32", "quantization": {"min": -0.2898586911313674, "scale": 0.0026113395597420486, "dtype": "uint8"}}, {"name": "separable_conv_2_normal_left5_11/pointwise_kernel", "shape": [1, 1, 176, 176], "dtype": "float32", "quantization": {"min": -0.34166475662998125, "scale": 0.0024939033330655565, "dtype": "uint8"}}, {"name": "separable_conv_2_normal_left5_12/depthwise_kernel", "shape": [3, 3, 176, 1], "dtype": "float32", "quantization": {"min": -0.5494482657488655, "scale": 0.006243730292600744, "dtype": "uint8"}}, {"name": "separable_conv_2_normal_left5_12/pointwise_kernel", "shape": [1, 1, 176, 176], "dtype": "float32", "quantization": {"min": -0.14658574543747246, "scale": 0.0016657471072440053, "dtype": "uint8"}}, {"name": "separable_conv_2_normal_left5_2/depthwise_kernel", "shape": [3, 3, 44, 1], "dtype": "float32", "quantization": {"min": -0.5311401159155603, "scale": 0.004249120927324482, "dtype": "uint8"}}, {"name": "separable_conv_2_normal_left5_2/pointwise_kernel", "shape": [1, 1, 44, 44], "dtype": "float32", "quantization": {"min": -0.45737430289679887, "scale": 0.003290462610768337, "dtype": "uint8"}}, {"name": "separable_conv_2_normal_left5_3/depthwise_kernel", "shape": [3, 3, 44, 1], "dtype": "float32", "quantization": {"min": -0.37198910000277496, "scale": 0.004087792307722802, "dtype": "uint8"}}, {"name": "separable_conv_2_normal_left5_3/pointwise_kernel", "shape": [1, 1, 44, 44], "dtype": "float32", "quantization": {"min": -0.3860289279152365, "scale": 0.003509353890138514, "dtype": "uint8"}}, {"name": "separable_conv_2_normal_left5_5/depthwise_kernel", "shape": [3, 3, 88, 1], "dtype": "float32", "quantization": {"min": -0.6582720887427236, "scale": 0.004701943491019454, "dtype": "uint8"}}, {"name": "separable_conv_2_normal_left5_5/pointwise_kernel", "shape": [1, 1, 88, 88], "dtype": "float32", "quantization": {"min": -0.39446259105906767, "scale": 0.0029883529625686946, "dtype": "uint8"}}, {"name": "separable_conv_2_normal_left5_6/depthwise_kernel", "shape": [3, 3, 88, 1], "dtype": "float32", "quantization": {"min": -0.8267041767344755, "scale": 0.006169434154734892, "dtype": "uint8"}}, {"name": "separable_conv_2_normal_left5_6/pointwise_kernel", "shape": [1, 1, 88, 88], "dtype": "float32", "quantization": {"min": -0.7623088462679994, "scale": 0.005955537861468746, "dtype": "uint8"}}, {"name": "separable_conv_2_normal_left5_7/depthwise_kernel", "shape": [3, 3, 88, 1], "dtype": "float32", "quantization": {"min": -0.591985317071279, "scale": 0.0048924406369527185, "dtype": "uint8"}}, {"name": "separable_conv_2_normal_left5_7/pointwise_kernel", "shape": [1, 1, 88, 88], "dtype": "float32", "quantization": {"min": -0.2973320811402564, "scale": 0.0031298113804237517, "dtype": "uint8"}}, {"name": "separable_conv_2_normal_left5_8/depthwise_kernel", "shape": [3, 3, 88, 1], "dtype": "float32", "quantization": {"min": -0.6253119682564455, "scale": 0.004372810966828291, "dtype": "uint8"}}, {"name": "separable_conv_2_normal_left5_8/pointwise_kernel", "shape": [1, 1, 88, 88], "dtype": "float32", "quantization": {"min": -0.3758069337583056, "scale": 0.0033554190514134426, "dtype": "uint8"}}, {"name": "separable_conv_2_normal_left5_9/depthwise_kernel", "shape": [3, 3, 176, 1], "dtype": "float32", "quantization": {"min": -0.5524328923692889, "scale": 0.005022117203357173, "dtype": "uint8"}}, {"name": "separable_conv_2_normal_left5_9/pointwise_kernel", "shape": [1, 1, 176, 176], "dtype": "float32", "quantization": {"min": -0.3819241467644186, "scale": 0.004063022837919347, "dtype": "uint8"}}, {"name": "separable_conv_2_normal_right1_0/depthwise_kernel", "shape": [3, 3, 44, 1], "dtype": "float32", "quantization": {"min": -0.5838258593690161, "scale": 0.004670606874952129, "dtype": "uint8"}}, {"name": "separable_conv_2_normal_right1_0/pointwise_kernel", "shape": [1, 1, 44, 44], "dtype": "float32", "quantization": {"min": -0.785937554696027, "scale": 0.005239583697973513, "dtype": "uint8"}}, {"name": "separable_conv_2_normal_right1_1/depthwise_kernel", "shape": [3, 3, 44, 1], "dtype": "float32", "quantization": {"min": -0.6541043660219978, "scale": 0.005070576480790681, "dtype": "uint8"}}, {"name": "separable_conv_2_normal_right1_1/pointwise_kernel", "shape": [1, 1, 44, 44], "dtype": "float32", "quantization": {"min": -0.4880471209685007, "scale": 0.00410123631065967, "dtype": "uint8"}}, {"name": "separable_conv_2_normal_right1_10/depthwise_kernel", "shape": [3, 3, 176, 1], "dtype": "float32", "quantization": {"min": -0.2562614069265478, "scale": 0.0038827485897961786, "dtype": "uint8"}}, {"name": "separable_conv_2_normal_right1_10/pointwise_kernel", "shape": [1, 1, 176, 176], "dtype": "float32", "quantization": {"min": -0.35738805953194114, "scale": 0.0033715854672824635, "dtype": "uint8"}}, {"name": "separable_conv_2_normal_right1_11/depthwise_kernel", "shape": [3, 3, 176, 1], "dtype": "float32", "quantization": {"min": -0.2522471538361381, "scale": 0.0019554042933033963, "dtype": "uint8"}}, {"name": "separable_conv_2_normal_right1_11/pointwise_kernel", "shape": [1, 1, 176, 176], "dtype": "float32", "quantization": {"min": -0.3139025089787502, "scale": 0.0022582914315018, "dtype": "uint8"}}, {"name": "separable_conv_2_normal_right1_12/depthwise_kernel", "shape": [3, 3, 176, 1], "dtype": "float32", "quantization": {"min": -0.37999069866012125, "scale": 0.00303992558928097, "dtype": "uint8"}}, {"name": "separable_conv_2_normal_right1_12/pointwise_kernel", "shape": [1, 1, 176, 176], "dtype": "float32", "quantization": {"min": -0.1457433064778646, "scale": 0.0010716419593960632, "dtype": "uint8"}}, {"name": "separable_conv_2_normal_right1_2/depthwise_kernel", "shape": [3, 3, 44, 1], "dtype": "float32", "quantization": {"min": -0.5112842996915182, "scale": 0.004025860627492269, "dtype": "uint8"}}, {"name": "separable_conv_2_normal_right1_2/pointwise_kernel", "shape": [1, 1, 44, 44], "dtype": "float32", "quantization": {"min": -0.9373303034726311, "scale": 0.005785989527608834, "dtype": "uint8"}}, {"name": "separable_conv_2_normal_right1_3/depthwise_kernel", "shape": [3, 3, 44, 1], "dtype": "float32", "quantization": {"min": -0.36640112890916715, "scale": 0.0027343367829042323, "dtype": "uint8"}}, {"name": "separable_conv_2_normal_right1_3/pointwise_kernel", "shape": [1, 1, 44, 44], "dtype": "float32", "quantization": {"min": -0.4903068252638274, "scale": 0.004226782976412305, "dtype": "uint8"}}, {"name": "separable_conv_2_normal_right1_5/depthwise_kernel", "shape": [3, 3, 88, 1], "dtype": "float32", "quantization": {"min": -0.6773626537883983, "scale": 0.0052508732851813825, "dtype": "uint8"}}, {"name": "separable_conv_2_normal_right1_5/pointwise_kernel", "shape": [1, 1, 88, 88], "dtype": "float32", "quantization": {"min": -0.3900228714241701, "scale": 0.0028468822731691247, "dtype": "uint8"}}, {"name": "separable_conv_2_normal_right1_6/depthwise_kernel", "shape": [3, 3, 88, 1], "dtype": "float32", "quantization": {"min": -0.5044784286442925, "scale": 0.004628242464626536, "dtype": "uint8"}}, {"name": "separable_conv_2_normal_right1_6/pointwise_kernel", "shape": [1, 1, 88, 88], "dtype": "float32", "quantization": {"min": -0.6586012858970492, "scale": 0.005442985833859911, "dtype": "uint8"}}, {"name": "separable_conv_2_normal_right1_7/depthwise_kernel", "shape": [3, 3, 88, 1], "dtype": "float32", "quantization": {"min": -0.5683488705578973, "scale": 0.004546790964463178, "dtype": "uint8"}}, {"name": "separable_conv_2_normal_right1_7/pointwise_kernel", "shape": [1, 1, 88, 88], "dtype": "float32", "quantization": {"min": -0.4106029772290996, "scale": 0.0032330943088905483, "dtype": "uint8"}}, {"name": "separable_conv_2_normal_right1_8/depthwise_kernel", "shape": [3, 3, 88, 1], "dtype": "float32", "quantization": {"min": -0.4394893006366842, "scale": 0.002663571519010207, "dtype": "uint8"}}, {"name": "separable_conv_2_normal_right1_8/pointwise_kernel", "shape": [1, 1, 88, 88], "dtype": "float32", "quantization": {"min": -0.37524620224447813, "scale": 0.003127051685370651, "dtype": "uint8"}}, {"name": "separable_conv_2_normal_right1_9/depthwise_kernel", "shape": [3, 3, 176, 1], "dtype": "float32", "quantization": {"min": -0.3743961675494325, "scale": 0.0026742583396388037, "dtype": "uint8"}}, {"name": "separable_conv_2_normal_right1_9/pointwise_kernel", "shape": [1, 1, 176, 176], "dtype": "float32", "quantization": {"min": -0.25238472059661266, "scale": 0.0021757303499707987, "dtype": "uint8"}}, {"name": "separable_conv_2_normal_right2_0/depthwise_kernel", "shape": [3, 3, 44, 1], "dtype": "float32", "quantization": {"min": -0.543431023756663, "scale": 0.004566647258459353, "dtype": "uint8"}}, {"name": "separable_conv_2_normal_right2_0/pointwise_kernel", "shape": [1, 1, 44, 44], "dtype": "float32", "quantization": {"min": -0.5340758232509388, "scale": 0.004015607693616081, "dtype": "uint8"}}, {"name": "separable_conv_2_normal_right2_1/depthwise_kernel", "shape": [3, 3, 44, 1], "dtype": "float32", "quantization": {"min": -0.6100854885344412, "scale": 0.004657141133850696, "dtype": "uint8"}}, {"name": "separable_conv_2_normal_right2_1/pointwise_kernel", "shape": [1, 1, 44, 44], "dtype": "float32", "quantization": {"min": -0.6156573295593262, "scale": 0.005130477746327718, "dtype": "uint8"}}, {"name": "separable_conv_2_normal_right2_10/depthwise_kernel", "shape": [3, 3, 176, 1], "dtype": "float32", "quantization": {"min": -0.4738551097757676, "scale": 0.0036450393059674433, "dtype": "uint8"}}, {"name": "separable_conv_2_normal_right2_10/pointwise_kernel", "shape": [1, 1, 176, 176], "dtype": "float32", "quantization": {"min": -0.32293640772501625, "scale": 0.0023745324097427666, "dtype": "uint8"}}, {"name": "separable_conv_2_normal_right2_11/depthwise_kernel", "shape": [3, 3, 176, 1], "dtype": "float32", "quantization": {"min": -0.27486504386453064, "scale": 0.0020823109383676566, "dtype": "uint8"}}, {"name": "separable_conv_2_normal_right2_11/pointwise_kernel", "shape": [1, 1, 176, 176], "dtype": "float32", "quantization": {"min": -0.2966034019694609, "scale": 0.002149300014271456, "dtype": "uint8"}}, {"name": "separable_conv_2_normal_right2_12/depthwise_kernel", "shape": [3, 3, 176, 1], "dtype": "float32", "quantization": {"min": -0.1711865540812997, "scale": 0.002633639293558457, "dtype": "uint8"}}, {"name": "separable_conv_2_normal_right2_12/pointwise_kernel", "shape": [1, 1, 176, 176], "dtype": "float32", "quantization": {"min": -0.1319456380956313, "scale": 0.0010228344038421032, "dtype": "uint8"}}, {"name": "separable_conv_2_normal_right2_2/depthwise_kernel", "shape": [3, 3, 44, 1], "dtype": "float32", "quantization": {"min": -0.5262846718816196, "scale": 0.003898404976900886, "dtype": "uint8"}}, {"name": "separable_conv_2_normal_right2_2/pointwise_kernel", "shape": [1, 1, 44, 44], "dtype": "float32", "quantization": {"min": -0.5196146813093447, "scale": 0.004156917450474758, "dtype": "uint8"}}, {"name": "separable_conv_2_normal_right2_3/depthwise_kernel", "shape": [3, 3, 44, 1], "dtype": "float32", "quantization": {"min": -0.32373299283139845, "scale": 0.0025095580839643293, "dtype": "uint8"}}, {"name": "separable_conv_2_normal_right2_3/pointwise_kernel", "shape": [1, 1, 44, 44], "dtype": "float32", "quantization": {"min": -0.4416947444279989, "scale": 0.0037117205414117552, "dtype": "uint8"}}, {"name": "separable_conv_2_normal_right2_5/depthwise_kernel", "shape": [3, 3, 88, 1], "dtype": "float32", "quantization": {"min": -0.5060881460414214, "scale": 0.003834001106374404, "dtype": "uint8"}}, {"name": "separable_conv_2_normal_right2_5/pointwise_kernel", "shape": [1, 1, 88, 88], "dtype": "float32", "quantization": {"min": -0.4068152869448942, "scale": 0.0032545222955591537, "dtype": "uint8"}}, {"name": "separable_conv_2_normal_right2_6/depthwise_kernel", "shape": [3, 3, 88, 1], "dtype": "float32", "quantization": {"min": -0.4969249164356905, "scale": 0.0034508674752478504, "dtype": "uint8"}}, {"name": "separable_conv_2_normal_right2_6/pointwise_kernel", "shape": [1, 1, 88, 88], "dtype": "float32", "quantization": {"min": -0.34946061209136364, "scale": 0.0030125914835462384, "dtype": "uint8"}}, {"name": "separable_conv_2_normal_right2_7/depthwise_kernel", "shape": [3, 3, 88, 1], "dtype": "float32", "quantization": {"min": -0.6085056379729626, "scale": 0.0051568274404488355, "dtype": "uint8"}}, {"name": "separable_conv_2_normal_right2_7/pointwise_kernel", "shape": [1, 1, 88, 88], "dtype": "float32", "quantization": {"min": -0.339958707374685, "scale": 0.0030626910574295943, "dtype": "uint8"}}, {"name": "separable_conv_2_normal_right2_8/depthwise_kernel", "shape": [3, 3, 88, 1], "dtype": "float32", "quantization": {"min": -0.2801801836958119, "scale": 0.0021387800282123043, "dtype": "uint8"}}, {"name": "separable_conv_2_normal_right2_8/pointwise_kernel", "shape": [1, 1, 88, 88], "dtype": "float32", "quantization": {"min": -0.5129542420892155, "scale": 0.0036639588720658246, "dtype": "uint8"}}, {"name": "separable_conv_2_normal_right2_9/depthwise_kernel", "shape": [3, 3, 176, 1], "dtype": "float32", "quantization": {"min": -0.40360774947147743, "scale": 0.0026728990031223672, "dtype": "uint8"}}, {"name": "separable_conv_2_normal_right2_9/pointwise_kernel", "shape": [1, 1, 176, 176], "dtype": "float32", "quantization": {"min": -0.27272441036560957, "scale": 0.0021644794473461076, "dtype": "uint8"}}, {"name": "separable_conv_2_reduction_left1_reduce_4/depthwise_kernel", "shape": [5, 5, 88, 1], "dtype": "float32", "quantization": {"min": -0.586084431292964, "scale": 0.005860844312929639, "dtype": "uint8"}}, {"name": "separable_conv_2_reduction_left1_reduce_4/pointwise_kernel", "shape": [1, 1, 88, 88], "dtype": "float32", "quantization": {"min": -0.5103706724503461, "scale": 0.00447693572324865, "dtype": "uint8"}}, {"name": "separable_conv_2_reduction_left1_reduce_8/depthwise_kernel", "shape": [5, 5, 176, 1], "dtype": "float32", "quantization": {"min": -0.5076312354966707, "scale": 0.005179910566292557, "dtype": "uint8"}}, {"name": "separable_conv_2_reduction_left1_reduce_8/pointwise_kernel", "shape": [1, 1, 176, 176], "dtype": "float32", "quantization": {"min": -0.34023199478785193, "scale": 0.004002729350445317, "dtype": "uint8"}}, {"name": "separable_conv_2_reduction_left1_stem_1/depthwise_kernel", "shape": [5, 5, 11, 1], "dtype": "float32", "quantization": {"min": -1.6303729323779836, "scale": 0.01468804443583769, "dtype": "uint8"}}, {"name": "separable_conv_2_reduction_left1_stem_1/pointwise_kernel", "shape": [1, 1, 11, 11], "dtype": "float32", "quantization": {"min": -0.9628311755610447, "scale": 0.007522118559070662, "dtype": "uint8"}}, {"name": "separable_conv_2_reduction_left1_stem_2/depthwise_kernel", "shape": [5, 5, 22, 1], "dtype": "float32", "quantization": {"min": -0.6303870460566353, "scale": 0.005679162577086804, "dtype": "uint8"}}, {"name": "separable_conv_2_reduction_left1_stem_2/pointwise_kernel", "shape": [1, 1, 22, 22], "dtype": "float32", "quantization": {"min": -0.64551627963197, "scale": 0.005763538210999732, "dtype": "uint8"}}, {"name": "separable_conv_2_reduction_left4_reduce_4/depthwise_kernel", "shape": [3, 3, 88, 1], "dtype": "float32", "quantization": {"min": -0.7691818629994112, "scale": 0.006747209324556238, "dtype": "uint8"}}, {"name": "separable_conv_2_reduction_left4_reduce_4/pointwise_kernel", "shape": [1, 1, 88, 88], "dtype": "float32", "quantization": {"min": -0.7792798911823946, "scale": 0.006234239129459157, "dtype": "uint8"}}, {"name": "separable_conv_2_reduction_left4_reduce_8/depthwise_kernel", "shape": [3, 3, 176, 1], "dtype": "float32", "quantization": {"min": -0.9090162010753856, "scale": 0.006183783680784936, "dtype": "uint8"}}, {"name": "separable_conv_2_reduction_left4_reduce_8/pointwise_kernel", "shape": [1, 1, 176, 176], "dtype": "float32", "quantization": {"min": -1.1138758743510526, "scale": 0.007140229963788799, "dtype": "uint8"}}, {"name": "separable_conv_2_reduction_left4_stem_1/depthwise_kernel", "shape": [3, 3, 11, 1], "dtype": "float32", "quantization": {"min": -1.429935780693503, "scale": 0.011084773493748085, "dtype": "uint8"}}, {"name": "separable_conv_2_reduction_left4_stem_1/pointwise_kernel", "shape": [1, 1, 11, 11], "dtype": "float32", "quantization": {"min": -0.9049352832868988, "scale": 0.007801166235231886, "dtype": "uint8"}}, {"name": "separable_conv_2_reduction_left4_stem_2/depthwise_kernel", "shape": [3, 3, 22, 1], "dtype": "float32", "quantization": {"min": -0.7330868933715072, "scale": 0.004189067962122898, "dtype": "uint8"}}, {"name": "separable_conv_2_reduction_left4_stem_2/pointwise_kernel", "shape": [1, 1, 22, 22], "dtype": "float32", "quantization": {"min": -0.46078196939300087, "scale": 0.00313457122036055, "dtype": "uint8"}}, {"name": "separable_conv_2_reduction_right1_reduce_4/depthwise_kernel", "shape": [7, 7, 88, 1], "dtype": "float32", "quantization": {"min": -0.650467550053316, "scale": 0.004646196786095114, "dtype": "uint8"}}, {"name": "separable_conv_2_reduction_right1_reduce_4/pointwise_kernel", "shape": [1, 1, 88, 88], "dtype": "float32", "quantization": {"min": -1.0793394177567726, "scale": 0.007600981815188539, "dtype": "uint8"}}, {"name": "separable_conv_2_reduction_right1_reduce_8/depthwise_kernel", "shape": [7, 7, 176, 1], "dtype": "float32", "quantization": {"min": -0.7795074021115023, "scale": 0.004724287285524256, "dtype": "uint8"}}, {"name": "separable_conv_2_reduction_right1_reduce_8/pointwise_kernel", "shape": [1, 1, 176, 176], "dtype": "float32", "quantization": {"min": -0.8860252268174115, "scale": 0.005753410563749425, "dtype": "uint8"}}, {"name": "separable_conv_2_reduction_right1_stem_1/depthwise_kernel", "shape": [7, 7, 11, 1], "dtype": "float32", "quantization": {"min": -1.5775944719127581, "scale": 0.011773093073975806, "dtype": "uint8"}}, {"name": "separable_conv_2_reduction_right1_stem_1/pointwise_kernel", "shape": [1, 1, 11, 11], "dtype": "float32", "quantization": {"min": -0.7525317023782169, "scale": 0.005700997745289522, "dtype": "uint8"}}, {"name": "separable_conv_2_reduction_right1_stem_2/depthwise_kernel", "shape": [7, 7, 22, 1], "dtype": "float32", "quantization": {"min": -0.5145996376579883, "scale": 0.0037562017347298414, "dtype": "uint8"}}, {"name": "separable_conv_2_reduction_right1_stem_2/pointwise_kernel", "shape": [1, 1, 22, 22], "dtype": "float32", "quantization": {"min": -0.465229267466302, "scale": 0.004268158417122037, "dtype": "uint8"}}, {"name": "separable_conv_2_reduction_right2_reduce_4/depthwise_kernel", "shape": [7, 7, 88, 1], "dtype": "float32", "quantization": {"min": -1.2139379043205112, "scale": 0.009337983879388547, "dtype": "uint8"}}, {"name": "separable_conv_2_reduction_right2_reduce_4/pointwise_kernel", "shape": [1, 1, 88, 88], "dtype": "float32", "quantization": {"min": -0.6969621246936275, "scale": 0.004908183976715687, "dtype": "uint8"}}, {"name": "separable_conv_2_reduction_right2_reduce_8/depthwise_kernel", "shape": [7, 7, 176, 1], "dtype": "float32", "quantization": {"min": -0.7519807665955787, "scale": 0.007230584294188256, "dtype": "uint8"}}, {"name": "separable_conv_2_reduction_right2_reduce_8/pointwise_kernel", "shape": [1, 1, 176, 176], "dtype": "float32", "quantization": {"min": -0.33348348280962775, "scale": 0.003146070592543658, "dtype": "uint8"}}, {"name": "separable_conv_2_reduction_right2_stem_1/depthwise_kernel", "shape": [7, 7, 11, 1], "dtype": "float32", "quantization": {"min": -1.4080373913634057, "scale": 0.010748377033308441, "dtype": "uint8"}}, {"name": "separable_conv_2_reduction_right2_stem_1/pointwise_kernel", "shape": [1, 1, 11, 11], "dtype": "float32", "quantization": {"min": -0.8463018157902885, "scale": 0.0065604791921727796, "dtype": "uint8"}}, {"name": "separable_conv_2_reduction_right2_stem_2/depthwise_kernel", "shape": [7, 7, 22, 1], "dtype": "float32", "quantization": {"min": -1.2005930129219504, "scale": 0.009760918804243499, "dtype": "uint8"}}, {"name": "separable_conv_2_reduction_right2_stem_2/pointwise_kernel", "shape": [1, 1, 22, 22], "dtype": "float32", "quantization": {"min": -0.8027609694237803, "scale": 0.0064738787856756476, "dtype": "uint8"}}, {"name": "separable_conv_2_reduction_right3_reduce_4/depthwise_kernel", "shape": [5, 5, 88, 1], "dtype": "float32", "quantization": {"min": -1.0357695691725788, "scale": 0.00848991450141458, "dtype": "uint8"}}, {"name": "separable_conv_2_reduction_right3_reduce_4/pointwise_kernel", "shape": [1, 1, 88, 88], "dtype": "float32", "quantization": {"min": -0.6221012157552382, "scale": 0.004976809726041906, "dtype": "uint8"}}, {"name": "separable_conv_2_reduction_right3_reduce_8/depthwise_kernel", "shape": [5, 5, 176, 1], "dtype": "float32", "quantization": {"min": -0.6137998548208498, "scale": 0.005579998680189544, "dtype": "uint8"}}, {"name": "separable_conv_2_reduction_right3_reduce_8/pointwise_kernel", "shape": [1, 1, 176, 176], "dtype": "float32", "quantization": {"min": -0.8622364072238698, "scale": 0.005013002367580639, "dtype": "uint8"}}, {"name": "separable_conv_2_reduction_right3_stem_1/depthwise_kernel", "shape": [5, 5, 11, 1], "dtype": "float32", "quantization": {"min": -2.0028894938674626, "scale": 0.01528923277761422, "dtype": "uint8"}}, {"name": "separable_conv_2_reduction_right3_stem_1/pointwise_kernel", "shape": [1, 1, 11, 11], "dtype": "float32", "quantization": {"min": -0.9830289001558341, "scale": 0.00717539343179441, "dtype": "uint8"}}, {"name": "separable_conv_2_reduction_right3_stem_2/depthwise_kernel", "shape": [5, 5, 22, 1], "dtype": "float32", "quantization": {"min": -1.1415064825731165, "scale": 0.010871490310220158, "dtype": "uint8"}}, {"name": "separable_conv_2_reduction_right3_stem_2/pointwise_kernel", "shape": [1, 1, 22, 22], "dtype": "float32", "quantization": {"min": -0.9673412556741752, "scale": 0.006764624165553673, "dtype": "uint8"}}, {"name": "stem_bn1/gamma", "shape": [32], "dtype": "float32", "quantization": {"min": -0.22146445191374012, "scale": 0.04429289038274802, "dtype": "uint8"}}, {"name": "stem_bn1/beta", "shape": [32], "dtype": "float32", "quantization": {"min": -14.612911355261708, "scale": 0.08350235060149548, "dtype": "uint8"}}, {"name": "stem_bn1/moving_mean", "shape": [32], "dtype": "float32", "quantization": {"min": -0.6289463239557602, "scale": 0.004991637491712383, "dtype": "uint8"}}, {"name": "stem_bn1/moving_variance", "shape": [32], "dtype": "float32", "quantization": {"min": 5.919755535357249e-20, "scale": 0.02275693556841682, "dtype": "uint8"}}, {"name": "stem_conv1/kernel", "shape": [3, 3, 3, 32], "dtype": "float32", "quantization": {"min": -2.2989693043278714, "scale": 0.017285483491187, "dtype": "uint8"}}]}]}