{"modelTopology": {"keras_version": "2.2.2", "backend": "tensorflow", "model_config": {"class_name": "Model", "config": {"name": "model_12", "layers": [{"name": "input_13", "class_name": "InputLayer", "config": {"batch_input_shape": [null, 224, 224, 3], "dtype": "float32", "sparse": false, "name": "input_13"}, "inbound_nodes": []}, {"name": "stem_conv1", "class_name": "Conv2D", "config": {"name": "stem_conv1", "trainable": false, "filters": 32, "kernel_size": [3, 3], "strides": [2, 2], "padding": "valid", "data_format": "channels_last", "dilation_rate": [1, 1], "activation": "linear", "use_bias": false, "kernel_initializer": {"class_name": "VarianceScaling", "config": {"scale": 2.0, "mode": "fan_in", "distribution": "normal", "seed": null}}, "bias_initializer": {"class_name": "Zeros", "config": {}}, "kernel_regularizer": null, "bias_regularizer": null, "activity_regularizer": null, "kernel_constraint": null, "bias_constraint": null}, "inbound_nodes": [[["input_13", 0, 0, {}]]]}, {"name": "stem_bn1", "class_name": "BatchNormalization", "config": {"name": "stem_bn1", "trainable": false, "axis": -1, "momentum": 0.9997, "epsilon": 0.001, "center": true, "scale": true, "beta_initializer": {"class_name": "Zeros", "config": {}}, "gamma_initializer": {"class_name": "Ones", "config": {}}, "moving_mean_initializer": {"class_name": "Zeros", "config": {}}, "moving_variance_initializer": {"class_name": "Ones", "config": {}}, "beta_regularizer": null, "gamma_regularizer": null, "beta_constraint": null, "gamma_constraint": null}, "inbound_nodes": [[["stem_conv1", 0, 0, {}]]]}, {"name": "activation_298", "class_name": "Activation", "config": {"name": "activation_298", "trainable": false, "activation": "relu"}, "inbound_nodes": [[["stem_bn1", 0, 0, {}]]]}, {"name": "reduction_conv_1_stem_1", "class_name": "Conv2D", "config": {"name": "reduction_conv_1_stem_1", "trainable": false, "filters": 11, "kernel_size": [1, 1], "strides": [1, 1], "padding": "same", "data_format": "channels_last", "dilation_rate": [1, 1], "activation": "linear", "use_bias": false, "kernel_initializer": {"class_name": "VarianceScaling", "config": {"scale": 2.0, "mode": "fan_in", "distribution": "normal", "seed": null}}, "bias_initializer": {"class_name": "Zeros", "config": {}}, "kernel_regularizer": null, "bias_regularizer": null, "activity_regularizer": null, "kernel_constraint": null, "bias_constraint": null}, "inbound_nodes": [[["activation_298", 0, 0, {}]]]}, {"name": "reduction_bn_1_stem_1", "class_name": "BatchNormalization", "config": {"name": "reduction_bn_1_stem_1", "trainable": false, "axis": -1, "momentum": 0.9997, "epsilon": 0.001, "center": true, "scale": true, "beta_initializer": {"class_name": "Zeros", "config": {}}, "gamma_initializer": {"class_name": "Ones", "config": {}}, "moving_mean_initializer": {"class_name": "Zeros", "config": {}}, "moving_variance_initializer": {"class_name": "Ones", "config": {}}, "beta_regularizer": null, "gamma_regularizer": null, "beta_constraint": null, "gamma_constraint": null}, "inbound_nodes": [[["reduction_conv_1_stem_1", 0, 0, {}]]]}, {"name": "activation_299", "class_name": "Activation", "config": {"name": "activation_299", "trainable": false, "activation": "relu"}, "inbound_nodes": [[["reduction_bn_1_stem_1", 0, 0, {}]]]}, {"name": "activation_301", "class_name": "Activation", "config": {"name": "activation_301", "trainable": false, "activation": "relu"}, "inbound_nodes": [[["stem_bn1", 0, 0, {}]]]}, {"name": "separable_conv_1_pad_reduction_left1_stem_1", "class_name": "ZeroPadding2D", "config": {"name": "separable_conv_1_pad_reduction_left1_stem_1", "trainable": false, "padding": [[2, 2], [2, 2]], "data_format": "channels_last"}, "inbound_nodes": [[["activation_299", 0, 0, {}]]]}, {"name": "separable_conv_1_pad_reduction_right1_stem_1", "class_name": "ZeroPadding2D", "config": {"name": "separable_conv_1_pad_reduction_right1_stem_1", "trainable": false, "padding": [[3, 3], [3, 3]], "data_format": "channels_last"}, "inbound_nodes": [[["activation_301", 0, 0, {}]]]}, {"name": "separable_conv_1_reduction_left1_stem_1", "class_name": "SeparableConv2D", "config": {"name": "separable_conv_1_reduction_left1_stem_1", "trainable": false, "filters": 11, "kernel_size": [5, 5], "strides": [2, 2], "padding": "valid", "data_format": "channels_last", "dilation_rate": [1, 1], "activation": "linear", "use_bias": false, "bias_initializer": {"class_name": "Zeros", "config": {}}, "bias_regularizer": null, "activity_regularizer": null, "bias_constraint": null, "depth_multiplier": 1, "depthwise_initializer": {"class_name": "VarianceScaling", "config": {"scale": 1.0, "mode": "fan_avg", "distribution": "uniform", "seed": null}}, "pointwise_initializer": {"class_name": "VarianceScaling", "config": {"scale": 1.0, "mode": "fan_avg", "distribution": "uniform", "seed": null}}, "depthwise_regularizer": null, "pointwise_regularizer": null, "depthwise_constraint": null, "pointwise_constraint": null}, "inbound_nodes": [[["separable_conv_1_pad_reduction_left1_stem_1", 0, 0, {}]]]}, {"name": "separable_conv_1_reduction_right1_stem_1", "class_name": "SeparableConv2D", "config": {"name": "separable_conv_1_reduction_right1_stem_1", "trainable": false, "filters": 11, "kernel_size": [7, 7], "strides": [2, 2], "padding": "valid", "data_format": "channels_last", "dilation_rate": [1, 1], "activation": "linear", "use_bias": false, "bias_initializer": {"class_name": "Zeros", "config": {}}, "bias_regularizer": null, "activity_regularizer": null, "bias_constraint": null, "depth_multiplier": 1, "depthwise_initializer": {"class_name": "VarianceScaling", "config": {"scale": 1.0, "mode": "fan_avg", "distribution": "uniform", "seed": null}}, "pointwise_initializer": {"class_name": "VarianceScaling", "config": {"scale": 1.0, "mode": "fan_avg", "distribution": "uniform", "seed": null}}, "depthwise_regularizer": null, "pointwise_regularizer": null, "depthwise_constraint": null, "pointwise_constraint": null}, "inbound_nodes": [[["separable_conv_1_pad_reduction_right1_stem_1", 0, 0, {}]]]}, {"name": "separable_conv_1_bn_reduction_left1_stem_1", "class_name": "BatchNormalization", "config": {"name": "separable_conv_1_bn_reduction_left1_stem_1", "trainable": false, "axis": -1, "momentum": 0.9997, "epsilon": 0.001, "center": true, "scale": true, "beta_initializer": {"class_name": "Zeros", "config": {}}, "gamma_initializer": {"class_name": "Ones", "config": {}}, "moving_mean_initializer": {"class_name": "Zeros", "config": {}}, "moving_variance_initializer": {"class_name": "Ones", "config": {}}, "beta_regularizer": null, "gamma_regularizer": null, "beta_constraint": null, "gamma_constraint": null}, "inbound_nodes": [[["separable_conv_1_reduction_left1_stem_1", 0, 0, {}]]]}, {"name": "separable_conv_1_bn_reduction_right1_stem_1", "class_name": "BatchNormalization", "config": {"name": "separable_conv_1_bn_reduction_right1_stem_1", "trainable": false, "axis": -1, "momentum": 0.9997, "epsilon": 0.001, "center": true, "scale": true, "beta_initializer": {"class_name": "Zeros", "config": {}}, "gamma_initializer": {"class_name": "Ones", "config": {}}, "moving_mean_initializer": {"class_name": "Zeros", "config": {}}, "moving_variance_initializer": {"class_name": "Ones", "config": {}}, "beta_regularizer": null, "gamma_regularizer": null, "beta_constraint": null, "gamma_constraint": null}, "inbound_nodes": [[["separable_conv_1_reduction_right1_stem_1", 0, 0, {}]]]}, {"name": "activation_300", "class_name": "Activation", "config": {"name": "activation_300", "trainable": false, "activation": "relu"}, "inbound_nodes": [[["separable_conv_1_bn_reduction_left1_stem_1", 0, 0, {}]]]}, {"name": "activation_302", "class_name": "Activation", "config": {"name": "activation_302", "trainable": false, "activation": "relu"}, "inbound_nodes": [[["separable_conv_1_bn_reduction_right1_stem_1", 0, 0, {}]]]}, {"name": "separable_conv_2_reduction_left1_stem_1", "class_name": "SeparableConv2D", "config": {"name": "separable_conv_2_reduction_left1_stem_1", "trainable": false, "filters": 11, "kernel_size": [5, 5], "strides": [1, 1], "padding": "same", "data_format": "channels_last", "dilation_rate": [1, 1], "activation": "linear", "use_bias": false, "bias_initializer": {"class_name": "Zeros", "config": {}}, "bias_regularizer": null, "activity_regularizer": null, "bias_constraint": null, "depth_multiplier": 1, "depthwise_initializer": {"class_name": "VarianceScaling", "config": {"scale": 1.0, "mode": "fan_avg", "distribution": "uniform", "seed": null}}, "pointwise_initializer": {"class_name": "VarianceScaling", "config": {"scale": 1.0, "mode": "fan_avg", "distribution": "uniform", "seed": null}}, "depthwise_regularizer": null, "pointwise_regularizer": null, "depthwise_constraint": null, "pointwise_constraint": null}, "inbound_nodes": [[["activation_300", 0, 0, {}]]]}, {"name": "separable_conv_2_reduction_right1_stem_1", "class_name": "SeparableConv2D", "config": {"name": "separable_conv_2_reduction_right1_stem_1", "trainable": false, "filters": 11, "kernel_size": [7, 7], "strides": [1, 1], "padding": "same", "data_format": "channels_last", "dilation_rate": [1, 1], "activation": "linear", "use_bias": false, "bias_initializer": {"class_name": "Zeros", "config": {}}, "bias_regularizer": null, "activity_regularizer": null, "bias_constraint": null, "depth_multiplier": 1, "depthwise_initializer": {"class_name": "VarianceScaling", "config": {"scale": 1.0, "mode": "fan_avg", "distribution": "uniform", "seed": null}}, "pointwise_initializer": {"class_name": "VarianceScaling", "config": {"scale": 1.0, "mode": "fan_avg", "distribution": "uniform", "seed": null}}, "depthwise_regularizer": null, "pointwise_regularizer": null, "depthwise_constraint": null, "pointwise_constraint": null}, "inbound_nodes": [[["activation_302", 0, 0, {}]]]}, {"name": "activation_303", "class_name": "Activation", "config": {"name": "activation_303", "trainable": false, "activation": "relu"}, "inbound_nodes": [[["stem_bn1", 0, 0, {}]]]}, {"name": "separable_conv_2_bn_reduction_left1_stem_1", "class_name": "BatchNormalization", "config": {"name": "separable_conv_2_bn_reduction_left1_stem_1", "trainable": false, "axis": -1, "momentum": 0.9997, "epsilon": 0.001, "center": true, "scale": true, "beta_initializer": {"class_name": "Zeros", "config": {}}, "gamma_initializer": {"class_name": "Ones", "config": {}}, "moving_mean_initializer": {"class_name": "Zeros", "config": {}}, "moving_variance_initializer": {"class_name": "Ones", "config": {}}, "beta_regularizer": null, "gamma_regularizer": null, "beta_constraint": null, "gamma_constraint": null}, "inbound_nodes": [[["separable_conv_2_reduction_left1_stem_1", 0, 0, {}]]]}, {"name": "separable_conv_2_bn_reduction_right1_stem_1", "class_name": "BatchNormalization", "config": {"name": "separable_conv_2_bn_reduction_right1_stem_1", "trainable": false, "axis": -1, "momentum": 0.9997, "epsilon": 0.001, "center": true, "scale": true, "beta_initializer": {"class_name": "Zeros", "config": {}}, "gamma_initializer": {"class_name": "Ones", "config": {}}, "moving_mean_initializer": {"class_name": "Zeros", "config": {}}, "moving_variance_initializer": {"class_name": "Ones", "config": {}}, "beta_regularizer": null, "gamma_regularizer": null, "beta_constraint": null, "gamma_constraint": null}, "inbound_nodes": [[["separable_conv_2_reduction_right1_stem_1", 0, 0, {}]]]}, {"name": "separable_conv_1_pad_reduction_right2_stem_1", "class_name": "ZeroPadding2D", "config": {"name": "separable_conv_1_pad_reduction_right2_stem_1", "trainable": false, "padding": [[3, 3], [3, 3]], "data_format": "channels_last"}, "inbound_nodes": [[["activation_303", 0, 0, {}]]]}, {"name": "activation_305", "class_name": "Activation", "config": {"name": "activation_305", "trainable": false, "activation": "relu"}, "inbound_nodes": [[["stem_bn1", 0, 0, {}]]]}, {"name": "reduction_add_1_stem_1", "class_name": "Add", "config": {"name": "reduction_add_1_stem_1", "trainable": false}, "inbound_nodes": [[["separable_conv_2_bn_reduction_left1_stem_1", 0, 0, {}], ["separable_conv_2_bn_reduction_right1_stem_1", 0, 0, {}]]]}, {"name": "separable_conv_1_reduction_right2_stem_1", "class_name": "SeparableConv2D", "config": {"name": "separable_conv_1_reduction_right2_stem_1", "trainable": false, "filters": 11, "kernel_size": [7, 7], "strides": [2, 2], "padding": "valid", "data_format": "channels_last", "dilation_rate": [1, 1], "activation": "linear", "use_bias": false, "bias_initializer": {"class_name": "Zeros", "config": {}}, "bias_regularizer": null, "activity_regularizer": null, "bias_constraint": null, "depth_multiplier": 1, "depthwise_initializer": {"class_name": "VarianceScaling", "config": {"scale": 1.0, "mode": "fan_avg", "distribution": "uniform", "seed": null}}, "pointwise_initializer": {"class_name": "VarianceScaling", "config": {"scale": 1.0, "mode": "fan_avg", "distribution": "uniform", "seed": null}}, "depthwise_regularizer": null, "pointwise_regularizer": null, "depthwise_constraint": null, "pointwise_constraint": null}, "inbound_nodes": [[["separable_conv_1_pad_reduction_right2_stem_1", 0, 0, {}]]]}, {"name": "separable_conv_1_pad_reduction_right3_stem_1", "class_name": "ZeroPadding2D", "config": {"name": "separable_conv_1_pad_reduction_right3_stem_1", "trainable": false, "padding": [[2, 2], [2, 2]], "data_format": "channels_last"}, "inbound_nodes": [[["activation_305", 0, 0, {}]]]}, {"name": "activation_307", "class_name": "Activation", "config": {"name": "activation_307", "trainable": false, "activation": "relu"}, "inbound_nodes": [[["reduction_add_1_stem_1", 0, 0, {}]]]}, {"name": "separable_conv_1_bn_reduction_right2_stem_1", "class_name": "BatchNormalization", "config": {"name": "separable_conv_1_bn_reduction_right2_stem_1", "trainable": false, "axis": -1, "momentum": 0.9997, "epsilon": 0.001, "center": true, "scale": true, "beta_initializer": {"class_name": "Zeros", "config": {}}, "gamma_initializer": {"class_name": "Ones", "config": {}}, "moving_mean_initializer": {"class_name": "Zeros", "config": {}}, "moving_variance_initializer": {"class_name": "Ones", "config": {}}, "beta_regularizer": null, "gamma_regularizer": null, "beta_constraint": null, "gamma_constraint": null}, "inbound_nodes": [[["separable_conv_1_reduction_right2_stem_1", 0, 0, {}]]]}, {"name": "separable_conv_1_reduction_right3_stem_1", "class_name": "SeparableConv2D", "config": {"name": "separable_conv_1_reduction_right3_stem_1", "trainable": false, "filters": 11, "kernel_size": [5, 5], "strides": [2, 2], "padding": "valid", "data_format": "channels_last", "dilation_rate": [1, 1], "activation": "linear", "use_bias": false, "bias_initializer": {"class_name": "Zeros", "config": {}}, "bias_regularizer": null, "activity_regularizer": null, "bias_constraint": null, "depth_multiplier": 1, "depthwise_initializer": {"class_name": "VarianceScaling", "config": {"scale": 1.0, "mode": "fan_avg", "distribution": "uniform", "seed": null}}, "pointwise_initializer": {"class_name": "VarianceScaling", "config": {"scale": 1.0, "mode": "fan_avg", "distribution": "uniform", "seed": null}}, "depthwise_regularizer": null, "pointwise_regularizer": null, "depthwise_constraint": null, "pointwise_constraint": null}, "inbound_nodes": [[["separable_conv_1_pad_reduction_right3_stem_1", 0, 0, {}]]]}, {"name": "separable_conv_1_reduction_left4_stem_1", "class_name": "SeparableConv2D", "config": {"name": "separable_conv_1_reduction_left4_stem_1", "trainable": false, "filters": 11, "kernel_size": [3, 3], "strides": [1, 1], "padding": "same", "data_format": "channels_last", "dilation_rate": [1, 1], "activation": "linear", "use_bias": false, "bias_initializer": {"class_name": "Zeros", "config": {}}, "bias_regularizer": null, "activity_regularizer": null, "bias_constraint": null, "depth_multiplier": 1, "depthwise_initializer": {"class_name": "VarianceScaling", "config": {"scale": 1.0, "mode": "fan_avg", "distribution": "uniform", "seed": null}}, "pointwise_initializer": {"class_name": "VarianceScaling", "config": {"scale": 1.0, "mode": "fan_avg", "distribution": "uniform", "seed": null}}, "depthwise_regularizer": null, "pointwise_regularizer": null, "depthwise_constraint": null, "pointwise_constraint": null}, "inbound_nodes": [[["activation_307", 0, 0, {}]]]}, {"name": "activation_304", "class_name": "Activation", "config": {"name": "activation_304", "trainable": false, "activation": "relu"}, "inbound_nodes": [[["separable_conv_1_bn_reduction_right2_stem_1", 0, 0, {}]]]}, {"name": "separable_conv_1_bn_reduction_right3_stem_1", "class_name": "BatchNormalization", "config": {"name": "separable_conv_1_bn_reduction_right3_stem_1", "trainable": false, "axis": -1, "momentum": 0.9997, "epsilon": 0.001, "center": true, "scale": true, "beta_initializer": {"class_name": "Zeros", "config": {}}, "gamma_initializer": {"class_name": "Ones", "config": {}}, "moving_mean_initializer": {"class_name": "Zeros", "config": {}}, "moving_variance_initializer": {"class_name": "Ones", "config": {}}, "beta_regularizer": null, "gamma_regularizer": null, "beta_constraint": null, "gamma_constraint": null}, "inbound_nodes": [[["separable_conv_1_reduction_right3_stem_1", 0, 0, {}]]]}, {"name": "separable_conv_1_bn_reduction_left4_stem_1", "class_name": "BatchNormalization", "config": {"name": "separable_conv_1_bn_reduction_left4_stem_1", "trainable": false, "axis": -1, "momentum": 0.9997, "epsilon": 0.001, "center": true, "scale": true, "beta_initializer": {"class_name": "Zeros", "config": {}}, "gamma_initializer": {"class_name": "Ones", "config": {}}, "moving_mean_initializer": {"class_name": "Zeros", "config": {}}, "moving_variance_initializer": {"class_name": "Ones", "config": {}}, "beta_regularizer": null, "gamma_regularizer": null, "beta_constraint": null, "gamma_constraint": null}, "inbound_nodes": [[["separable_conv_1_reduction_left4_stem_1", 0, 0, {}]]]}, {"name": "reduction_pad_1_stem_1", "class_name": "ZeroPadding2D", "config": {"name": "reduction_pad_1_stem_1", "trainable": false, "padding": [[1, 1], [1, 1]], "data_format": "channels_last"}, "inbound_nodes": [[["reduction_bn_1_stem_1", 0, 0, {}]]]}, {"name": "separable_conv_2_reduction_right2_stem_1", "class_name": "SeparableConv2D", "config": {"name": "separable_conv_2_reduction_right2_stem_1", "trainable": false, "filters": 11, "kernel_size": [7, 7], "strides": [1, 1], "padding": "same", "data_format": "channels_last", "dilation_rate": [1, 1], "activation": "linear", "use_bias": false, "bias_initializer": {"class_name": "Zeros", "config": {}}, "bias_regularizer": null, "activity_regularizer": null, "bias_constraint": null, "depth_multiplier": 1, "depthwise_initializer": {"class_name": "VarianceScaling", "config": {"scale": 1.0, "mode": "fan_avg", "distribution": "uniform", "seed": null}}, "pointwise_initializer": {"class_name": "VarianceScaling", "config": {"scale": 1.0, "mode": "fan_avg", "distribution": "uniform", "seed": null}}, "depthwise_regularizer": null, "pointwise_regularizer": null, "depthwise_constraint": null, "pointwise_constraint": null}, "inbound_nodes": [[["activation_304", 0, 0, {}]]]}, {"name": "activation_306", "class_name": "Activation", "config": {"name": "activation_306", "trainable": false, "activation": "relu"}, "inbound_nodes": [[["separable_conv_1_bn_reduction_right3_stem_1", 0, 0, {}]]]}, {"name": "activation_308", "class_name": "Activation", "config": {"name": "activation_308", "trainable": false, "activation": "relu"}, "inbound_nodes": [[["separable_conv_1_bn_reduction_left4_stem_1", 0, 0, {}]]]}, {"name": "reduction_left2_stem_1", "class_name": "MaxPooling2D", "config": {"name": "reduction_left2_stem_1", "trainable": false, "pool_size": [3, 3], "padding": "valid", "strides": [2, 2], "data_format": "channels_last"}, "inbound_nodes": [[["reduction_pad_1_stem_1", 0, 0, {}]]]}, {"name": "separable_conv_2_bn_reduction_right2_stem_1", "class_name": "BatchNormalization", "config": {"name": "separable_conv_2_bn_reduction_right2_stem_1", "trainable": false, "axis": -1, "momentum": 0.9997, "epsilon": 0.001, "center": true, "scale": true, "beta_initializer": {"class_name": "Zeros", "config": {}}, "gamma_initializer": {"class_name": "Ones", "config": {}}, "moving_mean_initializer": {"class_name": "Zeros", "config": {}}, "moving_variance_initializer": {"class_name": "Ones", "config": {}}, "beta_regularizer": null, "gamma_regularizer": null, "beta_constraint": null, "gamma_constraint": null}, "inbound_nodes": [[["separable_conv_2_reduction_right2_stem_1", 0, 0, {}]]]}, {"name": "separable_conv_2_reduction_right3_stem_1", "class_name": "SeparableConv2D", "config": {"name": "separable_conv_2_reduction_right3_stem_1", "trainable": false, "filters": 11, "kernel_size": [5, 5], "strides": [1, 1], "padding": "same", "data_format": "channels_last", "dilation_rate": [1, 1], "activation": "linear", "use_bias": false, "bias_initializer": {"class_name": "Zeros", "config": {}}, "bias_regularizer": null, "activity_regularizer": null, "bias_constraint": null, "depth_multiplier": 1, "depthwise_initializer": {"class_name": "VarianceScaling", "config": {"scale": 1.0, "mode": "fan_avg", "distribution": "uniform", "seed": null}}, "pointwise_initializer": {"class_name": "VarianceScaling", "config": {"scale": 1.0, "mode": "fan_avg", "distribution": "uniform", "seed": null}}, "depthwise_regularizer": null, "pointwise_regularizer": null, "depthwise_constraint": null, "pointwise_constraint": null}, "inbound_nodes": [[["activation_306", 0, 0, {}]]]}, {"name": "separable_conv_2_reduction_left4_stem_1", "class_name": "SeparableConv2D", "config": {"name": "separable_conv_2_reduction_left4_stem_1", "trainable": false, "filters": 11, "kernel_size": [3, 3], "strides": [1, 1], "padding": "same", "data_format": "channels_last", "dilation_rate": [1, 1], "activation": "linear", "use_bias": false, "bias_initializer": {"class_name": "Zeros", "config": {}}, "bias_regularizer": null, "activity_regularizer": null, "bias_constraint": null, "depth_multiplier": 1, "depthwise_initializer": {"class_name": "VarianceScaling", "config": {"scale": 1.0, "mode": "fan_avg", "distribution": "uniform", "seed": null}}, "pointwise_initializer": {"class_name": "VarianceScaling", "config": {"scale": 1.0, "mode": "fan_avg", "distribution": "uniform", "seed": null}}, "depthwise_regularizer": null, "pointwise_regularizer": null, "depthwise_constraint": null, "pointwise_constraint": null}, "inbound_nodes": [[["activation_308", 0, 0, {}]]]}, {"name": "adjust_relu_1_stem_2", "class_name": "Activation", "config": {"name": "adjust_relu_1_stem_2", "trainable": false, "activation": "relu"}, "inbound_nodes": [[["stem_bn1", 0, 0, {}]]]}, {"name": "reduction_add_2_stem_1", "class_name": "Add", "config": {"name": "reduction_add_2_stem_1", "trainable": false}, "inbound_nodes": [[["reduction_left2_stem_1", 0, 0, {}], ["separable_conv_2_bn_reduction_right2_stem_1", 0, 0, {}]]]}, {"name": "reduction_left3_stem_1", "class_name": "AveragePooling2D", "config": {"name": "reduction_left3_stem_1", "trainable": false, "pool_size": [3, 3], "padding": "valid", "strides": [2, 2], "data_format": "channels_last"}, "inbound_nodes": [[["reduction_pad_1_stem_1", 0, 0, {}]]]}, {"name": "separable_conv_2_bn_reduction_right3_stem_1", "class_name": "BatchNormalization", "config": {"name": "separable_conv_2_bn_reduction_right3_stem_1", "trainable": false, "axis": -1, "momentum": 0.9997, "epsilon": 0.001, "center": true, "scale": true, "beta_initializer": {"class_name": "Zeros", "config": {}}, "gamma_initializer": {"class_name": "Ones", "config": {}}, "moving_mean_initializer": {"class_name": "Zeros", "config": {}}, "moving_variance_initializer": {"class_name": "Ones", "config": {}}, "beta_regularizer": null, "gamma_regularizer": null, "beta_constraint": null, "gamma_constraint": null}, "inbound_nodes": [[["separable_conv_2_reduction_right3_stem_1", 0, 0, {}]]]}, {"name": "reduction_left4_stem_1", "class_name": "AveragePooling2D", "config": {"name": "reduction_left4_stem_1", "trainable": false, "pool_size": [3, 3], "padding": "same", "strides": [1, 1], "data_format": "channels_last"}, "inbound_nodes": [[["reduction_add_1_stem_1", 0, 0, {}]]]}, {"name": "separable_conv_2_bn_reduction_left4_stem_1", "class_name": "BatchNormalization", "config": {"name": "separable_conv_2_bn_reduction_left4_stem_1", "trainable": false, "axis": -1, "momentum": 0.9997, "epsilon": 0.001, "center": true, "scale": true, "beta_initializer": {"class_name": "Zeros", "config": {}}, "gamma_initializer": {"class_name": "Ones", "config": {}}, "moving_mean_initializer": {"class_name": "Zeros", "config": {}}, "moving_variance_initializer": {"class_name": "Ones", "config": {}}, "beta_regularizer": null, "gamma_regularizer": null, "beta_constraint": null, "gamma_constraint": null}, "inbound_nodes": [[["separable_conv_2_reduction_left4_stem_1", 0, 0, {}]]]}, {"name": "reduction_right5_stem_1", "class_name": "MaxPooling2D", "config": {"name": "reduction_right5_stem_1", "trainable": false, "pool_size": [3, 3], "padding": "valid", "strides": [2, 2], "data_format": "channels_last"}, "inbound_nodes": [[["reduction_pad_1_stem_1", 0, 0, {}]]]}, {"name": "zero_padding2d_15", "class_name": "ZeroPadding2D", "config": {"name": "zero_padding2d_15", "trainable": false, "padding": [[0, 1], [0, 1]], "data_format": "channels_last"}, "inbound_nodes": [[["adjust_relu_1_stem_2", 0, 0, {}]]]}, {"name": "reduction_add3_stem_1", "class_name": "Add", "config": {"name": "reduction_add3_stem_1", "trainable": false}, "inbound_nodes": [[["reduction_left3_stem_1", 0, 0, {}], ["separable_conv_2_bn_reduction_right3_stem_1", 0, 0, {}]]]}, {"name": "add_1", "class_name": "Add", "config": {"name": "add_1", "trainable": false}, "inbound_nodes": [[["reduction_add_2_stem_1", 0, 0, {}], ["reduction_left4_stem_1", 0, 0, {}]]]}, {"name": "reduction_add4_stem_1", "class_name": "Add", "config": {"name": "reduction_add4_stem_1", "trainable": false}, "inbound_nodes": [[["separable_conv_2_bn_reduction_left4_stem_1", 0, 0, {}], ["reduction_right5_stem_1", 0, 0, {}]]]}, {"name": "cropping2d_1", "class_name": "Cropping2D", "config": {"name": "cropping2d_1", "trainable": false, "cropping": [[1, 0], [1, 0]], "data_format": "channels_last"}, "inbound_nodes": [[["zero_padding2d_15", 0, 0, {}]]]}, {"name": "reduction_concat_stem_1", "class_name": "Concatenate", "config": {"name": "reduction_concat_stem_1", "trainable": false, "axis": -1}, "inbound_nodes": [[["reduction_add_2_stem_1", 0, 0, {}], ["reduction_add3_stem_1", 0, 0, {}], ["add_1", 0, 0, {}], ["reduction_add4_stem_1", 0, 0, {}]]]}, {"name": "adjust_avg_pool_1_stem_2", "class_name": "AveragePooling2D", "config": {"name": "adjust_avg_pool_1_stem_2", "trainable": false, "pool_size": [1, 1], "padding": "valid", "strides": [2, 2], "data_format": "channels_last"}, "inbound_nodes": [[["adjust_relu_1_stem_2", 0, 0, {}]]]}, {"name": "adjust_avg_pool_2_stem_2", "class_name": "AveragePooling2D", "config": {"name": "adjust_avg_pool_2_stem_2", "trainable": false, "pool_size": [1, 1], "padding": "valid", "strides": [2, 2], "data_format": "channels_last"}, "inbound_nodes": [[["cropping2d_1", 0, 0, {}]]]}, {"name": "activation_309", "class_name": "Activation", "config": {"name": "activation_309", "trainable": false, "activation": "relu"}, "inbound_nodes": [[["reduction_concat_stem_1", 0, 0, {}]]]}, {"name": "adjust_conv_1_stem_2", "class_name": "Conv2D", "config": {"name": "adjust_conv_1_stem_2", "trainable": false, "filters": 11, "kernel_size": [1, 1], "strides": [1, 1], "padding": "same", "data_format": "channels_last", "dilation_rate": [1, 1], "activation": "linear", "use_bias": false, "kernel_initializer": {"class_name": "VarianceScaling", "config": {"scale": 2.0, "mode": "fan_in", "distribution": "normal", "seed": null}}, "bias_initializer": {"class_name": "Zeros", "config": {}}, "kernel_regularizer": null, "bias_regularizer": null, "activity_regularizer": null, "kernel_constraint": null, "bias_constraint": null}, "inbound_nodes": [[["adjust_avg_pool_1_stem_2", 0, 0, {}]]]}, {"name": "adjust_conv_2_stem_2", "class_name": "Conv2D", "config": {"name": "adjust_conv_2_stem_2", "trainable": false, "filters": 11, "kernel_size": [1, 1], "strides": [1, 1], "padding": "same", "data_format": "channels_last", "dilation_rate": [1, 1], "activation": "linear", "use_bias": false, "kernel_initializer": {"class_name": "VarianceScaling", "config": {"scale": 2.0, "mode": "fan_in", "distribution": "normal", "seed": null}}, "bias_initializer": {"class_name": "Zeros", "config": {}}, "kernel_regularizer": null, "bias_regularizer": null, "activity_regularizer": null, "kernel_constraint": null, "bias_constraint": null}, "inbound_nodes": [[["adjust_avg_pool_2_stem_2", 0, 0, {}]]]}, {"name": "reduction_conv_1_stem_2", "class_name": "Conv2D", "config": {"name": "reduction_conv_1_stem_2", "trainable": false, "filters": 22, "kernel_size": [1, 1], "strides": [1, 1], "padding": "same", "data_format": "channels_last", "dilation_rate": [1, 1], "activation": "linear", "use_bias": false, "kernel_initializer": {"class_name": "VarianceScaling", "config": {"scale": 2.0, "mode": "fan_in", "distribution": "normal", "seed": null}}, "bias_initializer": {"class_name": "Zeros", "config": {}}, "kernel_regularizer": null, "bias_regularizer": null, "activity_regularizer": null, "kernel_constraint": null, "bias_constraint": null}, "inbound_nodes": [[["activation_309", 0, 0, {}]]]}, {"name": "concatenate_3", "class_name": "Concatenate", "config": {"name": "concatenate_3", "trainable": false, "axis": -1}, "inbound_nodes": [[["adjust_conv_1_stem_2", 0, 0, {}], ["adjust_conv_2_stem_2", 0, 0, {}]]]}, {"name": "reduction_bn_1_stem_2", "class_name": "BatchNormalization", "config": {"name": "reduction_bn_1_stem_2", "trainable": false, "axis": -1, "momentum": 0.9997, "epsilon": 0.001, "center": true, "scale": true, "beta_initializer": {"class_name": "Zeros", "config": {}}, "gamma_initializer": {"class_name": "Ones", "config": {}}, "moving_mean_initializer": {"class_name": "Zeros", "config": {}}, "moving_variance_initializer": {"class_name": "Ones", "config": {}}, "beta_regularizer": null, "gamma_regularizer": null, "beta_constraint": null, "gamma_constraint": null}, "inbound_nodes": [[["reduction_conv_1_stem_2", 0, 0, {}]]]}, {"name": "adjust_bn_stem_2", "class_name": "BatchNormalization", "config": {"name": "adjust_bn_stem_2", "trainable": false, "axis": -1, "momentum": 0.9997, "epsilon": 0.001, "center": true, "scale": true, "beta_initializer": {"class_name": "Zeros", "config": {}}, "gamma_initializer": {"class_name": "Ones", "config": {}}, "moving_mean_initializer": {"class_name": "Zeros", "config": {}}, "moving_variance_initializer": {"class_name": "Ones", "config": {}}, "beta_regularizer": null, "gamma_regularizer": null, "beta_constraint": null, "gamma_constraint": null}, "inbound_nodes": [[["concatenate_3", 0, 0, {}]]]}, {"name": "activation_310", "class_name": "Activation", "config": {"name": "activation_310", "trainable": false, "activation": "relu"}, "inbound_nodes": [[["reduction_bn_1_stem_2", 0, 0, {}]]]}, {"name": "activation_312", "class_name": "Activation", "config": {"name": "activation_312", "trainable": false, "activation": "relu"}, "inbound_nodes": [[["adjust_bn_stem_2", 0, 0, {}]]]}, {"name": "separable_conv_1_pad_reduction_left1_stem_2", "class_name": "ZeroPadding2D", "config": {"name": "separable_conv_1_pad_reduction_left1_stem_2", "trainable": false, "padding": [[1, 2], [1, 2]], "data_format": "channels_last"}, "inbound_nodes": [[["activation_310", 0, 0, {}]]]}, {"name": "separable_conv_1_pad_reduction_right1_stem_2", "class_name": "ZeroPadding2D", "config": {"name": "separable_conv_1_pad_reduction_right1_stem_2", "trainable": false, "padding": [[2, 3], [2, 3]], "data_format": "channels_last"}, "inbound_nodes": [[["activation_312", 0, 0, {}]]]}, {"name": "separable_conv_1_reduction_left1_stem_2", "class_name": "SeparableConv2D", "config": {"name": "separable_conv_1_reduction_left1_stem_2", "trainable": false, "filters": 22, "kernel_size": [5, 5], "strides": [2, 2], "padding": "valid", "data_format": "channels_last", "dilation_rate": [1, 1], "activation": "linear", "use_bias": false, "bias_initializer": {"class_name": "Zeros", "config": {}}, "bias_regularizer": null, "activity_regularizer": null, "bias_constraint": null, "depth_multiplier": 1, "depthwise_initializer": {"class_name": "VarianceScaling", "config": {"scale": 1.0, "mode": "fan_avg", "distribution": "uniform", "seed": null}}, "pointwise_initializer": {"class_name": "VarianceScaling", "config": {"scale": 1.0, "mode": "fan_avg", "distribution": "uniform", "seed": null}}, "depthwise_regularizer": null, "pointwise_regularizer": null, "depthwise_constraint": null, "pointwise_constraint": null}, "inbound_nodes": [[["separable_conv_1_pad_reduction_left1_stem_2", 0, 0, {}]]]}, {"name": "separable_conv_1_reduction_right1_stem_2", "class_name": "SeparableConv2D", "config": {"name": "separable_conv_1_reduction_right1_stem_2", "trainable": false, "filters": 22, "kernel_size": [7, 7], "strides": [2, 2], "padding": "valid", "data_format": "channels_last", "dilation_rate": [1, 1], "activation": "linear", "use_bias": false, "bias_initializer": {"class_name": "Zeros", "config": {}}, "bias_regularizer": null, "activity_regularizer": null, "bias_constraint": null, "depth_multiplier": 1, "depthwise_initializer": {"class_name": "VarianceScaling", "config": {"scale": 1.0, "mode": "fan_avg", "distribution": "uniform", "seed": null}}, "pointwise_initializer": {"class_name": "VarianceScaling", "config": {"scale": 1.0, "mode": "fan_avg", "distribution": "uniform", "seed": null}}, "depthwise_regularizer": null, "pointwise_regularizer": null, "depthwise_constraint": null, "pointwise_constraint": null}, "inbound_nodes": [[["separable_conv_1_pad_reduction_right1_stem_2", 0, 0, {}]]]}, {"name": "separable_conv_1_bn_reduction_left1_stem_2", "class_name": "BatchNormalization", "config": {"name": "separable_conv_1_bn_reduction_left1_stem_2", "trainable": false, "axis": -1, "momentum": 0.9997, "epsilon": 0.001, "center": true, "scale": true, "beta_initializer": {"class_name": "Zeros", "config": {}}, "gamma_initializer": {"class_name": "Ones", "config": {}}, "moving_mean_initializer": {"class_name": "Zeros", "config": {}}, "moving_variance_initializer": {"class_name": "Ones", "config": {}}, "beta_regularizer": null, "gamma_regularizer": null, "beta_constraint": null, "gamma_constraint": null}, "inbound_nodes": [[["separable_conv_1_reduction_left1_stem_2", 0, 0, {}]]]}, {"name": "separable_conv_1_bn_reduction_right1_stem_2", "class_name": "BatchNormalization", "config": {"name": "separable_conv_1_bn_reduction_right1_stem_2", "trainable": false, "axis": -1, "momentum": 0.9997, "epsilon": 0.001, "center": true, "scale": true, "beta_initializer": {"class_name": "Zeros", "config": {}}, "gamma_initializer": {"class_name": "Ones", "config": {}}, "moving_mean_initializer": {"class_name": "Zeros", "config": {}}, "moving_variance_initializer": {"class_name": "Ones", "config": {}}, "beta_regularizer": null, "gamma_regularizer": null, "beta_constraint": null, "gamma_constraint": null}, "inbound_nodes": [[["separable_conv_1_reduction_right1_stem_2", 0, 0, {}]]]}, {"name": "activation_311", "class_name": "Activation", "config": {"name": "activation_311", "trainable": false, "activation": "relu"}, "inbound_nodes": [[["separable_conv_1_bn_reduction_left1_stem_2", 0, 0, {}]]]}, {"name": "activation_313", "class_name": "Activation", "config": {"name": "activation_313", "trainable": false, "activation": "relu"}, "inbound_nodes": [[["separable_conv_1_bn_reduction_right1_stem_2", 0, 0, {}]]]}, {"name": "separable_conv_2_reduction_left1_stem_2", "class_name": "SeparableConv2D", "config": {"name": "separable_conv_2_reduction_left1_stem_2", "trainable": false, "filters": 22, "kernel_size": [5, 5], "strides": [1, 1], "padding": "same", "data_format": "channels_last", "dilation_rate": [1, 1], "activation": "linear", "use_bias": false, "bias_initializer": {"class_name": "Zeros", "config": {}}, "bias_regularizer": null, "activity_regularizer": null, "bias_constraint": null, "depth_multiplier": 1, "depthwise_initializer": {"class_name": "VarianceScaling", "config": {"scale": 1.0, "mode": "fan_avg", "distribution": "uniform", "seed": null}}, "pointwise_initializer": {"class_name": "VarianceScaling", "config": {"scale": 1.0, "mode": "fan_avg", "distribution": "uniform", "seed": null}}, "depthwise_regularizer": null, "pointwise_regularizer": null, "depthwise_constraint": null, "pointwise_constraint": null}, "inbound_nodes": [[["activation_311", 0, 0, {}]]]}, {"name": "separable_conv_2_reduction_right1_stem_2", "class_name": "SeparableConv2D", "config": {"name": "separable_conv_2_reduction_right1_stem_2", "trainable": false, "filters": 22, "kernel_size": [7, 7], "strides": [1, 1], "padding": "same", "data_format": "channels_last", "dilation_rate": [1, 1], "activation": "linear", "use_bias": false, "bias_initializer": {"class_name": "Zeros", "config": {}}, "bias_regularizer": null, "activity_regularizer": null, "bias_constraint": null, "depth_multiplier": 1, "depthwise_initializer": {"class_name": "VarianceScaling", "config": {"scale": 1.0, "mode": "fan_avg", "distribution": "uniform", "seed": null}}, "pointwise_initializer": {"class_name": "VarianceScaling", "config": {"scale": 1.0, "mode": "fan_avg", "distribution": "uniform", "seed": null}}, "depthwise_regularizer": null, "pointwise_regularizer": null, "depthwise_constraint": null, "pointwise_constraint": null}, "inbound_nodes": [[["activation_313", 0, 0, {}]]]}, {"name": "activation_314", "class_name": "Activation", "config": {"name": "activation_314", "trainable": false, "activation": "relu"}, "inbound_nodes": [[["adjust_bn_stem_2", 0, 0, {}]]]}, {"name": "separable_conv_2_bn_reduction_left1_stem_2", "class_name": "BatchNormalization", "config": {"name": "separable_conv_2_bn_reduction_left1_stem_2", "trainable": false, "axis": -1, "momentum": 0.9997, "epsilon": 0.001, "center": true, "scale": true, "beta_initializer": {"class_name": "Zeros", "config": {}}, "gamma_initializer": {"class_name": "Ones", "config": {}}, "moving_mean_initializer": {"class_name": "Zeros", "config": {}}, "moving_variance_initializer": {"class_name": "Ones", "config": {}}, "beta_regularizer": null, "gamma_regularizer": null, "beta_constraint": null, "gamma_constraint": null}, "inbound_nodes": [[["separable_conv_2_reduction_left1_stem_2", 0, 0, {}]]]}, {"name": "separable_conv_2_bn_reduction_right1_stem_2", "class_name": "BatchNormalization", "config": {"name": "separable_conv_2_bn_reduction_right1_stem_2", "trainable": false, "axis": -1, "momentum": 0.9997, "epsilon": 0.001, "center": true, "scale": true, "beta_initializer": {"class_name": "Zeros", "config": {}}, "gamma_initializer": {"class_name": "Ones", "config": {}}, "moving_mean_initializer": {"class_name": "Zeros", "config": {}}, "moving_variance_initializer": {"class_name": "Ones", "config": {}}, "beta_regularizer": null, "gamma_regularizer": null, "beta_constraint": null, "gamma_constraint": null}, "inbound_nodes": [[["separable_conv_2_reduction_right1_stem_2", 0, 0, {}]]]}, {"name": "separable_conv_1_pad_reduction_right2_stem_2", "class_name": "ZeroPadding2D", "config": {"name": "separable_conv_1_pad_reduction_right2_stem_2", "trainable": false, "padding": [[2, 3], [2, 3]], "data_format": "channels_last"}, "inbound_nodes": [[["activation_314", 0, 0, {}]]]}, {"name": "activation_316", "class_name": "Activation", "config": {"name": "activation_316", "trainable": false, "activation": "relu"}, "inbound_nodes": [[["adjust_bn_stem_2", 0, 0, {}]]]}, {"name": "reduction_add_1_stem_2", "class_name": "Add", "config": {"name": "reduction_add_1_stem_2", "trainable": false}, "inbound_nodes": [[["separable_conv_2_bn_reduction_left1_stem_2", 0, 0, {}], ["separable_conv_2_bn_reduction_right1_stem_2", 0, 0, {}]]]}, {"name": "separable_conv_1_reduction_right2_stem_2", "class_name": "SeparableConv2D", "config": {"name": "separable_conv_1_reduction_right2_stem_2", "trainable": false, "filters": 22, "kernel_size": [7, 7], "strides": [2, 2], "padding": "valid", "data_format": "channels_last", "dilation_rate": [1, 1], "activation": "linear", "use_bias": false, "bias_initializer": {"class_name": "Zeros", "config": {}}, "bias_regularizer": null, "activity_regularizer": null, "bias_constraint": null, "depth_multiplier": 1, "depthwise_initializer": {"class_name": "VarianceScaling", "config": {"scale": 1.0, "mode": "fan_avg", "distribution": "uniform", "seed": null}}, "pointwise_initializer": {"class_name": "VarianceScaling", "config": {"scale": 1.0, "mode": "fan_avg", "distribution": "uniform", "seed": null}}, "depthwise_regularizer": null, "pointwise_regularizer": null, "depthwise_constraint": null, "pointwise_constraint": null}, "inbound_nodes": [[["separable_conv_1_pad_reduction_right2_stem_2", 0, 0, {}]]]}, {"name": "separable_conv_1_pad_reduction_right3_stem_2", "class_name": "ZeroPadding2D", "config": {"name": "separable_conv_1_pad_reduction_right3_stem_2", "trainable": false, "padding": [[1, 2], [1, 2]], "data_format": "channels_last"}, "inbound_nodes": [[["activation_316", 0, 0, {}]]]}, {"name": "activation_318", "class_name": "Activation", "config": {"name": "activation_318", "trainable": false, "activation": "relu"}, "inbound_nodes": [[["reduction_add_1_stem_2", 0, 0, {}]]]}, {"name": "separable_conv_1_bn_reduction_right2_stem_2", "class_name": "BatchNormalization", "config": {"name": "separable_conv_1_bn_reduction_right2_stem_2", "trainable": false, "axis": -1, "momentum": 0.9997, "epsilon": 0.001, "center": true, "scale": true, "beta_initializer": {"class_name": "Zeros", "config": {}}, "gamma_initializer": {"class_name": "Ones", "config": {}}, "moving_mean_initializer": {"class_name": "Zeros", "config": {}}, "moving_variance_initializer": {"class_name": "Ones", "config": {}}, "beta_regularizer": null, "gamma_regularizer": null, "beta_constraint": null, "gamma_constraint": null}, "inbound_nodes": [[["separable_conv_1_reduction_right2_stem_2", 0, 0, {}]]]}, {"name": "separable_conv_1_reduction_right3_stem_2", "class_name": "SeparableConv2D", "config": {"name": "separable_conv_1_reduction_right3_stem_2", "trainable": false, "filters": 22, "kernel_size": [5, 5], "strides": [2, 2], "padding": "valid", "data_format": "channels_last", "dilation_rate": [1, 1], "activation": "linear", "use_bias": false, "bias_initializer": {"class_name": "Zeros", "config": {}}, "bias_regularizer": null, "activity_regularizer": null, "bias_constraint": null, "depth_multiplier": 1, "depthwise_initializer": {"class_name": "VarianceScaling", "config": {"scale": 1.0, "mode": "fan_avg", "distribution": "uniform", "seed": null}}, "pointwise_initializer": {"class_name": "VarianceScaling", "config": {"scale": 1.0, "mode": "fan_avg", "distribution": "uniform", "seed": null}}, "depthwise_regularizer": null, "pointwise_regularizer": null, "depthwise_constraint": null, "pointwise_constraint": null}, "inbound_nodes": [[["separable_conv_1_pad_reduction_right3_stem_2", 0, 0, {}]]]}, {"name": "separable_conv_1_reduction_left4_stem_2", "class_name": "SeparableConv2D", "config": {"name": "separable_conv_1_reduction_left4_stem_2", "trainable": false, "filters": 22, "kernel_size": [3, 3], "strides": [1, 1], "padding": "same", "data_format": "channels_last", "dilation_rate": [1, 1], "activation": "linear", "use_bias": false, "bias_initializer": {"class_name": "Zeros", "config": {}}, "bias_regularizer": null, "activity_regularizer": null, "bias_constraint": null, "depth_multiplier": 1, "depthwise_initializer": {"class_name": "VarianceScaling", "config": {"scale": 1.0, "mode": "fan_avg", "distribution": "uniform", "seed": null}}, "pointwise_initializer": {"class_name": "VarianceScaling", "config": {"scale": 1.0, "mode": "fan_avg", "distribution": "uniform", "seed": null}}, "depthwise_regularizer": null, "pointwise_regularizer": null, "depthwise_constraint": null, "pointwise_constraint": null}, "inbound_nodes": [[["activation_318", 0, 0, {}]]]}, {"name": "activation_315", "class_name": "Activation", "config": {"name": "activation_315", "trainable": false, "activation": "relu"}, "inbound_nodes": [[["separable_conv_1_bn_reduction_right2_stem_2", 0, 0, {}]]]}, {"name": "separable_conv_1_bn_reduction_right3_stem_2", "class_name": "BatchNormalization", "config": {"name": "separable_conv_1_bn_reduction_right3_stem_2", "trainable": false, "axis": -1, "momentum": 0.9997, "epsilon": 0.001, "center": true, "scale": true, "beta_initializer": {"class_name": "Zeros", "config": {}}, "gamma_initializer": {"class_name": "Ones", "config": {}}, "moving_mean_initializer": {"class_name": "Zeros", "config": {}}, "moving_variance_initializer": {"class_name": "Ones", "config": {}}, "beta_regularizer": null, "gamma_regularizer": null, "beta_constraint": null, "gamma_constraint": null}, "inbound_nodes": [[["separable_conv_1_reduction_right3_stem_2", 0, 0, {}]]]}, {"name": "separable_conv_1_bn_reduction_left4_stem_2", "class_name": "BatchNormalization", "config": {"name": "separable_conv_1_bn_reduction_left4_stem_2", "trainable": false, "axis": -1, "momentum": 0.9997, "epsilon": 0.001, "center": true, "scale": true, "beta_initializer": {"class_name": "Zeros", "config": {}}, "gamma_initializer": {"class_name": "Ones", "config": {}}, "moving_mean_initializer": {"class_name": "Zeros", "config": {}}, "moving_variance_initializer": {"class_name": "Ones", "config": {}}, "beta_regularizer": null, "gamma_regularizer": null, "beta_constraint": null, "gamma_constraint": null}, "inbound_nodes": [[["separable_conv_1_reduction_left4_stem_2", 0, 0, {}]]]}, {"name": "reduction_pad_1_stem_2", "class_name": "ZeroPadding2D", "config": {"name": "reduction_pad_1_stem_2", "trainable": false, "padding": [[0, 1], [0, 1]], "data_format": "channels_last"}, "inbound_nodes": [[["reduction_bn_1_stem_2", 0, 0, {}]]]}, {"name": "separable_conv_2_reduction_right2_stem_2", "class_name": "SeparableConv2D", "config": {"name": "separable_conv_2_reduction_right2_stem_2", "trainable": false, "filters": 22, "kernel_size": [7, 7], "strides": [1, 1], "padding": "same", "data_format": "channels_last", "dilation_rate": [1, 1], "activation": "linear", "use_bias": false, "bias_initializer": {"class_name": "Zeros", "config": {}}, "bias_regularizer": null, "activity_regularizer": null, "bias_constraint": null, "depth_multiplier": 1, "depthwise_initializer": {"class_name": "VarianceScaling", "config": {"scale": 1.0, "mode": "fan_avg", "distribution": "uniform", "seed": null}}, "pointwise_initializer": {"class_name": "VarianceScaling", "config": {"scale": 1.0, "mode": "fan_avg", "distribution": "uniform", "seed": null}}, "depthwise_regularizer": null, "pointwise_regularizer": null, "depthwise_constraint": null, "pointwise_constraint": null}, "inbound_nodes": [[["activation_315", 0, 0, {}]]]}, {"name": "activation_317", "class_name": "Activation", "config": {"name": "activation_317", "trainable": false, "activation": "relu"}, "inbound_nodes": [[["separable_conv_1_bn_reduction_right3_stem_2", 0, 0, {}]]]}, {"name": "activation_319", "class_name": "Activation", "config": {"name": "activation_319", "trainable": false, "activation": "relu"}, "inbound_nodes": [[["separable_conv_1_bn_reduction_left4_stem_2", 0, 0, {}]]]}, {"name": "reduction_left2_stem_2", "class_name": "MaxPooling2D", "config": {"name": "reduction_left2_stem_2", "trainable": false, "pool_size": [3, 3], "padding": "valid", "strides": [2, 2], "data_format": "channels_last"}, "inbound_nodes": [[["reduction_pad_1_stem_2", 0, 0, {}]]]}, {"name": "separable_conv_2_bn_reduction_right2_stem_2", "class_name": "BatchNormalization", "config": {"name": "separable_conv_2_bn_reduction_right2_stem_2", "trainable": false, "axis": -1, "momentum": 0.9997, "epsilon": 0.001, "center": true, "scale": true, "beta_initializer": {"class_name": "Zeros", "config": {}}, "gamma_initializer": {"class_name": "Ones", "config": {}}, "moving_mean_initializer": {"class_name": "Zeros", "config": {}}, "moving_variance_initializer": {"class_name": "Ones", "config": {}}, "beta_regularizer": null, "gamma_regularizer": null, "beta_constraint": null, "gamma_constraint": null}, "inbound_nodes": [[["separable_conv_2_reduction_right2_stem_2", 0, 0, {}]]]}, {"name": "separable_conv_2_reduction_right3_stem_2", "class_name": "SeparableConv2D", "config": {"name": "separable_conv_2_reduction_right3_stem_2", "trainable": false, "filters": 22, "kernel_size": [5, 5], "strides": [1, 1], "padding": "same", "data_format": "channels_last", "dilation_rate": [1, 1], "activation": "linear", "use_bias": false, "bias_initializer": {"class_name": "Zeros", "config": {}}, "bias_regularizer": null, "activity_regularizer": null, "bias_constraint": null, "depth_multiplier": 1, "depthwise_initializer": {"class_name": "VarianceScaling", "config": {"scale": 1.0, "mode": "fan_avg", "distribution": "uniform", "seed": null}}, "pointwise_initializer": {"class_name": "VarianceScaling", "config": {"scale": 1.0, "mode": "fan_avg", "distribution": "uniform", "seed": null}}, "depthwise_regularizer": null, "pointwise_regularizer": null, "depthwise_constraint": null, "pointwise_constraint": null}, "inbound_nodes": [[["activation_317", 0, 0, {}]]]}, {"name": "separable_conv_2_reduction_left4_stem_2", "class_name": "SeparableConv2D", "config": {"name": "separable_conv_2_reduction_left4_stem_2", "trainable": false, "filters": 22, "kernel_size": [3, 3], "strides": [1, 1], "padding": "same", "data_format": "channels_last", "dilation_rate": [1, 1], "activation": "linear", "use_bias": false, "bias_initializer": {"class_name": "Zeros", "config": {}}, "bias_regularizer": null, "activity_regularizer": null, "bias_constraint": null, "depth_multiplier": 1, "depthwise_initializer": {"class_name": "VarianceScaling", "config": {"scale": 1.0, "mode": "fan_avg", "distribution": "uniform", "seed": null}}, "pointwise_initializer": {"class_name": "VarianceScaling", "config": {"scale": 1.0, "mode": "fan_avg", "distribution": "uniform", "seed": null}}, "depthwise_regularizer": null, "pointwise_regularizer": null, "depthwise_constraint": null, "pointwise_constraint": null}, "inbound_nodes": [[["activation_319", 0, 0, {}]]]}, {"name": "adjust_relu_1_0", "class_name": "Activation", "config": {"name": "adjust_relu_1_0", "trainable": false, "activation": "relu"}, "inbound_nodes": [[["reduction_concat_stem_1", 0, 0, {}]]]}, {"name": "reduction_add_2_stem_2", "class_name": "Add", "config": {"name": "reduction_add_2_stem_2", "trainable": false}, "inbound_nodes": [[["reduction_left2_stem_2", 0, 0, {}], ["separable_conv_2_bn_reduction_right2_stem_2", 0, 0, {}]]]}, {"name": "reduction_left3_stem_2", "class_name": "AveragePooling2D", "config": {"name": "reduction_left3_stem_2", "trainable": false, "pool_size": [3, 3], "padding": "valid", "strides": [2, 2], "data_format": "channels_last"}, "inbound_nodes": [[["reduction_pad_1_stem_2", 0, 0, {}]]]}, {"name": "separable_conv_2_bn_reduction_right3_stem_2", "class_name": "BatchNormalization", "config": {"name": "separable_conv_2_bn_reduction_right3_stem_2", "trainable": false, "axis": -1, "momentum": 0.9997, "epsilon": 0.001, "center": true, "scale": true, "beta_initializer": {"class_name": "Zeros", "config": {}}, "gamma_initializer": {"class_name": "Ones", "config": {}}, "moving_mean_initializer": {"class_name": "Zeros", "config": {}}, "moving_variance_initializer": {"class_name": "Ones", "config": {}}, "beta_regularizer": null, "gamma_regularizer": null, "beta_constraint": null, "gamma_constraint": null}, "inbound_nodes": [[["separable_conv_2_reduction_right3_stem_2", 0, 0, {}]]]}, {"name": "reduction_left4_stem_2", "class_name": "AveragePooling2D", "config": {"name": "reduction_left4_stem_2", "trainable": false, "pool_size": [3, 3], "padding": "same", "strides": [1, 1], "data_format": "channels_last"}, "inbound_nodes": [[["reduction_add_1_stem_2", 0, 0, {}]]]}, {"name": "separable_conv_2_bn_reduction_left4_stem_2", "class_name": "BatchNormalization", "config": {"name": "separable_conv_2_bn_reduction_left4_stem_2", "trainable": false, "axis": -1, "momentum": 0.9997, "epsilon": 0.001, "center": true, "scale": true, "beta_initializer": {"class_name": "Zeros", "config": {}}, "gamma_initializer": {"class_name": "Ones", "config": {}}, "moving_mean_initializer": {"class_name": "Zeros", "config": {}}, "moving_variance_initializer": {"class_name": "Ones", "config": {}}, "beta_regularizer": null, "gamma_regularizer": null, "beta_constraint": null, "gamma_constraint": null}, "inbound_nodes": [[["separable_conv_2_reduction_left4_stem_2", 0, 0, {}]]]}, {"name": "reduction_right5_stem_2", "class_name": "MaxPooling2D", "config": {"name": "reduction_right5_stem_2", "trainable": false, "pool_size": [3, 3], "padding": "valid", "strides": [2, 2], "data_format": "channels_last"}, "inbound_nodes": [[["reduction_pad_1_stem_2", 0, 0, {}]]]}, {"name": "zero_padding2d_16", "class_name": "ZeroPadding2D", "config": {"name": "zero_padding2d_16", "trainable": false, "padding": [[0, 1], [0, 1]], "data_format": "channels_last"}, "inbound_nodes": [[["adjust_relu_1_0", 0, 0, {}]]]}, {"name": "reduction_add3_stem_2", "class_name": "Add", "config": {"name": "reduction_add3_stem_2", "trainable": false}, "inbound_nodes": [[["reduction_left3_stem_2", 0, 0, {}], ["separable_conv_2_bn_reduction_right3_stem_2", 0, 0, {}]]]}, {"name": "add_2", "class_name": "Add", "config": {"name": "add_2", "trainable": false}, "inbound_nodes": [[["reduction_add_2_stem_2", 0, 0, {}], ["reduction_left4_stem_2", 0, 0, {}]]]}, {"name": "reduction_add4_stem_2", "class_name": "Add", "config": {"name": "reduction_add4_stem_2", "trainable": false}, "inbound_nodes": [[["separable_conv_2_bn_reduction_left4_stem_2", 0, 0, {}], ["reduction_right5_stem_2", 0, 0, {}]]]}, {"name": "cropping2d_2", "class_name": "Cropping2D", "config": {"name": "cropping2d_2", "trainable": false, "cropping": [[1, 0], [1, 0]], "data_format": "channels_last"}, "inbound_nodes": [[["zero_padding2d_16", 0, 0, {}]]]}, {"name": "reduction_concat_stem_2", "class_name": "Concatenate", "config": {"name": "reduction_concat_stem_2", "trainable": false, "axis": -1}, "inbound_nodes": [[["reduction_add_2_stem_2", 0, 0, {}], ["reduction_add3_stem_2", 0, 0, {}], ["add_2", 0, 0, {}], ["reduction_add4_stem_2", 0, 0, {}]]]}, {"name": "adjust_avg_pool_1_0", "class_name": "AveragePooling2D", "config": {"name": "adjust_avg_pool_1_0", "trainable": false, "pool_size": [1, 1], "padding": "valid", "strides": [2, 2], "data_format": "channels_last"}, "inbound_nodes": [[["adjust_relu_1_0", 0, 0, {}]]]}, {"name": "adjust_avg_pool_2_0", "class_name": "AveragePooling2D", "config": {"name": "adjust_avg_pool_2_0", "trainable": false, "pool_size": [1, 1], "padding": "valid", "strides": [2, 2], "data_format": "channels_last"}, "inbound_nodes": [[["cropping2d_2", 0, 0, {}]]]}, {"name": "adjust_conv_1_0", "class_name": "Conv2D", "config": {"name": "adjust_conv_1_0", "trainable": false, "filters": 22, "kernel_size": [1, 1], "strides": [1, 1], "padding": "same", "data_format": "channels_last", "dilation_rate": [1, 1], "activation": "linear", "use_bias": false, "kernel_initializer": {"class_name": "VarianceScaling", "config": {"scale": 2.0, "mode": "fan_in", "distribution": "normal", "seed": null}}, "bias_initializer": {"class_name": "Zeros", "config": {}}, "kernel_regularizer": null, "bias_regularizer": null, "activity_regularizer": null, "kernel_constraint": null, "bias_constraint": null}, "inbound_nodes": [[["adjust_avg_pool_1_0", 0, 0, {}]]]}, {"name": "adjust_conv_2_0", "class_name": "Conv2D", "config": {"name": "adjust_conv_2_0", "trainable": false, "filters": 22, "kernel_size": [1, 1], "strides": [1, 1], "padding": "same", "data_format": "channels_last", "dilation_rate": [1, 1], "activation": "linear", "use_bias": false, "kernel_initializer": {"class_name": "VarianceScaling", "config": {"scale": 2.0, "mode": "fan_in", "distribution": "normal", "seed": null}}, "bias_initializer": {"class_name": "Zeros", "config": {}}, "kernel_regularizer": null, "bias_regularizer": null, "activity_regularizer": null, "kernel_constraint": null, "bias_constraint": null}, "inbound_nodes": [[["adjust_avg_pool_2_0", 0, 0, {}]]]}, {"name": "activation_320", "class_name": "Activation", "config": {"name": "activation_320", "trainable": false, "activation": "relu"}, "inbound_nodes": [[["reduction_concat_stem_2", 0, 0, {}]]]}, {"name": "concatenate_4", "class_name": "Concatenate", "config": {"name": "concatenate_4", "trainable": false, "axis": -1}, "inbound_nodes": [[["adjust_conv_1_0", 0, 0, {}], ["adjust_conv_2_0", 0, 0, {}]]]}, {"name": "normal_conv_1_0", "class_name": "Conv2D", "config": {"name": "normal_conv_1_0", "trainable": false, "filters": 44, "kernel_size": [1, 1], "strides": [1, 1], "padding": "same", "data_format": "channels_last", "dilation_rate": [1, 1], "activation": "linear", "use_bias": false, "kernel_initializer": {"class_name": "VarianceScaling", "config": {"scale": 2.0, "mode": "fan_in", "distribution": "normal", "seed": null}}, "bias_initializer": {"class_name": "Zeros", "config": {}}, "kernel_regularizer": null, "bias_regularizer": null, "activity_regularizer": null, "kernel_constraint": null, "bias_constraint": null}, "inbound_nodes": [[["activation_320", 0, 0, {}]]]}, {"name": "adjust_bn_0", "class_name": "BatchNormalization", "config": {"name": "adjust_bn_0", "trainable": false, "axis": -1, "momentum": 0.9997, "epsilon": 0.001, "center": true, "scale": true, "beta_initializer": {"class_name": "Zeros", "config": {}}, "gamma_initializer": {"class_name": "Ones", "config": {}}, "moving_mean_initializer": {"class_name": "Zeros", "config": {}}, "moving_variance_initializer": {"class_name": "Ones", "config": {}}, "beta_regularizer": null, "gamma_regularizer": null, "beta_constraint": null, "gamma_constraint": null}, "inbound_nodes": [[["concatenate_4", 0, 0, {}]]]}, {"name": "normal_bn_1_0", "class_name": "BatchNormalization", "config": {"name": "normal_bn_1_0", "trainable": false, "axis": -1, "momentum": 0.9997, "epsilon": 0.001, "center": true, "scale": true, "beta_initializer": {"class_name": "Zeros", "config": {}}, "gamma_initializer": {"class_name": "Ones", "config": {}}, "moving_mean_initializer": {"class_name": "Zeros", "config": {}}, "moving_variance_initializer": {"class_name": "Ones", "config": {}}, "beta_regularizer": null, "gamma_regularizer": null, "beta_constraint": null, "gamma_constraint": null}, "inbound_nodes": [[["normal_conv_1_0", 0, 0, {}]]]}, {"name": "activation_321", "class_name": "Activation", "config": {"name": "activation_321", "trainable": false, "activation": "relu"}, "inbound_nodes": [[["normal_bn_1_0", 0, 0, {}]]]}, {"name": "activation_323", "class_name": "Activation", "config": {"name": "activation_323", "trainable": false, "activation": "relu"}, "inbound_nodes": [[["adjust_bn_0", 0, 0, {}]]]}, {"name": "activation_325", "class_name": "Activation", "config": {"name": "activation_325", "trainable": false, "activation": "relu"}, "inbound_nodes": [[["adjust_bn_0", 0, 0, {}]]]}, {"name": "activation_327", "class_name": "Activation", "config": {"name": "activation_327", "trainable": false, "activation": "relu"}, "inbound_nodes": [[["adjust_bn_0", 0, 0, {}]]]}, {"name": "activation_329", "class_name": "Activation", "config": {"name": "activation_329", "trainable": false, "activation": "relu"}, "inbound_nodes": [[["normal_bn_1_0", 0, 0, {}]]]}, {"name": "separable_conv_1_normal_left1_0", "class_name": "SeparableConv2D", "config": {"name": "separable_conv_1_normal_left1_0", "trainable": false, "filters": 44, "kernel_size": [5, 5], "strides": [1, 1], "padding": "same", "data_format": "channels_last", "dilation_rate": [1, 1], "activation": "linear", "use_bias": false, "bias_initializer": {"class_name": "Zeros", "config": {}}, "bias_regularizer": null, "activity_regularizer": null, "bias_constraint": null, "depth_multiplier": 1, "depthwise_initializer": {"class_name": "VarianceScaling", "config": {"scale": 1.0, "mode": "fan_avg", "distribution": "uniform", "seed": null}}, "pointwise_initializer": {"class_name": "VarianceScaling", "config": {"scale": 1.0, "mode": "fan_avg", "distribution": "uniform", "seed": null}}, "depthwise_regularizer": null, "pointwise_regularizer": null, "depthwise_constraint": null, "pointwise_constraint": null}, "inbound_nodes": [[["activation_321", 0, 0, {}]]]}, {"name": "separable_conv_1_normal_right1_0", "class_name": "SeparableConv2D", "config": {"name": "separable_conv_1_normal_right1_0", "trainable": false, "filters": 44, "kernel_size": [3, 3], "strides": [1, 1], "padding": "same", "data_format": "channels_last", "dilation_rate": [1, 1], "activation": "linear", "use_bias": false, "bias_initializer": {"class_name": "Zeros", "config": {}}, "bias_regularizer": null, "activity_regularizer": null, "bias_constraint": null, "depth_multiplier": 1, "depthwise_initializer": {"class_name": "VarianceScaling", "config": {"scale": 1.0, "mode": "fan_avg", "distribution": "uniform", "seed": null}}, "pointwise_initializer": {"class_name": "VarianceScaling", "config": {"scale": 1.0, "mode": "fan_avg", "distribution": "uniform", "seed": null}}, "depthwise_regularizer": null, "pointwise_regularizer": null, "depthwise_constraint": null, "pointwise_constraint": null}, "inbound_nodes": [[["activation_323", 0, 0, {}]]]}, {"name": "separable_conv_1_normal_left2_0", "class_name": "SeparableConv2D", "config": {"name": "separable_conv_1_normal_left2_0", "trainable": false, "filters": 44, "kernel_size": [5, 5], "strides": [1, 1], "padding": "same", "data_format": "channels_last", "dilation_rate": [1, 1], "activation": "linear", "use_bias": false, "bias_initializer": {"class_name": "Zeros", "config": {}}, "bias_regularizer": null, "activity_regularizer": null, "bias_constraint": null, "depth_multiplier": 1, "depthwise_initializer": {"class_name": "VarianceScaling", "config": {"scale": 1.0, "mode": "fan_avg", "distribution": "uniform", "seed": null}}, "pointwise_initializer": {"class_name": "VarianceScaling", "config": {"scale": 1.0, "mode": "fan_avg", "distribution": "uniform", "seed": null}}, "depthwise_regularizer": null, "pointwise_regularizer": null, "depthwise_constraint": null, "pointwise_constraint": null}, "inbound_nodes": [[["activation_325", 0, 0, {}]]]}, {"name": "separable_conv_1_normal_right2_0", "class_name": "SeparableConv2D", "config": {"name": "separable_conv_1_normal_right2_0", "trainable": false, "filters": 44, "kernel_size": [3, 3], "strides": [1, 1], "padding": "same", "data_format": "channels_last", "dilation_rate": [1, 1], "activation": "linear", "use_bias": false, "bias_initializer": {"class_name": "Zeros", "config": {}}, "bias_regularizer": null, "activity_regularizer": null, "bias_constraint": null, "depth_multiplier": 1, "depthwise_initializer": {"class_name": "VarianceScaling", "config": {"scale": 1.0, "mode": "fan_avg", "distribution": "uniform", "seed": null}}, "pointwise_initializer": {"class_name": "VarianceScaling", "config": {"scale": 1.0, "mode": "fan_avg", "distribution": "uniform", "seed": null}}, "depthwise_regularizer": null, "pointwise_regularizer": null, "depthwise_constraint": null, "pointwise_constraint": null}, "inbound_nodes": [[["activation_327", 0, 0, {}]]]}, {"name": "separable_conv_1_normal_left5_0", "class_name": "SeparableConv2D", "config": {"name": "separable_conv_1_normal_left5_0", "trainable": false, "filters": 44, "kernel_size": [3, 3], "strides": [1, 1], "padding": "same", "data_format": "channels_last", "dilation_rate": [1, 1], "activation": "linear", "use_bias": false, "bias_initializer": {"class_name": "Zeros", "config": {}}, "bias_regularizer": null, "activity_regularizer": null, "bias_constraint": null, "depth_multiplier": 1, "depthwise_initializer": {"class_name": "VarianceScaling", "config": {"scale": 1.0, "mode": "fan_avg", "distribution": "uniform", "seed": null}}, "pointwise_initializer": {"class_name": "VarianceScaling", "config": {"scale": 1.0, "mode": "fan_avg", "distribution": "uniform", "seed": null}}, "depthwise_regularizer": null, "pointwise_regularizer": null, "depthwise_constraint": null, "pointwise_constraint": null}, "inbound_nodes": [[["activation_329", 0, 0, {}]]]}, {"name": "separable_conv_1_bn_normal_left1_0", "class_name": "BatchNormalization", "config": {"name": "separable_conv_1_bn_normal_left1_0", "trainable": false, "axis": -1, "momentum": 0.9997, "epsilon": 0.001, "center": true, "scale": true, "beta_initializer": {"class_name": "Zeros", "config": {}}, "gamma_initializer": {"class_name": "Ones", "config": {}}, "moving_mean_initializer": {"class_name": "Zeros", "config": {}}, "moving_variance_initializer": {"class_name": "Ones", "config": {}}, "beta_regularizer": null, "gamma_regularizer": null, "beta_constraint": null, "gamma_constraint": null}, "inbound_nodes": [[["separable_conv_1_normal_left1_0", 0, 0, {}]]]}, {"name": "separable_conv_1_bn_normal_right1_0", "class_name": "BatchNormalization", "config": {"name": "separable_conv_1_bn_normal_right1_0", "trainable": false, "axis": -1, "momentum": 0.9997, "epsilon": 0.001, "center": true, "scale": true, "beta_initializer": {"class_name": "Zeros", "config": {}}, "gamma_initializer": {"class_name": "Ones", "config": {}}, "moving_mean_initializer": {"class_name": "Zeros", "config": {}}, "moving_variance_initializer": {"class_name": "Ones", "config": {}}, "beta_regularizer": null, "gamma_regularizer": null, "beta_constraint": null, "gamma_constraint": null}, "inbound_nodes": [[["separable_conv_1_normal_right1_0", 0, 0, {}]]]}, {"name": "separable_conv_1_bn_normal_left2_0", "class_name": "BatchNormalization", "config": {"name": "separable_conv_1_bn_normal_left2_0", "trainable": false, "axis": -1, "momentum": 0.9997, "epsilon": 0.001, "center": true, "scale": true, "beta_initializer": {"class_name": "Zeros", "config": {}}, "gamma_initializer": {"class_name": "Ones", "config": {}}, "moving_mean_initializer": {"class_name": "Zeros", "config": {}}, "moving_variance_initializer": {"class_name": "Ones", "config": {}}, "beta_regularizer": null, "gamma_regularizer": null, "beta_constraint": null, "gamma_constraint": null}, "inbound_nodes": [[["separable_conv_1_normal_left2_0", 0, 0, {}]]]}, {"name": "separable_conv_1_bn_normal_right2_0", "class_name": "BatchNormalization", "config": {"name": "separable_conv_1_bn_normal_right2_0", "trainable": false, "axis": -1, "momentum": 0.9997, "epsilon": 0.001, "center": true, "scale": true, "beta_initializer": {"class_name": "Zeros", "config": {}}, "gamma_initializer": {"class_name": "Ones", "config": {}}, "moving_mean_initializer": {"class_name": "Zeros", "config": {}}, "moving_variance_initializer": {"class_name": "Ones", "config": {}}, "beta_regularizer": null, "gamma_regularizer": null, "beta_constraint": null, "gamma_constraint": null}, "inbound_nodes": [[["separable_conv_1_normal_right2_0", 0, 0, {}]]]}, {"name": "separable_conv_1_bn_normal_left5_0", "class_name": "BatchNormalization", "config": {"name": "separable_conv_1_bn_normal_left5_0", "trainable": false, "axis": -1, "momentum": 0.9997, "epsilon": 0.001, "center": true, "scale": true, "beta_initializer": {"class_name": "Zeros", "config": {}}, "gamma_initializer": {"class_name": "Ones", "config": {}}, "moving_mean_initializer": {"class_name": "Zeros", "config": {}}, "moving_variance_initializer": {"class_name": "Ones", "config": {}}, "beta_regularizer": null, "gamma_regularizer": null, "beta_constraint": null, "gamma_constraint": null}, "inbound_nodes": [[["separable_conv_1_normal_left5_0", 0, 0, {}]]]}, {"name": "activation_322", "class_name": "Activation", "config": {"name": "activation_322", "trainable": false, "activation": "relu"}, "inbound_nodes": [[["separable_conv_1_bn_normal_left1_0", 0, 0, {}]]]}, {"name": "activation_324", "class_name": "Activation", "config": {"name": "activation_324", "trainable": false, "activation": "relu"}, "inbound_nodes": [[["separable_conv_1_bn_normal_right1_0", 0, 0, {}]]]}, {"name": "activation_326", "class_name": "Activation", "config": {"name": "activation_326", "trainable": false, "activation": "relu"}, "inbound_nodes": [[["separable_conv_1_bn_normal_left2_0", 0, 0, {}]]]}, {"name": "activation_328", "class_name": "Activation", "config": {"name": "activation_328", "trainable": false, "activation": "relu"}, "inbound_nodes": [[["separable_conv_1_bn_normal_right2_0", 0, 0, {}]]]}, {"name": "activation_330", "class_name": "Activation", "config": {"name": "activation_330", "trainable": false, "activation": "relu"}, "inbound_nodes": [[["separable_conv_1_bn_normal_left5_0", 0, 0, {}]]]}, {"name": "separable_conv_2_normal_left1_0", "class_name": "SeparableConv2D", "config": {"name": "separable_conv_2_normal_left1_0", "trainable": false, "filters": 44, "kernel_size": [5, 5], "strides": [1, 1], "padding": "same", "data_format": "channels_last", "dilation_rate": [1, 1], "activation": "linear", "use_bias": false, "bias_initializer": {"class_name": "Zeros", "config": {}}, "bias_regularizer": null, "activity_regularizer": null, "bias_constraint": null, "depth_multiplier": 1, "depthwise_initializer": {"class_name": "VarianceScaling", "config": {"scale": 1.0, "mode": "fan_avg", "distribution": "uniform", "seed": null}}, "pointwise_initializer": {"class_name": "VarianceScaling", "config": {"scale": 1.0, "mode": "fan_avg", "distribution": "uniform", "seed": null}}, "depthwise_regularizer": null, "pointwise_regularizer": null, "depthwise_constraint": null, "pointwise_constraint": null}, "inbound_nodes": [[["activation_322", 0, 0, {}]]]}, {"name": "separable_conv_2_normal_right1_0", "class_name": "SeparableConv2D", "config": {"name": "separable_conv_2_normal_right1_0", "trainable": false, "filters": 44, "kernel_size": [3, 3], "strides": [1, 1], "padding": "same", "data_format": "channels_last", "dilation_rate": [1, 1], "activation": "linear", "use_bias": false, "bias_initializer": {"class_name": "Zeros", "config": {}}, "bias_regularizer": null, "activity_regularizer": null, "bias_constraint": null, "depth_multiplier": 1, "depthwise_initializer": {"class_name": "VarianceScaling", "config": {"scale": 1.0, "mode": "fan_avg", "distribution": "uniform", "seed": null}}, "pointwise_initializer": {"class_name": "VarianceScaling", "config": {"scale": 1.0, "mode": "fan_avg", "distribution": "uniform", "seed": null}}, "depthwise_regularizer": null, "pointwise_regularizer": null, "depthwise_constraint": null, "pointwise_constraint": null}, "inbound_nodes": [[["activation_324", 0, 0, {}]]]}, {"name": "separable_conv_2_normal_left2_0", "class_name": "SeparableConv2D", "config": {"name": "separable_conv_2_normal_left2_0", "trainable": false, "filters": 44, "kernel_size": [5, 5], "strides": [1, 1], "padding": "same", "data_format": "channels_last", "dilation_rate": [1, 1], "activation": "linear", "use_bias": false, "bias_initializer": {"class_name": "Zeros", "config": {}}, "bias_regularizer": null, "activity_regularizer": null, "bias_constraint": null, "depth_multiplier": 1, "depthwise_initializer": {"class_name": "VarianceScaling", "config": {"scale": 1.0, "mode": "fan_avg", "distribution": "uniform", "seed": null}}, "pointwise_initializer": {"class_name": "VarianceScaling", "config": {"scale": 1.0, "mode": "fan_avg", "distribution": "uniform", "seed": null}}, "depthwise_regularizer": null, "pointwise_regularizer": null, "depthwise_constraint": null, "pointwise_constraint": null}, "inbound_nodes": [[["activation_326", 0, 0, {}]]]}, {"name": "separable_conv_2_normal_right2_0", "class_name": "SeparableConv2D", "config": {"name": "separable_conv_2_normal_right2_0", "trainable": false, "filters": 44, "kernel_size": [3, 3], "strides": [1, 1], "padding": "same", "data_format": "channels_last", "dilation_rate": [1, 1], "activation": "linear", "use_bias": false, "bias_initializer": {"class_name": "Zeros", "config": {}}, "bias_regularizer": null, "activity_regularizer": null, "bias_constraint": null, "depth_multiplier": 1, "depthwise_initializer": {"class_name": "VarianceScaling", "config": {"scale": 1.0, "mode": "fan_avg", "distribution": "uniform", "seed": null}}, "pointwise_initializer": {"class_name": "VarianceScaling", "config": {"scale": 1.0, "mode": "fan_avg", "distribution": "uniform", "seed": null}}, "depthwise_regularizer": null, "pointwise_regularizer": null, "depthwise_constraint": null, "pointwise_constraint": null}, "inbound_nodes": [[["activation_328", 0, 0, {}]]]}, {"name": "separable_conv_2_normal_left5_0", "class_name": "SeparableConv2D", "config": {"name": "separable_conv_2_normal_left5_0", "trainable": false, "filters": 44, "kernel_size": [3, 3], "strides": [1, 1], "padding": "same", "data_format": "channels_last", "dilation_rate": [1, 1], "activation": "linear", "use_bias": false, "bias_initializer": {"class_name": "Zeros", "config": {}}, "bias_regularizer": null, "activity_regularizer": null, "bias_constraint": null, "depth_multiplier": 1, "depthwise_initializer": {"class_name": "VarianceScaling", "config": {"scale": 1.0, "mode": "fan_avg", "distribution": "uniform", "seed": null}}, "pointwise_initializer": {"class_name": "VarianceScaling", "config": {"scale": 1.0, "mode": "fan_avg", "distribution": "uniform", "seed": null}}, "depthwise_regularizer": null, "pointwise_regularizer": null, "depthwise_constraint": null, "pointwise_constraint": null}, "inbound_nodes": [[["activation_330", 0, 0, {}]]]}, {"name": "separable_conv_2_bn_normal_left1_0", "class_name": "BatchNormalization", "config": {"name": "separable_conv_2_bn_normal_left1_0", "trainable": false, "axis": -1, "momentum": 0.9997, "epsilon": 0.001, "center": true, "scale": true, "beta_initializer": {"class_name": "Zeros", "config": {}}, "gamma_initializer": {"class_name": "Ones", "config": {}}, "moving_mean_initializer": {"class_name": "Zeros", "config": {}}, "moving_variance_initializer": {"class_name": "Ones", "config": {}}, "beta_regularizer": null, "gamma_regularizer": null, "beta_constraint": null, "gamma_constraint": null}, "inbound_nodes": [[["separable_conv_2_normal_left1_0", 0, 0, {}]]]}, {"name": "separable_conv_2_bn_normal_right1_0", "class_name": "BatchNormalization", "config": {"name": "separable_conv_2_bn_normal_right1_0", "trainable": false, "axis": -1, "momentum": 0.9997, "epsilon": 0.001, "center": true, "scale": true, "beta_initializer": {"class_name": "Zeros", "config": {}}, "gamma_initializer": {"class_name": "Ones", "config": {}}, "moving_mean_initializer": {"class_name": "Zeros", "config": {}}, "moving_variance_initializer": {"class_name": "Ones", "config": {}}, "beta_regularizer": null, "gamma_regularizer": null, "beta_constraint": null, "gamma_constraint": null}, "inbound_nodes": [[["separable_conv_2_normal_right1_0", 0, 0, {}]]]}, {"name": "separable_conv_2_bn_normal_left2_0", "class_name": "BatchNormalization", "config": {"name": "separable_conv_2_bn_normal_left2_0", "trainable": false, "axis": -1, "momentum": 0.9997, "epsilon": 0.001, "center": true, "scale": true, "beta_initializer": {"class_name": "Zeros", "config": {}}, "gamma_initializer": {"class_name": "Ones", "config": {}}, "moving_mean_initializer": {"class_name": "Zeros", "config": {}}, "moving_variance_initializer": {"class_name": "Ones", "config": {}}, "beta_regularizer": null, "gamma_regularizer": null, "beta_constraint": null, "gamma_constraint": null}, "inbound_nodes": [[["separable_conv_2_normal_left2_0", 0, 0, {}]]]}, {"name": "separable_conv_2_bn_normal_right2_0", "class_name": "BatchNormalization", "config": {"name": "separable_conv_2_bn_normal_right2_0", "trainable": false, "axis": -1, "momentum": 0.9997, "epsilon": 0.001, "center": true, "scale": true, "beta_initializer": {"class_name": "Zeros", "config": {}}, "gamma_initializer": {"class_name": "Ones", "config": {}}, "moving_mean_initializer": {"class_name": "Zeros", "config": {}}, "moving_variance_initializer": {"class_name": "Ones", "config": {}}, "beta_regularizer": null, "gamma_regularizer": null, "beta_constraint": null, "gamma_constraint": null}, "inbound_nodes": [[["separable_conv_2_normal_right2_0", 0, 0, {}]]]}, {"name": "normal_left3_0", "class_name": "AveragePooling2D", "config": {"name": "normal_left3_0", "trainable": false, "pool_size": [3, 3], "padding": "same", "strides": [1, 1], "data_format": "channels_last"}, "inbound_nodes": [[["normal_bn_1_0", 0, 0, {}]]]}, {"name": "normal_left4_0", "class_name": "AveragePooling2D", "config": {"name": "normal_left4_0", "trainable": false, "pool_size": [3, 3], "padding": "same", "strides": [1, 1], "data_format": "channels_last"}, "inbound_nodes": [[["adjust_bn_0", 0, 0, {}]]]}, {"name": "normal_right4_0", "class_name": "AveragePooling2D", "config": {"name": "normal_right4_0", "trainable": false, "pool_size": [3, 3], "padding": "same", "strides": [1, 1], "data_format": "channels_last"}, "inbound_nodes": [[["adjust_bn_0", 0, 0, {}]]]}, {"name": "separable_conv_2_bn_normal_left5_0", "class_name": "BatchNormalization", "config": {"name": "separable_conv_2_bn_normal_left5_0", "trainable": false, "axis": -1, "momentum": 0.9997, "epsilon": 0.001, "center": true, "scale": true, "beta_initializer": {"class_name": "Zeros", "config": {}}, "gamma_initializer": {"class_name": "Ones", "config": {}}, "moving_mean_initializer": {"class_name": "Zeros", "config": {}}, "moving_variance_initializer": {"class_name": "Ones", "config": {}}, "beta_regularizer": null, "gamma_regularizer": null, "beta_constraint": null, "gamma_constraint": null}, "inbound_nodes": [[["separable_conv_2_normal_left5_0", 0, 0, {}]]]}, {"name": "normal_add_1_0", "class_name": "Add", "config": {"name": "normal_add_1_0", "trainable": false}, "inbound_nodes": [[["separable_conv_2_bn_normal_left1_0", 0, 0, {}], ["separable_conv_2_bn_normal_right1_0", 0, 0, {}]]]}, {"name": "normal_add_2_0", "class_name": "Add", "config": {"name": "normal_add_2_0", "trainable": false}, "inbound_nodes": [[["separable_conv_2_bn_normal_left2_0", 0, 0, {}], ["separable_conv_2_bn_normal_right2_0", 0, 0, {}]]]}, {"name": "normal_add_3_0", "class_name": "Add", "config": {"name": "normal_add_3_0", "trainable": false}, "inbound_nodes": [[["normal_left3_0", 0, 0, {}], ["adjust_bn_0", 0, 0, {}]]]}, {"name": "normal_add_4_0", "class_name": "Add", "config": {"name": "normal_add_4_0", "trainable": false}, "inbound_nodes": [[["normal_left4_0", 0, 0, {}], ["normal_right4_0", 0, 0, {}]]]}, {"name": "normal_add_5_0", "class_name": "Add", "config": {"name": "normal_add_5_0", "trainable": false}, "inbound_nodes": [[["separable_conv_2_bn_normal_left5_0", 0, 0, {}], ["normal_bn_1_0", 0, 0, {}]]]}, {"name": "normal_concat_0", "class_name": "Concatenate", "config": {"name": "normal_concat_0", "trainable": false, "axis": -1}, "inbound_nodes": [[["adjust_bn_0", 0, 0, {}], ["normal_add_1_0", 0, 0, {}], ["normal_add_2_0", 0, 0, {}], ["normal_add_3_0", 0, 0, {}], ["normal_add_4_0", 0, 0, {}], ["normal_add_5_0", 0, 0, {}]]]}, {"name": "activation_331", "class_name": "Activation", "config": {"name": "activation_331", "trainable": false, "activation": "relu"}, "inbound_nodes": [[["reduction_concat_stem_2", 0, 0, {}]]]}, {"name": "activation_332", "class_name": "Activation", "config": {"name": "activation_332", "trainable": false, "activation": "relu"}, "inbound_nodes": [[["normal_concat_0", 0, 0, {}]]]}, {"name": "adjust_conv_projection_1", "class_name": "Conv2D", "config": {"name": "adjust_conv_projection_1", "trainable": false, "filters": 44, "kernel_size": [1, 1], "strides": [1, 1], "padding": "same", "data_format": "channels_last", "dilation_rate": [1, 1], "activation": "linear", "use_bias": false, "kernel_initializer": {"class_name": "VarianceScaling", "config": {"scale": 2.0, "mode": "fan_in", "distribution": "normal", "seed": null}}, "bias_initializer": {"class_name": "Zeros", "config": {}}, "kernel_regularizer": null, "bias_regularizer": null, "activity_regularizer": null, "kernel_constraint": null, "bias_constraint": null}, "inbound_nodes": [[["activation_331", 0, 0, {}]]]}, {"name": "normal_conv_1_1", "class_name": "Conv2D", "config": {"name": "normal_conv_1_1", "trainable": false, "filters": 44, "kernel_size": [1, 1], "strides": [1, 1], "padding": "same", "data_format": "channels_last", "dilation_rate": [1, 1], "activation": "linear", "use_bias": false, "kernel_initializer": {"class_name": "VarianceScaling", "config": {"scale": 2.0, "mode": "fan_in", "distribution": "normal", "seed": null}}, "bias_initializer": {"class_name": "Zeros", "config": {}}, "kernel_regularizer": null, "bias_regularizer": null, "activity_regularizer": null, "kernel_constraint": null, "bias_constraint": null}, "inbound_nodes": [[["activation_332", 0, 0, {}]]]}, {"name": "adjust_bn_1", "class_name": "BatchNormalization", "config": {"name": "adjust_bn_1", "trainable": false, "axis": -1, "momentum": 0.9997, "epsilon": 0.001, "center": true, "scale": true, "beta_initializer": {"class_name": "Zeros", "config": {}}, "gamma_initializer": {"class_name": "Ones", "config": {}}, "moving_mean_initializer": {"class_name": "Zeros", "config": {}}, "moving_variance_initializer": {"class_name": "Ones", "config": {}}, "beta_regularizer": null, "gamma_regularizer": null, "beta_constraint": null, "gamma_constraint": null}, "inbound_nodes": [[["adjust_conv_projection_1", 0, 0, {}]]]}, {"name": "normal_bn_1_1", "class_name": "BatchNormalization", "config": {"name": "normal_bn_1_1", "trainable": false, "axis": -1, "momentum": 0.9997, "epsilon": 0.001, "center": true, "scale": true, "beta_initializer": {"class_name": "Zeros", "config": {}}, "gamma_initializer": {"class_name": "Ones", "config": {}}, "moving_mean_initializer": {"class_name": "Zeros", "config": {}}, "moving_variance_initializer": {"class_name": "Ones", "config": {}}, "beta_regularizer": null, "gamma_regularizer": null, "beta_constraint": null, "gamma_constraint": null}, "inbound_nodes": [[["normal_conv_1_1", 0, 0, {}]]]}, {"name": "activation_333", "class_name": "Activation", "config": {"name": "activation_333", "trainable": false, "activation": "relu"}, "inbound_nodes": [[["normal_bn_1_1", 0, 0, {}]]]}, {"name": "activation_335", "class_name": "Activation", "config": {"name": "activation_335", "trainable": false, "activation": "relu"}, "inbound_nodes": [[["adjust_bn_1", 0, 0, {}]]]}, {"name": "activation_337", "class_name": "Activation", "config": {"name": "activation_337", "trainable": false, "activation": "relu"}, "inbound_nodes": [[["adjust_bn_1", 0, 0, {}]]]}, {"name": "activation_339", "class_name": "Activation", "config": {"name": "activation_339", "trainable": false, "activation": "relu"}, "inbound_nodes": [[["adjust_bn_1", 0, 0, {}]]]}, {"name": "activation_341", "class_name": "Activation", "config": {"name": "activation_341", "trainable": false, "activation": "relu"}, "inbound_nodes": [[["normal_bn_1_1", 0, 0, {}]]]}, {"name": "separable_conv_1_normal_left1_1", "class_name": "SeparableConv2D", "config": {"name": "separable_conv_1_normal_left1_1", "trainable": false, "filters": 44, "kernel_size": [5, 5], "strides": [1, 1], "padding": "same", "data_format": "channels_last", "dilation_rate": [1, 1], "activation": "linear", "use_bias": false, "bias_initializer": {"class_name": "Zeros", "config": {}}, "bias_regularizer": null, "activity_regularizer": null, "bias_constraint": null, "depth_multiplier": 1, "depthwise_initializer": {"class_name": "VarianceScaling", "config": {"scale": 1.0, "mode": "fan_avg", "distribution": "uniform", "seed": null}}, "pointwise_initializer": {"class_name": "VarianceScaling", "config": {"scale": 1.0, "mode": "fan_avg", "distribution": "uniform", "seed": null}}, "depthwise_regularizer": null, "pointwise_regularizer": null, "depthwise_constraint": null, "pointwise_constraint": null}, "inbound_nodes": [[["activation_333", 0, 0, {}]]]}, {"name": "separable_conv_1_normal_right1_1", "class_name": "SeparableConv2D", "config": {"name": "separable_conv_1_normal_right1_1", "trainable": false, "filters": 44, "kernel_size": [3, 3], "strides": [1, 1], "padding": "same", "data_format": "channels_last", "dilation_rate": [1, 1], "activation": "linear", "use_bias": false, "bias_initializer": {"class_name": "Zeros", "config": {}}, "bias_regularizer": null, "activity_regularizer": null, "bias_constraint": null, "depth_multiplier": 1, "depthwise_initializer": {"class_name": "VarianceScaling", "config": {"scale": 1.0, "mode": "fan_avg", "distribution": "uniform", "seed": null}}, "pointwise_initializer": {"class_name": "VarianceScaling", "config": {"scale": 1.0, "mode": "fan_avg", "distribution": "uniform", "seed": null}}, "depthwise_regularizer": null, "pointwise_regularizer": null, "depthwise_constraint": null, "pointwise_constraint": null}, "inbound_nodes": [[["activation_335", 0, 0, {}]]]}, {"name": "separable_conv_1_normal_left2_1", "class_name": "SeparableConv2D", "config": {"name": "separable_conv_1_normal_left2_1", "trainable": false, "filters": 44, "kernel_size": [5, 5], "strides": [1, 1], "padding": "same", "data_format": "channels_last", "dilation_rate": [1, 1], "activation": "linear", "use_bias": false, "bias_initializer": {"class_name": "Zeros", "config": {}}, "bias_regularizer": null, "activity_regularizer": null, "bias_constraint": null, "depth_multiplier": 1, "depthwise_initializer": {"class_name": "VarianceScaling", "config": {"scale": 1.0, "mode": "fan_avg", "distribution": "uniform", "seed": null}}, "pointwise_initializer": {"class_name": "VarianceScaling", "config": {"scale": 1.0, "mode": "fan_avg", "distribution": "uniform", "seed": null}}, "depthwise_regularizer": null, "pointwise_regularizer": null, "depthwise_constraint": null, "pointwise_constraint": null}, "inbound_nodes": [[["activation_337", 0, 0, {}]]]}, {"name": "separable_conv_1_normal_right2_1", "class_name": "SeparableConv2D", "config": {"name": "separable_conv_1_normal_right2_1", "trainable": false, "filters": 44, "kernel_size": [3, 3], "strides": [1, 1], "padding": "same", "data_format": "channels_last", "dilation_rate": [1, 1], "activation": "linear", "use_bias": false, "bias_initializer": {"class_name": "Zeros", "config": {}}, "bias_regularizer": null, "activity_regularizer": null, "bias_constraint": null, "depth_multiplier": 1, "depthwise_initializer": {"class_name": "VarianceScaling", "config": {"scale": 1.0, "mode": "fan_avg", "distribution": "uniform", "seed": null}}, "pointwise_initializer": {"class_name": "VarianceScaling", "config": {"scale": 1.0, "mode": "fan_avg", "distribution": "uniform", "seed": null}}, "depthwise_regularizer": null, "pointwise_regularizer": null, "depthwise_constraint": null, "pointwise_constraint": null}, "inbound_nodes": [[["activation_339", 0, 0, {}]]]}, {"name": "separable_conv_1_normal_left5_1", "class_name": "SeparableConv2D", "config": {"name": "separable_conv_1_normal_left5_1", "trainable": false, "filters": 44, "kernel_size": [3, 3], "strides": [1, 1], "padding": "same", "data_format": "channels_last", "dilation_rate": [1, 1], "activation": "linear", "use_bias": false, "bias_initializer": {"class_name": "Zeros", "config": {}}, "bias_regularizer": null, "activity_regularizer": null, "bias_constraint": null, "depth_multiplier": 1, "depthwise_initializer": {"class_name": "VarianceScaling", "config": {"scale": 1.0, "mode": "fan_avg", "distribution": "uniform", "seed": null}}, "pointwise_initializer": {"class_name": "VarianceScaling", "config": {"scale": 1.0, "mode": "fan_avg", "distribution": "uniform", "seed": null}}, "depthwise_regularizer": null, "pointwise_regularizer": null, "depthwise_constraint": null, "pointwise_constraint": null}, "inbound_nodes": [[["activation_341", 0, 0, {}]]]}, {"name": "separable_conv_1_bn_normal_left1_1", "class_name": "BatchNormalization", "config": {"name": "separable_conv_1_bn_normal_left1_1", "trainable": false, "axis": -1, "momentum": 0.9997, "epsilon": 0.001, "center": true, "scale": true, "beta_initializer": {"class_name": "Zeros", "config": {}}, "gamma_initializer": {"class_name": "Ones", "config": {}}, "moving_mean_initializer": {"class_name": "Zeros", "config": {}}, "moving_variance_initializer": {"class_name": "Ones", "config": {}}, "beta_regularizer": null, "gamma_regularizer": null, "beta_constraint": null, "gamma_constraint": null}, "inbound_nodes": [[["separable_conv_1_normal_left1_1", 0, 0, {}]]]}, {"name": "separable_conv_1_bn_normal_right1_1", "class_name": "BatchNormalization", "config": {"name": "separable_conv_1_bn_normal_right1_1", "trainable": false, "axis": -1, "momentum": 0.9997, "epsilon": 0.001, "center": true, "scale": true, "beta_initializer": {"class_name": "Zeros", "config": {}}, "gamma_initializer": {"class_name": "Ones", "config": {}}, "moving_mean_initializer": {"class_name": "Zeros", "config": {}}, "moving_variance_initializer": {"class_name": "Ones", "config": {}}, "beta_regularizer": null, "gamma_regularizer": null, "beta_constraint": null, "gamma_constraint": null}, "inbound_nodes": [[["separable_conv_1_normal_right1_1", 0, 0, {}]]]}, {"name": "separable_conv_1_bn_normal_left2_1", "class_name": "BatchNormalization", "config": {"name": "separable_conv_1_bn_normal_left2_1", "trainable": false, "axis": -1, "momentum": 0.9997, "epsilon": 0.001, "center": true, "scale": true, "beta_initializer": {"class_name": "Zeros", "config": {}}, "gamma_initializer": {"class_name": "Ones", "config": {}}, "moving_mean_initializer": {"class_name": "Zeros", "config": {}}, "moving_variance_initializer": {"class_name": "Ones", "config": {}}, "beta_regularizer": null, "gamma_regularizer": null, "beta_constraint": null, "gamma_constraint": null}, "inbound_nodes": [[["separable_conv_1_normal_left2_1", 0, 0, {}]]]}, {"name": "separable_conv_1_bn_normal_right2_1", "class_name": "BatchNormalization", "config": {"name": "separable_conv_1_bn_normal_right2_1", "trainable": false, "axis": -1, "momentum": 0.9997, "epsilon": 0.001, "center": true, "scale": true, "beta_initializer": {"class_name": "Zeros", "config": {}}, "gamma_initializer": {"class_name": "Ones", "config": {}}, "moving_mean_initializer": {"class_name": "Zeros", "config": {}}, "moving_variance_initializer": {"class_name": "Ones", "config": {}}, "beta_regularizer": null, "gamma_regularizer": null, "beta_constraint": null, "gamma_constraint": null}, "inbound_nodes": [[["separable_conv_1_normal_right2_1", 0, 0, {}]]]}, {"name": "separable_conv_1_bn_normal_left5_1", "class_name": "BatchNormalization", "config": {"name": "separable_conv_1_bn_normal_left5_1", "trainable": false, "axis": -1, "momentum": 0.9997, "epsilon": 0.001, "center": true, "scale": true, "beta_initializer": {"class_name": "Zeros", "config": {}}, "gamma_initializer": {"class_name": "Ones", "config": {}}, "moving_mean_initializer": {"class_name": "Zeros", "config": {}}, "moving_variance_initializer": {"class_name": "Ones", "config": {}}, "beta_regularizer": null, "gamma_regularizer": null, "beta_constraint": null, "gamma_constraint": null}, "inbound_nodes": [[["separable_conv_1_normal_left5_1", 0, 0, {}]]]}, {"name": "activation_334", "class_name": "Activation", "config": {"name": "activation_334", "trainable": false, "activation": "relu"}, "inbound_nodes": [[["separable_conv_1_bn_normal_left1_1", 0, 0, {}]]]}, {"name": "activation_336", "class_name": "Activation", "config": {"name": "activation_336", "trainable": false, "activation": "relu"}, "inbound_nodes": [[["separable_conv_1_bn_normal_right1_1", 0, 0, {}]]]}, {"name": "activation_338", "class_name": "Activation", "config": {"name": "activation_338", "trainable": false, "activation": "relu"}, "inbound_nodes": [[["separable_conv_1_bn_normal_left2_1", 0, 0, {}]]]}, {"name": "activation_340", "class_name": "Activation", "config": {"name": "activation_340", "trainable": false, "activation": "relu"}, "inbound_nodes": [[["separable_conv_1_bn_normal_right2_1", 0, 0, {}]]]}, {"name": "activation_342", "class_name": "Activation", "config": {"name": "activation_342", "trainable": false, "activation": "relu"}, "inbound_nodes": [[["separable_conv_1_bn_normal_left5_1", 0, 0, {}]]]}, {"name": "separable_conv_2_normal_left1_1", "class_name": "SeparableConv2D", "config": {"name": "separable_conv_2_normal_left1_1", "trainable": false, "filters": 44, "kernel_size": [5, 5], "strides": [1, 1], "padding": "same", "data_format": "channels_last", "dilation_rate": [1, 1], "activation": "linear", "use_bias": false, "bias_initializer": {"class_name": "Zeros", "config": {}}, "bias_regularizer": null, "activity_regularizer": null, "bias_constraint": null, "depth_multiplier": 1, "depthwise_initializer": {"class_name": "VarianceScaling", "config": {"scale": 1.0, "mode": "fan_avg", "distribution": "uniform", "seed": null}}, "pointwise_initializer": {"class_name": "VarianceScaling", "config": {"scale": 1.0, "mode": "fan_avg", "distribution": "uniform", "seed": null}}, "depthwise_regularizer": null, "pointwise_regularizer": null, "depthwise_constraint": null, "pointwise_constraint": null}, "inbound_nodes": [[["activation_334", 0, 0, {}]]]}, {"name": "separable_conv_2_normal_right1_1", "class_name": "SeparableConv2D", "config": {"name": "separable_conv_2_normal_right1_1", "trainable": false, "filters": 44, "kernel_size": [3, 3], "strides": [1, 1], "padding": "same", "data_format": "channels_last", "dilation_rate": [1, 1], "activation": "linear", "use_bias": false, "bias_initializer": {"class_name": "Zeros", "config": {}}, "bias_regularizer": null, "activity_regularizer": null, "bias_constraint": null, "depth_multiplier": 1, "depthwise_initializer": {"class_name": "VarianceScaling", "config": {"scale": 1.0, "mode": "fan_avg", "distribution": "uniform", "seed": null}}, "pointwise_initializer": {"class_name": "VarianceScaling", "config": {"scale": 1.0, "mode": "fan_avg", "distribution": "uniform", "seed": null}}, "depthwise_regularizer": null, "pointwise_regularizer": null, "depthwise_constraint": null, "pointwise_constraint": null}, "inbound_nodes": [[["activation_336", 0, 0, {}]]]}, {"name": "separable_conv_2_normal_left2_1", "class_name": "SeparableConv2D", "config": {"name": "separable_conv_2_normal_left2_1", "trainable": false, "filters": 44, "kernel_size": [5, 5], "strides": [1, 1], "padding": "same", "data_format": "channels_last", "dilation_rate": [1, 1], "activation": "linear", "use_bias": false, "bias_initializer": {"class_name": "Zeros", "config": {}}, "bias_regularizer": null, "activity_regularizer": null, "bias_constraint": null, "depth_multiplier": 1, "depthwise_initializer": {"class_name": "VarianceScaling", "config": {"scale": 1.0, "mode": "fan_avg", "distribution": "uniform", "seed": null}}, "pointwise_initializer": {"class_name": "VarianceScaling", "config": {"scale": 1.0, "mode": "fan_avg", "distribution": "uniform", "seed": null}}, "depthwise_regularizer": null, "pointwise_regularizer": null, "depthwise_constraint": null, "pointwise_constraint": null}, "inbound_nodes": [[["activation_338", 0, 0, {}]]]}, {"name": "separable_conv_2_normal_right2_1", "class_name": "SeparableConv2D", "config": {"name": "separable_conv_2_normal_right2_1", "trainable": false, "filters": 44, "kernel_size": [3, 3], "strides": [1, 1], "padding": "same", "data_format": "channels_last", "dilation_rate": [1, 1], "activation": "linear", "use_bias": false, "bias_initializer": {"class_name": "Zeros", "config": {}}, "bias_regularizer": null, "activity_regularizer": null, "bias_constraint": null, "depth_multiplier": 1, "depthwise_initializer": {"class_name": "VarianceScaling", "config": {"scale": 1.0, "mode": "fan_avg", "distribution": "uniform", "seed": null}}, "pointwise_initializer": {"class_name": "VarianceScaling", "config": {"scale": 1.0, "mode": "fan_avg", "distribution": "uniform", "seed": null}}, "depthwise_regularizer": null, "pointwise_regularizer": null, "depthwise_constraint": null, "pointwise_constraint": null}, "inbound_nodes": [[["activation_340", 0, 0, {}]]]}, {"name": "separable_conv_2_normal_left5_1", "class_name": "SeparableConv2D", "config": {"name": "separable_conv_2_normal_left5_1", "trainable": false, "filters": 44, "kernel_size": [3, 3], "strides": [1, 1], "padding": "same", "data_format": "channels_last", "dilation_rate": [1, 1], "activation": "linear", "use_bias": false, "bias_initializer": {"class_name": "Zeros", "config": {}}, "bias_regularizer": null, "activity_regularizer": null, "bias_constraint": null, "depth_multiplier": 1, "depthwise_initializer": {"class_name": "VarianceScaling", "config": {"scale": 1.0, "mode": "fan_avg", "distribution": "uniform", "seed": null}}, "pointwise_initializer": {"class_name": "VarianceScaling", "config": {"scale": 1.0, "mode": "fan_avg", "distribution": "uniform", "seed": null}}, "depthwise_regularizer": null, "pointwise_regularizer": null, "depthwise_constraint": null, "pointwise_constraint": null}, "inbound_nodes": [[["activation_342", 0, 0, {}]]]}, {"name": "separable_conv_2_bn_normal_left1_1", "class_name": "BatchNormalization", "config": {"name": "separable_conv_2_bn_normal_left1_1", "trainable": false, "axis": -1, "momentum": 0.9997, "epsilon": 0.001, "center": true, "scale": true, "beta_initializer": {"class_name": "Zeros", "config": {}}, "gamma_initializer": {"class_name": "Ones", "config": {}}, "moving_mean_initializer": {"class_name": "Zeros", "config": {}}, "moving_variance_initializer": {"class_name": "Ones", "config": {}}, "beta_regularizer": null, "gamma_regularizer": null, "beta_constraint": null, "gamma_constraint": null}, "inbound_nodes": [[["separable_conv_2_normal_left1_1", 0, 0, {}]]]}, {"name": "separable_conv_2_bn_normal_right1_1", "class_name": "BatchNormalization", "config": {"name": "separable_conv_2_bn_normal_right1_1", "trainable": false, "axis": -1, "momentum": 0.9997, "epsilon": 0.001, "center": true, "scale": true, "beta_initializer": {"class_name": "Zeros", "config": {}}, "gamma_initializer": {"class_name": "Ones", "config": {}}, "moving_mean_initializer": {"class_name": "Zeros", "config": {}}, "moving_variance_initializer": {"class_name": "Ones", "config": {}}, "beta_regularizer": null, "gamma_regularizer": null, "beta_constraint": null, "gamma_constraint": null}, "inbound_nodes": [[["separable_conv_2_normal_right1_1", 0, 0, {}]]]}, {"name": "separable_conv_2_bn_normal_left2_1", "class_name": "BatchNormalization", "config": {"name": "separable_conv_2_bn_normal_left2_1", "trainable": false, "axis": -1, "momentum": 0.9997, "epsilon": 0.001, "center": true, "scale": true, "beta_initializer": {"class_name": "Zeros", "config": {}}, "gamma_initializer": {"class_name": "Ones", "config": {}}, "moving_mean_initializer": {"class_name": "Zeros", "config": {}}, "moving_variance_initializer": {"class_name": "Ones", "config": {}}, "beta_regularizer": null, "gamma_regularizer": null, "beta_constraint": null, "gamma_constraint": null}, "inbound_nodes": [[["separable_conv_2_normal_left2_1", 0, 0, {}]]]}, {"name": "separable_conv_2_bn_normal_right2_1", "class_name": "BatchNormalization", "config": {"name": "separable_conv_2_bn_normal_right2_1", "trainable": false, "axis": -1, "momentum": 0.9997, "epsilon": 0.001, "center": true, "scale": true, "beta_initializer": {"class_name": "Zeros", "config": {}}, "gamma_initializer": {"class_name": "Ones", "config": {}}, "moving_mean_initializer": {"class_name": "Zeros", "config": {}}, "moving_variance_initializer": {"class_name": "Ones", "config": {}}, "beta_regularizer": null, "gamma_regularizer": null, "beta_constraint": null, "gamma_constraint": null}, "inbound_nodes": [[["separable_conv_2_normal_right2_1", 0, 0, {}]]]}, {"name": "normal_left3_1", "class_name": "AveragePooling2D", "config": {"name": "normal_left3_1", "trainable": false, "pool_size": [3, 3], "padding": "same", "strides": [1, 1], "data_format": "channels_last"}, "inbound_nodes": [[["normal_bn_1_1", 0, 0, {}]]]}, {"name": "normal_left4_1", "class_name": "AveragePooling2D", "config": {"name": "normal_left4_1", "trainable": false, "pool_size": [3, 3], "padding": "same", "strides": [1, 1], "data_format": "channels_last"}, "inbound_nodes": [[["adjust_bn_1", 0, 0, {}]]]}, {"name": "normal_right4_1", "class_name": "AveragePooling2D", "config": {"name": "normal_right4_1", "trainable": false, "pool_size": [3, 3], "padding": "same", "strides": [1, 1], "data_format": "channels_last"}, "inbound_nodes": [[["adjust_bn_1", 0, 0, {}]]]}, {"name": "separable_conv_2_bn_normal_left5_1", "class_name": "BatchNormalization", "config": {"name": "separable_conv_2_bn_normal_left5_1", "trainable": false, "axis": -1, "momentum": 0.9997, "epsilon": 0.001, "center": true, "scale": true, "beta_initializer": {"class_name": "Zeros", "config": {}}, "gamma_initializer": {"class_name": "Ones", "config": {}}, "moving_mean_initializer": {"class_name": "Zeros", "config": {}}, "moving_variance_initializer": {"class_name": "Ones", "config": {}}, "beta_regularizer": null, "gamma_regularizer": null, "beta_constraint": null, "gamma_constraint": null}, "inbound_nodes": [[["separable_conv_2_normal_left5_1", 0, 0, {}]]]}, {"name": "normal_add_1_1", "class_name": "Add", "config": {"name": "normal_add_1_1", "trainable": false}, "inbound_nodes": [[["separable_conv_2_bn_normal_left1_1", 0, 0, {}], ["separable_conv_2_bn_normal_right1_1", 0, 0, {}]]]}, {"name": "normal_add_2_1", "class_name": "Add", "config": {"name": "normal_add_2_1", "trainable": false}, "inbound_nodes": [[["separable_conv_2_bn_normal_left2_1", 0, 0, {}], ["separable_conv_2_bn_normal_right2_1", 0, 0, {}]]]}, {"name": "normal_add_3_1", "class_name": "Add", "config": {"name": "normal_add_3_1", "trainable": false}, "inbound_nodes": [[["normal_left3_1", 0, 0, {}], ["adjust_bn_1", 0, 0, {}]]]}, {"name": "normal_add_4_1", "class_name": "Add", "config": {"name": "normal_add_4_1", "trainable": false}, "inbound_nodes": [[["normal_left4_1", 0, 0, {}], ["normal_right4_1", 0, 0, {}]]]}, {"name": "normal_add_5_1", "class_name": "Add", "config": {"name": "normal_add_5_1", "trainable": false}, "inbound_nodes": [[["separable_conv_2_bn_normal_left5_1", 0, 0, {}], ["normal_bn_1_1", 0, 0, {}]]]}, {"name": "normal_concat_1", "class_name": "Concatenate", "config": {"name": "normal_concat_1", "trainable": false, "axis": -1}, "inbound_nodes": [[["adjust_bn_1", 0, 0, {}], ["normal_add_1_1", 0, 0, {}], ["normal_add_2_1", 0, 0, {}], ["normal_add_3_1", 0, 0, {}], ["normal_add_4_1", 0, 0, {}], ["normal_add_5_1", 0, 0, {}]]]}, {"name": "activation_343", "class_name": "Activation", "config": {"name": "activation_343", "trainable": false, "activation": "relu"}, "inbound_nodes": [[["normal_concat_0", 0, 0, {}]]]}, {"name": "activation_344", "class_name": "Activation", "config": {"name": "activation_344", "trainable": false, "activation": "relu"}, "inbound_nodes": [[["normal_concat_1", 0, 0, {}]]]}, {"name": "adjust_conv_projection_2", "class_name": "Conv2D", "config": {"name": "adjust_conv_projection_2", "trainable": false, "filters": 44, "kernel_size": [1, 1], "strides": [1, 1], "padding": "same", "data_format": "channels_last", "dilation_rate": [1, 1], "activation": "linear", "use_bias": false, "kernel_initializer": {"class_name": "VarianceScaling", "config": {"scale": 2.0, "mode": "fan_in", "distribution": "normal", "seed": null}}, "bias_initializer": {"class_name": "Zeros", "config": {}}, "kernel_regularizer": null, "bias_regularizer": null, "activity_regularizer": null, "kernel_constraint": null, "bias_constraint": null}, "inbound_nodes": [[["activation_343", 0, 0, {}]]]}, {"name": "normal_conv_1_2", "class_name": "Conv2D", "config": {"name": "normal_conv_1_2", "trainable": false, "filters": 44, "kernel_size": [1, 1], "strides": [1, 1], "padding": "same", "data_format": "channels_last", "dilation_rate": [1, 1], "activation": "linear", "use_bias": false, "kernel_initializer": {"class_name": "VarianceScaling", "config": {"scale": 2.0, "mode": "fan_in", "distribution": "normal", "seed": null}}, "bias_initializer": {"class_name": "Zeros", "config": {}}, "kernel_regularizer": null, "bias_regularizer": null, "activity_regularizer": null, "kernel_constraint": null, "bias_constraint": null}, "inbound_nodes": [[["activation_344", 0, 0, {}]]]}, {"name": "adjust_bn_2", "class_name": "BatchNormalization", "config": {"name": "adjust_bn_2", "trainable": false, "axis": -1, "momentum": 0.9997, "epsilon": 0.001, "center": true, "scale": true, "beta_initializer": {"class_name": "Zeros", "config": {}}, "gamma_initializer": {"class_name": "Ones", "config": {}}, "moving_mean_initializer": {"class_name": "Zeros", "config": {}}, "moving_variance_initializer": {"class_name": "Ones", "config": {}}, "beta_regularizer": null, "gamma_regularizer": null, "beta_constraint": null, "gamma_constraint": null}, "inbound_nodes": [[["adjust_conv_projection_2", 0, 0, {}]]]}, {"name": "normal_bn_1_2", "class_name": "BatchNormalization", "config": {"name": "normal_bn_1_2", "trainable": false, "axis": -1, "momentum": 0.9997, "epsilon": 0.001, "center": true, "scale": true, "beta_initializer": {"class_name": "Zeros", "config": {}}, "gamma_initializer": {"class_name": "Ones", "config": {}}, "moving_mean_initializer": {"class_name": "Zeros", "config": {}}, "moving_variance_initializer": {"class_name": "Ones", "config": {}}, "beta_regularizer": null, "gamma_regularizer": null, "beta_constraint": null, "gamma_constraint": null}, "inbound_nodes": [[["normal_conv_1_2", 0, 0, {}]]]}, {"name": "activation_345", "class_name": "Activation", "config": {"name": "activation_345", "trainable": false, "activation": "relu"}, "inbound_nodes": [[["normal_bn_1_2", 0, 0, {}]]]}, {"name": "activation_347", "class_name": "Activation", "config": {"name": "activation_347", "trainable": false, "activation": "relu"}, "inbound_nodes": [[["adjust_bn_2", 0, 0, {}]]]}, {"name": "activation_349", "class_name": "Activation", "config": {"name": "activation_349", "trainable": false, "activation": "relu"}, "inbound_nodes": [[["adjust_bn_2", 0, 0, {}]]]}, {"name": "activation_351", "class_name": "Activation", "config": {"name": "activation_351", "trainable": false, "activation": "relu"}, "inbound_nodes": [[["adjust_bn_2", 0, 0, {}]]]}, {"name": "activation_353", "class_name": "Activation", "config": {"name": "activation_353", "trainable": false, "activation": "relu"}, "inbound_nodes": [[["normal_bn_1_2", 0, 0, {}]]]}, {"name": "separable_conv_1_normal_left1_2", "class_name": "SeparableConv2D", "config": {"name": "separable_conv_1_normal_left1_2", "trainable": false, "filters": 44, "kernel_size": [5, 5], "strides": [1, 1], "padding": "same", "data_format": "channels_last", "dilation_rate": [1, 1], "activation": "linear", "use_bias": false, "bias_initializer": {"class_name": "Zeros", "config": {}}, "bias_regularizer": null, "activity_regularizer": null, "bias_constraint": null, "depth_multiplier": 1, "depthwise_initializer": {"class_name": "VarianceScaling", "config": {"scale": 1.0, "mode": "fan_avg", "distribution": "uniform", "seed": null}}, "pointwise_initializer": {"class_name": "VarianceScaling", "config": {"scale": 1.0, "mode": "fan_avg", "distribution": "uniform", "seed": null}}, "depthwise_regularizer": null, "pointwise_regularizer": null, "depthwise_constraint": null, "pointwise_constraint": null}, "inbound_nodes": [[["activation_345", 0, 0, {}]]]}, {"name": "separable_conv_1_normal_right1_2", "class_name": "SeparableConv2D", "config": {"name": "separable_conv_1_normal_right1_2", "trainable": false, "filters": 44, "kernel_size": [3, 3], "strides": [1, 1], "padding": "same", "data_format": "channels_last", "dilation_rate": [1, 1], "activation": "linear", "use_bias": false, "bias_initializer": {"class_name": "Zeros", "config": {}}, "bias_regularizer": null, "activity_regularizer": null, "bias_constraint": null, "depth_multiplier": 1, "depthwise_initializer": {"class_name": "VarianceScaling", "config": {"scale": 1.0, "mode": "fan_avg", "distribution": "uniform", "seed": null}}, "pointwise_initializer": {"class_name": "VarianceScaling", "config": {"scale": 1.0, "mode": "fan_avg", "distribution": "uniform", "seed": null}}, "depthwise_regularizer": null, "pointwise_regularizer": null, "depthwise_constraint": null, "pointwise_constraint": null}, "inbound_nodes": [[["activation_347", 0, 0, {}]]]}, {"name": "separable_conv_1_normal_left2_2", "class_name": "SeparableConv2D", "config": {"name": "separable_conv_1_normal_left2_2", "trainable": false, "filters": 44, "kernel_size": [5, 5], "strides": [1, 1], "padding": "same", "data_format": "channels_last", "dilation_rate": [1, 1], "activation": "linear", "use_bias": false, "bias_initializer": {"class_name": "Zeros", "config": {}}, "bias_regularizer": null, "activity_regularizer": null, "bias_constraint": null, "depth_multiplier": 1, "depthwise_initializer": {"class_name": "VarianceScaling", "config": {"scale": 1.0, "mode": "fan_avg", "distribution": "uniform", "seed": null}}, "pointwise_initializer": {"class_name": "VarianceScaling", "config": {"scale": 1.0, "mode": "fan_avg", "distribution": "uniform", "seed": null}}, "depthwise_regularizer": null, "pointwise_regularizer": null, "depthwise_constraint": null, "pointwise_constraint": null}, "inbound_nodes": [[["activation_349", 0, 0, {}]]]}, {"name": "separable_conv_1_normal_right2_2", "class_name": "SeparableConv2D", "config": {"name": "separable_conv_1_normal_right2_2", "trainable": false, "filters": 44, "kernel_size": [3, 3], "strides": [1, 1], "padding": "same", "data_format": "channels_last", "dilation_rate": [1, 1], "activation": "linear", "use_bias": false, "bias_initializer": {"class_name": "Zeros", "config": {}}, "bias_regularizer": null, "activity_regularizer": null, "bias_constraint": null, "depth_multiplier": 1, "depthwise_initializer": {"class_name": "VarianceScaling", "config": {"scale": 1.0, "mode": "fan_avg", "distribution": "uniform", "seed": null}}, "pointwise_initializer": {"class_name": "VarianceScaling", "config": {"scale": 1.0, "mode": "fan_avg", "distribution": "uniform", "seed": null}}, "depthwise_regularizer": null, "pointwise_regularizer": null, "depthwise_constraint": null, "pointwise_constraint": null}, "inbound_nodes": [[["activation_351", 0, 0, {}]]]}, {"name": "separable_conv_1_normal_left5_2", "class_name": "SeparableConv2D", "config": {"name": "separable_conv_1_normal_left5_2", "trainable": false, "filters": 44, "kernel_size": [3, 3], "strides": [1, 1], "padding": "same", "data_format": "channels_last", "dilation_rate": [1, 1], "activation": "linear", "use_bias": false, "bias_initializer": {"class_name": "Zeros", "config": {}}, "bias_regularizer": null, "activity_regularizer": null, "bias_constraint": null, "depth_multiplier": 1, "depthwise_initializer": {"class_name": "VarianceScaling", "config": {"scale": 1.0, "mode": "fan_avg", "distribution": "uniform", "seed": null}}, "pointwise_initializer": {"class_name": "VarianceScaling", "config": {"scale": 1.0, "mode": "fan_avg", "distribution": "uniform", "seed": null}}, "depthwise_regularizer": null, "pointwise_regularizer": null, "depthwise_constraint": null, "pointwise_constraint": null}, "inbound_nodes": [[["activation_353", 0, 0, {}]]]}, {"name": "separable_conv_1_bn_normal_left1_2", "class_name": "BatchNormalization", "config": {"name": "separable_conv_1_bn_normal_left1_2", "trainable": false, "axis": -1, "momentum": 0.9997, "epsilon": 0.001, "center": true, "scale": true, "beta_initializer": {"class_name": "Zeros", "config": {}}, "gamma_initializer": {"class_name": "Ones", "config": {}}, "moving_mean_initializer": {"class_name": "Zeros", "config": {}}, "moving_variance_initializer": {"class_name": "Ones", "config": {}}, "beta_regularizer": null, "gamma_regularizer": null, "beta_constraint": null, "gamma_constraint": null}, "inbound_nodes": [[["separable_conv_1_normal_left1_2", 0, 0, {}]]]}, {"name": "separable_conv_1_bn_normal_right1_2", "class_name": "BatchNormalization", "config": {"name": "separable_conv_1_bn_normal_right1_2", "trainable": false, "axis": -1, "momentum": 0.9997, "epsilon": 0.001, "center": true, "scale": true, "beta_initializer": {"class_name": "Zeros", "config": {}}, "gamma_initializer": {"class_name": "Ones", "config": {}}, "moving_mean_initializer": {"class_name": "Zeros", "config": {}}, "moving_variance_initializer": {"class_name": "Ones", "config": {}}, "beta_regularizer": null, "gamma_regularizer": null, "beta_constraint": null, "gamma_constraint": null}, "inbound_nodes": [[["separable_conv_1_normal_right1_2", 0, 0, {}]]]}, {"name": "separable_conv_1_bn_normal_left2_2", "class_name": "BatchNormalization", "config": {"name": "separable_conv_1_bn_normal_left2_2", "trainable": false, "axis": -1, "momentum": 0.9997, "epsilon": 0.001, "center": true, "scale": true, "beta_initializer": {"class_name": "Zeros", "config": {}}, "gamma_initializer": {"class_name": "Ones", "config": {}}, "moving_mean_initializer": {"class_name": "Zeros", "config": {}}, "moving_variance_initializer": {"class_name": "Ones", "config": {}}, "beta_regularizer": null, "gamma_regularizer": null, "beta_constraint": null, "gamma_constraint": null}, "inbound_nodes": [[["separable_conv_1_normal_left2_2", 0, 0, {}]]]}, {"name": "separable_conv_1_bn_normal_right2_2", "class_name": "BatchNormalization", "config": {"name": "separable_conv_1_bn_normal_right2_2", "trainable": false, "axis": -1, "momentum": 0.9997, "epsilon": 0.001, "center": true, "scale": true, "beta_initializer": {"class_name": "Zeros", "config": {}}, "gamma_initializer": {"class_name": "Ones", "config": {}}, "moving_mean_initializer": {"class_name": "Zeros", "config": {}}, "moving_variance_initializer": {"class_name": "Ones", "config": {}}, "beta_regularizer": null, "gamma_regularizer": null, "beta_constraint": null, "gamma_constraint": null}, "inbound_nodes": [[["separable_conv_1_normal_right2_2", 0, 0, {}]]]}, {"name": "separable_conv_1_bn_normal_left5_2", "class_name": "BatchNormalization", "config": {"name": "separable_conv_1_bn_normal_left5_2", "trainable": false, "axis": -1, "momentum": 0.9997, "epsilon": 0.001, "center": true, "scale": true, "beta_initializer": {"class_name": "Zeros", "config": {}}, "gamma_initializer": {"class_name": "Ones", "config": {}}, "moving_mean_initializer": {"class_name": "Zeros", "config": {}}, "moving_variance_initializer": {"class_name": "Ones", "config": {}}, "beta_regularizer": null, "gamma_regularizer": null, "beta_constraint": null, "gamma_constraint": null}, "inbound_nodes": [[["separable_conv_1_normal_left5_2", 0, 0, {}]]]}, {"name": "activation_346", "class_name": "Activation", "config": {"name": "activation_346", "trainable": false, "activation": "relu"}, "inbound_nodes": [[["separable_conv_1_bn_normal_left1_2", 0, 0, {}]]]}, {"name": "activation_348", "class_name": "Activation", "config": {"name": "activation_348", "trainable": false, "activation": "relu"}, "inbound_nodes": [[["separable_conv_1_bn_normal_right1_2", 0, 0, {}]]]}, {"name": "activation_350", "class_name": "Activation", "config": {"name": "activation_350", "trainable": false, "activation": "relu"}, "inbound_nodes": [[["separable_conv_1_bn_normal_left2_2", 0, 0, {}]]]}, {"name": "activation_352", "class_name": "Activation", "config": {"name": "activation_352", "trainable": false, "activation": "relu"}, "inbound_nodes": [[["separable_conv_1_bn_normal_right2_2", 0, 0, {}]]]}, {"name": "activation_354", "class_name": "Activation", "config": {"name": "activation_354", "trainable": false, "activation": "relu"}, "inbound_nodes": [[["separable_conv_1_bn_normal_left5_2", 0, 0, {}]]]}, {"name": "separable_conv_2_normal_left1_2", "class_name": "SeparableConv2D", "config": {"name": "separable_conv_2_normal_left1_2", "trainable": false, "filters": 44, "kernel_size": [5, 5], "strides": [1, 1], "padding": "same", "data_format": "channels_last", "dilation_rate": [1, 1], "activation": "linear", "use_bias": false, "bias_initializer": {"class_name": "Zeros", "config": {}}, "bias_regularizer": null, "activity_regularizer": null, "bias_constraint": null, "depth_multiplier": 1, "depthwise_initializer": {"class_name": "VarianceScaling", "config": {"scale": 1.0, "mode": "fan_avg", "distribution": "uniform", "seed": null}}, "pointwise_initializer": {"class_name": "VarianceScaling", "config": {"scale": 1.0, "mode": "fan_avg", "distribution": "uniform", "seed": null}}, "depthwise_regularizer": null, "pointwise_regularizer": null, "depthwise_constraint": null, "pointwise_constraint": null}, "inbound_nodes": [[["activation_346", 0, 0, {}]]]}, {"name": "separable_conv_2_normal_right1_2", "class_name": "SeparableConv2D", "config": {"name": "separable_conv_2_normal_right1_2", "trainable": false, "filters": 44, "kernel_size": [3, 3], "strides": [1, 1], "padding": "same", "data_format": "channels_last", "dilation_rate": [1, 1], "activation": "linear", "use_bias": false, "bias_initializer": {"class_name": "Zeros", "config": {}}, "bias_regularizer": null, "activity_regularizer": null, "bias_constraint": null, "depth_multiplier": 1, "depthwise_initializer": {"class_name": "VarianceScaling", "config": {"scale": 1.0, "mode": "fan_avg", "distribution": "uniform", "seed": null}}, "pointwise_initializer": {"class_name": "VarianceScaling", "config": {"scale": 1.0, "mode": "fan_avg", "distribution": "uniform", "seed": null}}, "depthwise_regularizer": null, "pointwise_regularizer": null, "depthwise_constraint": null, "pointwise_constraint": null}, "inbound_nodes": [[["activation_348", 0, 0, {}]]]}, {"name": "separable_conv_2_normal_left2_2", "class_name": "SeparableConv2D", "config": {"name": "separable_conv_2_normal_left2_2", "trainable": false, "filters": 44, "kernel_size": [5, 5], "strides": [1, 1], "padding": "same", "data_format": "channels_last", "dilation_rate": [1, 1], "activation": "linear", "use_bias": false, "bias_initializer": {"class_name": "Zeros", "config": {}}, "bias_regularizer": null, "activity_regularizer": null, "bias_constraint": null, "depth_multiplier": 1, "depthwise_initializer": {"class_name": "VarianceScaling", "config": {"scale": 1.0, "mode": "fan_avg", "distribution": "uniform", "seed": null}}, "pointwise_initializer": {"class_name": "VarianceScaling", "config": {"scale": 1.0, "mode": "fan_avg", "distribution": "uniform", "seed": null}}, "depthwise_regularizer": null, "pointwise_regularizer": null, "depthwise_constraint": null, "pointwise_constraint": null}, "inbound_nodes": [[["activation_350", 0, 0, {}]]]}, {"name": "separable_conv_2_normal_right2_2", "class_name": "SeparableConv2D", "config": {"name": "separable_conv_2_normal_right2_2", "trainable": false, "filters": 44, "kernel_size": [3, 3], "strides": [1, 1], "padding": "same", "data_format": "channels_last", "dilation_rate": [1, 1], "activation": "linear", "use_bias": false, "bias_initializer": {"class_name": "Zeros", "config": {}}, "bias_regularizer": null, "activity_regularizer": null, "bias_constraint": null, "depth_multiplier": 1, "depthwise_initializer": {"class_name": "VarianceScaling", "config": {"scale": 1.0, "mode": "fan_avg", "distribution": "uniform", "seed": null}}, "pointwise_initializer": {"class_name": "VarianceScaling", "config": {"scale": 1.0, "mode": "fan_avg", "distribution": "uniform", "seed": null}}, "depthwise_regularizer": null, "pointwise_regularizer": null, "depthwise_constraint": null, "pointwise_constraint": null}, "inbound_nodes": [[["activation_352", 0, 0, {}]]]}, {"name": "separable_conv_2_normal_left5_2", "class_name": "SeparableConv2D", "config": {"name": "separable_conv_2_normal_left5_2", "trainable": false, "filters": 44, "kernel_size": [3, 3], "strides": [1, 1], "padding": "same", "data_format": "channels_last", "dilation_rate": [1, 1], "activation": "linear", "use_bias": false, "bias_initializer": {"class_name": "Zeros", "config": {}}, "bias_regularizer": null, "activity_regularizer": null, "bias_constraint": null, "depth_multiplier": 1, "depthwise_initializer": {"class_name": "VarianceScaling", "config": {"scale": 1.0, "mode": "fan_avg", "distribution": "uniform", "seed": null}}, "pointwise_initializer": {"class_name": "VarianceScaling", "config": {"scale": 1.0, "mode": "fan_avg", "distribution": "uniform", "seed": null}}, "depthwise_regularizer": null, "pointwise_regularizer": null, "depthwise_constraint": null, "pointwise_constraint": null}, "inbound_nodes": [[["activation_354", 0, 0, {}]]]}, {"name": "separable_conv_2_bn_normal_left1_2", "class_name": "BatchNormalization", "config": {"name": "separable_conv_2_bn_normal_left1_2", "trainable": false, "axis": -1, "momentum": 0.9997, "epsilon": 0.001, "center": true, "scale": true, "beta_initializer": {"class_name": "Zeros", "config": {}}, "gamma_initializer": {"class_name": "Ones", "config": {}}, "moving_mean_initializer": {"class_name": "Zeros", "config": {}}, "moving_variance_initializer": {"class_name": "Ones", "config": {}}, "beta_regularizer": null, "gamma_regularizer": null, "beta_constraint": null, "gamma_constraint": null}, "inbound_nodes": [[["separable_conv_2_normal_left1_2", 0, 0, {}]]]}, {"name": "separable_conv_2_bn_normal_right1_2", "class_name": "BatchNormalization", "config": {"name": "separable_conv_2_bn_normal_right1_2", "trainable": false, "axis": -1, "momentum": 0.9997, "epsilon": 0.001, "center": true, "scale": true, "beta_initializer": {"class_name": "Zeros", "config": {}}, "gamma_initializer": {"class_name": "Ones", "config": {}}, "moving_mean_initializer": {"class_name": "Zeros", "config": {}}, "moving_variance_initializer": {"class_name": "Ones", "config": {}}, "beta_regularizer": null, "gamma_regularizer": null, "beta_constraint": null, "gamma_constraint": null}, "inbound_nodes": [[["separable_conv_2_normal_right1_2", 0, 0, {}]]]}, {"name": "separable_conv_2_bn_normal_left2_2", "class_name": "BatchNormalization", "config": {"name": "separable_conv_2_bn_normal_left2_2", "trainable": false, "axis": -1, "momentum": 0.9997, "epsilon": 0.001, "center": true, "scale": true, "beta_initializer": {"class_name": "Zeros", "config": {}}, "gamma_initializer": {"class_name": "Ones", "config": {}}, "moving_mean_initializer": {"class_name": "Zeros", "config": {}}, "moving_variance_initializer": {"class_name": "Ones", "config": {}}, "beta_regularizer": null, "gamma_regularizer": null, "beta_constraint": null, "gamma_constraint": null}, "inbound_nodes": [[["separable_conv_2_normal_left2_2", 0, 0, {}]]]}, {"name": "separable_conv_2_bn_normal_right2_2", "class_name": "BatchNormalization", "config": {"name": "separable_conv_2_bn_normal_right2_2", "trainable": false, "axis": -1, "momentum": 0.9997, "epsilon": 0.001, "center": true, "scale": true, "beta_initializer": {"class_name": "Zeros", "config": {}}, "gamma_initializer": {"class_name": "Ones", "config": {}}, "moving_mean_initializer": {"class_name": "Zeros", "config": {}}, "moving_variance_initializer": {"class_name": "Ones", "config": {}}, "beta_regularizer": null, "gamma_regularizer": null, "beta_constraint": null, "gamma_constraint": null}, "inbound_nodes": [[["separable_conv_2_normal_right2_2", 0, 0, {}]]]}, {"name": "normal_left3_2", "class_name": "AveragePooling2D", "config": {"name": "normal_left3_2", "trainable": false, "pool_size": [3, 3], "padding": "same", "strides": [1, 1], "data_format": "channels_last"}, "inbound_nodes": [[["normal_bn_1_2", 0, 0, {}]]]}, {"name": "normal_left4_2", "class_name": "AveragePooling2D", "config": {"name": "normal_left4_2", "trainable": false, "pool_size": [3, 3], "padding": "same", "strides": [1, 1], "data_format": "channels_last"}, "inbound_nodes": [[["adjust_bn_2", 0, 0, {}]]]}, {"name": "normal_right4_2", "class_name": "AveragePooling2D", "config": {"name": "normal_right4_2", "trainable": false, "pool_size": [3, 3], "padding": "same", "strides": [1, 1], "data_format": "channels_last"}, "inbound_nodes": [[["adjust_bn_2", 0, 0, {}]]]}, {"name": "separable_conv_2_bn_normal_left5_2", "class_name": "BatchNormalization", "config": {"name": "separable_conv_2_bn_normal_left5_2", "trainable": false, "axis": -1, "momentum": 0.9997, "epsilon": 0.001, "center": true, "scale": true, "beta_initializer": {"class_name": "Zeros", "config": {}}, "gamma_initializer": {"class_name": "Ones", "config": {}}, "moving_mean_initializer": {"class_name": "Zeros", "config": {}}, "moving_variance_initializer": {"class_name": "Ones", "config": {}}, "beta_regularizer": null, "gamma_regularizer": null, "beta_constraint": null, "gamma_constraint": null}, "inbound_nodes": [[["separable_conv_2_normal_left5_2", 0, 0, {}]]]}, {"name": "normal_add_1_2", "class_name": "Add", "config": {"name": "normal_add_1_2", "trainable": false}, "inbound_nodes": [[["separable_conv_2_bn_normal_left1_2", 0, 0, {}], ["separable_conv_2_bn_normal_right1_2", 0, 0, {}]]]}, {"name": "normal_add_2_2", "class_name": "Add", "config": {"name": "normal_add_2_2", "trainable": false}, "inbound_nodes": [[["separable_conv_2_bn_normal_left2_2", 0, 0, {}], ["separable_conv_2_bn_normal_right2_2", 0, 0, {}]]]}, {"name": "normal_add_3_2", "class_name": "Add", "config": {"name": "normal_add_3_2", "trainable": false}, "inbound_nodes": [[["normal_left3_2", 0, 0, {}], ["adjust_bn_2", 0, 0, {}]]]}, {"name": "normal_add_4_2", "class_name": "Add", "config": {"name": "normal_add_4_2", "trainable": false}, "inbound_nodes": [[["normal_left4_2", 0, 0, {}], ["normal_right4_2", 0, 0, {}]]]}, {"name": "normal_add_5_2", "class_name": "Add", "config": {"name": "normal_add_5_2", "trainable": false}, "inbound_nodes": [[["separable_conv_2_bn_normal_left5_2", 0, 0, {}], ["normal_bn_1_2", 0, 0, {}]]]}, {"name": "normal_concat_2", "class_name": "Concatenate", "config": {"name": "normal_concat_2", "trainable": false, "axis": -1}, "inbound_nodes": [[["adjust_bn_2", 0, 0, {}], ["normal_add_1_2", 0, 0, {}], ["normal_add_2_2", 0, 0, {}], ["normal_add_3_2", 0, 0, {}], ["normal_add_4_2", 0, 0, {}], ["normal_add_5_2", 0, 0, {}]]]}, {"name": "activation_355", "class_name": "Activation", "config": {"name": "activation_355", "trainable": false, "activation": "relu"}, "inbound_nodes": [[["normal_concat_1", 0, 0, {}]]]}, {"name": "activation_356", "class_name": "Activation", "config": {"name": "activation_356", "trainable": false, "activation": "relu"}, "inbound_nodes": [[["normal_concat_2", 0, 0, {}]]]}, {"name": "adjust_conv_projection_3", "class_name": "Conv2D", "config": {"name": "adjust_conv_projection_3", "trainable": false, "filters": 44, "kernel_size": [1, 1], "strides": [1, 1], "padding": "same", "data_format": "channels_last", "dilation_rate": [1, 1], "activation": "linear", "use_bias": false, "kernel_initializer": {"class_name": "VarianceScaling", "config": {"scale": 2.0, "mode": "fan_in", "distribution": "normal", "seed": null}}, "bias_initializer": {"class_name": "Zeros", "config": {}}, "kernel_regularizer": null, "bias_regularizer": null, "activity_regularizer": null, "kernel_constraint": null, "bias_constraint": null}, "inbound_nodes": [[["activation_355", 0, 0, {}]]]}, {"name": "normal_conv_1_3", "class_name": "Conv2D", "config": {"name": "normal_conv_1_3", "trainable": false, "filters": 44, "kernel_size": [1, 1], "strides": [1, 1], "padding": "same", "data_format": "channels_last", "dilation_rate": [1, 1], "activation": "linear", "use_bias": false, "kernel_initializer": {"class_name": "VarianceScaling", "config": {"scale": 2.0, "mode": "fan_in", "distribution": "normal", "seed": null}}, "bias_initializer": {"class_name": "Zeros", "config": {}}, "kernel_regularizer": null, "bias_regularizer": null, "activity_regularizer": null, "kernel_constraint": null, "bias_constraint": null}, "inbound_nodes": [[["activation_356", 0, 0, {}]]]}, {"name": "adjust_bn_3", "class_name": "BatchNormalization", "config": {"name": "adjust_bn_3", "trainable": false, "axis": -1, "momentum": 0.9997, "epsilon": 0.001, "center": true, "scale": true, "beta_initializer": {"class_name": "Zeros", "config": {}}, "gamma_initializer": {"class_name": "Ones", "config": {}}, "moving_mean_initializer": {"class_name": "Zeros", "config": {}}, "moving_variance_initializer": {"class_name": "Ones", "config": {}}, "beta_regularizer": null, "gamma_regularizer": null, "beta_constraint": null, "gamma_constraint": null}, "inbound_nodes": [[["adjust_conv_projection_3", 0, 0, {}]]]}, {"name": "normal_bn_1_3", "class_name": "BatchNormalization", "config": {"name": "normal_bn_1_3", "trainable": false, "axis": -1, "momentum": 0.9997, "epsilon": 0.001, "center": true, "scale": true, "beta_initializer": {"class_name": "Zeros", "config": {}}, "gamma_initializer": {"class_name": "Ones", "config": {}}, "moving_mean_initializer": {"class_name": "Zeros", "config": {}}, "moving_variance_initializer": {"class_name": "Ones", "config": {}}, "beta_regularizer": null, "gamma_regularizer": null, "beta_constraint": null, "gamma_constraint": null}, "inbound_nodes": [[["normal_conv_1_3", 0, 0, {}]]]}, {"name": "activation_357", "class_name": "Activation", "config": {"name": "activation_357", "trainable": false, "activation": "relu"}, "inbound_nodes": [[["normal_bn_1_3", 0, 0, {}]]]}, {"name": "activation_359", "class_name": "Activation", "config": {"name": "activation_359", "trainable": false, "activation": "relu"}, "inbound_nodes": [[["adjust_bn_3", 0, 0, {}]]]}, {"name": "activation_361", "class_name": "Activation", "config": {"name": "activation_361", "trainable": false, "activation": "relu"}, "inbound_nodes": [[["adjust_bn_3", 0, 0, {}]]]}, {"name": "activation_363", "class_name": "Activation", "config": {"name": "activation_363", "trainable": false, "activation": "relu"}, "inbound_nodes": [[["adjust_bn_3", 0, 0, {}]]]}, {"name": "activation_365", "class_name": "Activation", "config": {"name": "activation_365", "trainable": false, "activation": "relu"}, "inbound_nodes": [[["normal_bn_1_3", 0, 0, {}]]]}, {"name": "separable_conv_1_normal_left1_3", "class_name": "SeparableConv2D", "config": {"name": "separable_conv_1_normal_left1_3", "trainable": false, "filters": 44, "kernel_size": [5, 5], "strides": [1, 1], "padding": "same", "data_format": "channels_last", "dilation_rate": [1, 1], "activation": "linear", "use_bias": false, "bias_initializer": {"class_name": "Zeros", "config": {}}, "bias_regularizer": null, "activity_regularizer": null, "bias_constraint": null, "depth_multiplier": 1, "depthwise_initializer": {"class_name": "VarianceScaling", "config": {"scale": 1.0, "mode": "fan_avg", "distribution": "uniform", "seed": null}}, "pointwise_initializer": {"class_name": "VarianceScaling", "config": {"scale": 1.0, "mode": "fan_avg", "distribution": "uniform", "seed": null}}, "depthwise_regularizer": null, "pointwise_regularizer": null, "depthwise_constraint": null, "pointwise_constraint": null}, "inbound_nodes": [[["activation_357", 0, 0, {}]]]}, {"name": "separable_conv_1_normal_right1_3", "class_name": "SeparableConv2D", "config": {"name": "separable_conv_1_normal_right1_3", "trainable": false, "filters": 44, "kernel_size": [3, 3], "strides": [1, 1], "padding": "same", "data_format": "channels_last", "dilation_rate": [1, 1], "activation": "linear", "use_bias": false, "bias_initializer": {"class_name": "Zeros", "config": {}}, "bias_regularizer": null, "activity_regularizer": null, "bias_constraint": null, "depth_multiplier": 1, "depthwise_initializer": {"class_name": "VarianceScaling", "config": {"scale": 1.0, "mode": "fan_avg", "distribution": "uniform", "seed": null}}, "pointwise_initializer": {"class_name": "VarianceScaling", "config": {"scale": 1.0, "mode": "fan_avg", "distribution": "uniform", "seed": null}}, "depthwise_regularizer": null, "pointwise_regularizer": null, "depthwise_constraint": null, "pointwise_constraint": null}, "inbound_nodes": [[["activation_359", 0, 0, {}]]]}, {"name": "separable_conv_1_normal_left2_3", "class_name": "SeparableConv2D", "config": {"name": "separable_conv_1_normal_left2_3", "trainable": false, "filters": 44, "kernel_size": [5, 5], "strides": [1, 1], "padding": "same", "data_format": "channels_last", "dilation_rate": [1, 1], "activation": "linear", "use_bias": false, "bias_initializer": {"class_name": "Zeros", "config": {}}, "bias_regularizer": null, "activity_regularizer": null, "bias_constraint": null, "depth_multiplier": 1, "depthwise_initializer": {"class_name": "VarianceScaling", "config": {"scale": 1.0, "mode": "fan_avg", "distribution": "uniform", "seed": null}}, "pointwise_initializer": {"class_name": "VarianceScaling", "config": {"scale": 1.0, "mode": "fan_avg", "distribution": "uniform", "seed": null}}, "depthwise_regularizer": null, "pointwise_regularizer": null, "depthwise_constraint": null, "pointwise_constraint": null}, "inbound_nodes": [[["activation_361", 0, 0, {}]]]}, {"name": "separable_conv_1_normal_right2_3", "class_name": "SeparableConv2D", "config": {"name": "separable_conv_1_normal_right2_3", "trainable": false, "filters": 44, "kernel_size": [3, 3], "strides": [1, 1], "padding": "same", "data_format": "channels_last", "dilation_rate": [1, 1], "activation": "linear", "use_bias": false, "bias_initializer": {"class_name": "Zeros", "config": {}}, "bias_regularizer": null, "activity_regularizer": null, "bias_constraint": null, "depth_multiplier": 1, "depthwise_initializer": {"class_name": "VarianceScaling", "config": {"scale": 1.0, "mode": "fan_avg", "distribution": "uniform", "seed": null}}, "pointwise_initializer": {"class_name": "VarianceScaling", "config": {"scale": 1.0, "mode": "fan_avg", "distribution": "uniform", "seed": null}}, "depthwise_regularizer": null, "pointwise_regularizer": null, "depthwise_constraint": null, "pointwise_constraint": null}, "inbound_nodes": [[["activation_363", 0, 0, {}]]]}, {"name": "separable_conv_1_normal_left5_3", "class_name": "SeparableConv2D", "config": {"name": "separable_conv_1_normal_left5_3", "trainable": false, "filters": 44, "kernel_size": [3, 3], "strides": [1, 1], "padding": "same", "data_format": "channels_last", "dilation_rate": [1, 1], "activation": "linear", "use_bias": false, "bias_initializer": {"class_name": "Zeros", "config": {}}, "bias_regularizer": null, "activity_regularizer": null, "bias_constraint": null, "depth_multiplier": 1, "depthwise_initializer": {"class_name": "VarianceScaling", "config": {"scale": 1.0, "mode": "fan_avg", "distribution": "uniform", "seed": null}}, "pointwise_initializer": {"class_name": "VarianceScaling", "config": {"scale": 1.0, "mode": "fan_avg", "distribution": "uniform", "seed": null}}, "depthwise_regularizer": null, "pointwise_regularizer": null, "depthwise_constraint": null, "pointwise_constraint": null}, "inbound_nodes": [[["activation_365", 0, 0, {}]]]}, {"name": "separable_conv_1_bn_normal_left1_3", "class_name": "BatchNormalization", "config": {"name": "separable_conv_1_bn_normal_left1_3", "trainable": false, "axis": -1, "momentum": 0.9997, "epsilon": 0.001, "center": true, "scale": true, "beta_initializer": {"class_name": "Zeros", "config": {}}, "gamma_initializer": {"class_name": "Ones", "config": {}}, "moving_mean_initializer": {"class_name": "Zeros", "config": {}}, "moving_variance_initializer": {"class_name": "Ones", "config": {}}, "beta_regularizer": null, "gamma_regularizer": null, "beta_constraint": null, "gamma_constraint": null}, "inbound_nodes": [[["separable_conv_1_normal_left1_3", 0, 0, {}]]]}, {"name": "separable_conv_1_bn_normal_right1_3", "class_name": "BatchNormalization", "config": {"name": "separable_conv_1_bn_normal_right1_3", "trainable": false, "axis": -1, "momentum": 0.9997, "epsilon": 0.001, "center": true, "scale": true, "beta_initializer": {"class_name": "Zeros", "config": {}}, "gamma_initializer": {"class_name": "Ones", "config": {}}, "moving_mean_initializer": {"class_name": "Zeros", "config": {}}, "moving_variance_initializer": {"class_name": "Ones", "config": {}}, "beta_regularizer": null, "gamma_regularizer": null, "beta_constraint": null, "gamma_constraint": null}, "inbound_nodes": [[["separable_conv_1_normal_right1_3", 0, 0, {}]]]}, {"name": "separable_conv_1_bn_normal_left2_3", "class_name": "BatchNormalization", "config": {"name": "separable_conv_1_bn_normal_left2_3", "trainable": false, "axis": -1, "momentum": 0.9997, "epsilon": 0.001, "center": true, "scale": true, "beta_initializer": {"class_name": "Zeros", "config": {}}, "gamma_initializer": {"class_name": "Ones", "config": {}}, "moving_mean_initializer": {"class_name": "Zeros", "config": {}}, "moving_variance_initializer": {"class_name": "Ones", "config": {}}, "beta_regularizer": null, "gamma_regularizer": null, "beta_constraint": null, "gamma_constraint": null}, "inbound_nodes": [[["separable_conv_1_normal_left2_3", 0, 0, {}]]]}, {"name": "separable_conv_1_bn_normal_right2_3", "class_name": "BatchNormalization", "config": {"name": "separable_conv_1_bn_normal_right2_3", "trainable": false, "axis": -1, "momentum": 0.9997, "epsilon": 0.001, "center": true, "scale": true, "beta_initializer": {"class_name": "Zeros", "config": {}}, "gamma_initializer": {"class_name": "Ones", "config": {}}, "moving_mean_initializer": {"class_name": "Zeros", "config": {}}, "moving_variance_initializer": {"class_name": "Ones", "config": {}}, "beta_regularizer": null, "gamma_regularizer": null, "beta_constraint": null, "gamma_constraint": null}, "inbound_nodes": [[["separable_conv_1_normal_right2_3", 0, 0, {}]]]}, {"name": "separable_conv_1_bn_normal_left5_3", "class_name": "BatchNormalization", "config": {"name": "separable_conv_1_bn_normal_left5_3", "trainable": false, "axis": -1, "momentum": 0.9997, "epsilon": 0.001, "center": true, "scale": true, "beta_initializer": {"class_name": "Zeros", "config": {}}, "gamma_initializer": {"class_name": "Ones", "config": {}}, "moving_mean_initializer": {"class_name": "Zeros", "config": {}}, "moving_variance_initializer": {"class_name": "Ones", "config": {}}, "beta_regularizer": null, "gamma_regularizer": null, "beta_constraint": null, "gamma_constraint": null}, "inbound_nodes": [[["separable_conv_1_normal_left5_3", 0, 0, {}]]]}, {"name": "activation_358", "class_name": "Activation", "config": {"name": "activation_358", "trainable": false, "activation": "relu"}, "inbound_nodes": [[["separable_conv_1_bn_normal_left1_3", 0, 0, {}]]]}, {"name": "activation_360", "class_name": "Activation", "config": {"name": "activation_360", "trainable": false, "activation": "relu"}, "inbound_nodes": [[["separable_conv_1_bn_normal_right1_3", 0, 0, {}]]]}, {"name": "activation_362", "class_name": "Activation", "config": {"name": "activation_362", "trainable": false, "activation": "relu"}, "inbound_nodes": [[["separable_conv_1_bn_normal_left2_3", 0, 0, {}]]]}, {"name": "activation_364", "class_name": "Activation", "config": {"name": "activation_364", "trainable": false, "activation": "relu"}, "inbound_nodes": [[["separable_conv_1_bn_normal_right2_3", 0, 0, {}]]]}, {"name": "activation_366", "class_name": "Activation", "config": {"name": "activation_366", "trainable": false, "activation": "relu"}, "inbound_nodes": [[["separable_conv_1_bn_normal_left5_3", 0, 0, {}]]]}, {"name": "separable_conv_2_normal_left1_3", "class_name": "SeparableConv2D", "config": {"name": "separable_conv_2_normal_left1_3", "trainable": false, "filters": 44, "kernel_size": [5, 5], "strides": [1, 1], "padding": "same", "data_format": "channels_last", "dilation_rate": [1, 1], "activation": "linear", "use_bias": false, "bias_initializer": {"class_name": "Zeros", "config": {}}, "bias_regularizer": null, "activity_regularizer": null, "bias_constraint": null, "depth_multiplier": 1, "depthwise_initializer": {"class_name": "VarianceScaling", "config": {"scale": 1.0, "mode": "fan_avg", "distribution": "uniform", "seed": null}}, "pointwise_initializer": {"class_name": "VarianceScaling", "config": {"scale": 1.0, "mode": "fan_avg", "distribution": "uniform", "seed": null}}, "depthwise_regularizer": null, "pointwise_regularizer": null, "depthwise_constraint": null, "pointwise_constraint": null}, "inbound_nodes": [[["activation_358", 0, 0, {}]]]}, {"name": "separable_conv_2_normal_right1_3", "class_name": "SeparableConv2D", "config": {"name": "separable_conv_2_normal_right1_3", "trainable": false, "filters": 44, "kernel_size": [3, 3], "strides": [1, 1], "padding": "same", "data_format": "channels_last", "dilation_rate": [1, 1], "activation": "linear", "use_bias": false, "bias_initializer": {"class_name": "Zeros", "config": {}}, "bias_regularizer": null, "activity_regularizer": null, "bias_constraint": null, "depth_multiplier": 1, "depthwise_initializer": {"class_name": "VarianceScaling", "config": {"scale": 1.0, "mode": "fan_avg", "distribution": "uniform", "seed": null}}, "pointwise_initializer": {"class_name": "VarianceScaling", "config": {"scale": 1.0, "mode": "fan_avg", "distribution": "uniform", "seed": null}}, "depthwise_regularizer": null, "pointwise_regularizer": null, "depthwise_constraint": null, "pointwise_constraint": null}, "inbound_nodes": [[["activation_360", 0, 0, {}]]]}, {"name": "separable_conv_2_normal_left2_3", "class_name": "SeparableConv2D", "config": {"name": "separable_conv_2_normal_left2_3", "trainable": false, "filters": 44, "kernel_size": [5, 5], "strides": [1, 1], "padding": "same", "data_format": "channels_last", "dilation_rate": [1, 1], "activation": "linear", "use_bias": false, "bias_initializer": {"class_name": "Zeros", "config": {}}, "bias_regularizer": null, "activity_regularizer": null, "bias_constraint": null, "depth_multiplier": 1, "depthwise_initializer": {"class_name": "VarianceScaling", "config": {"scale": 1.0, "mode": "fan_avg", "distribution": "uniform", "seed": null}}, "pointwise_initializer": {"class_name": "VarianceScaling", "config": {"scale": 1.0, "mode": "fan_avg", "distribution": "uniform", "seed": null}}, "depthwise_regularizer": null, "pointwise_regularizer": null, "depthwise_constraint": null, "pointwise_constraint": null}, "inbound_nodes": [[["activation_362", 0, 0, {}]]]}, {"name": "separable_conv_2_normal_right2_3", "class_name": "SeparableConv2D", "config": {"name": "separable_conv_2_normal_right2_3", "trainable": false, "filters": 44, "kernel_size": [3, 3], "strides": [1, 1], "padding": "same", "data_format": "channels_last", "dilation_rate": [1, 1], "activation": "linear", "use_bias": false, "bias_initializer": {"class_name": "Zeros", "config": {}}, "bias_regularizer": null, "activity_regularizer": null, "bias_constraint": null, "depth_multiplier": 1, "depthwise_initializer": {"class_name": "VarianceScaling", "config": {"scale": 1.0, "mode": "fan_avg", "distribution": "uniform", "seed": null}}, "pointwise_initializer": {"class_name": "VarianceScaling", "config": {"scale": 1.0, "mode": "fan_avg", "distribution": "uniform", "seed": null}}, "depthwise_regularizer": null, "pointwise_regularizer": null, "depthwise_constraint": null, "pointwise_constraint": null}, "inbound_nodes": [[["activation_364", 0, 0, {}]]]}, {"name": "separable_conv_2_normal_left5_3", "class_name": "SeparableConv2D", "config": {"name": "separable_conv_2_normal_left5_3", "trainable": false, "filters": 44, "kernel_size": [3, 3], "strides": [1, 1], "padding": "same", "data_format": "channels_last", "dilation_rate": [1, 1], "activation": "linear", "use_bias": false, "bias_initializer": {"class_name": "Zeros", "config": {}}, "bias_regularizer": null, "activity_regularizer": null, "bias_constraint": null, "depth_multiplier": 1, "depthwise_initializer": {"class_name": "VarianceScaling", "config": {"scale": 1.0, "mode": "fan_avg", "distribution": "uniform", "seed": null}}, "pointwise_initializer": {"class_name": "VarianceScaling", "config": {"scale": 1.0, "mode": "fan_avg", "distribution": "uniform", "seed": null}}, "depthwise_regularizer": null, "pointwise_regularizer": null, "depthwise_constraint": null, "pointwise_constraint": null}, "inbound_nodes": [[["activation_366", 0, 0, {}]]]}, {"name": "separable_conv_2_bn_normal_left1_3", "class_name": "BatchNormalization", "config": {"name": "separable_conv_2_bn_normal_left1_3", "trainable": false, "axis": -1, "momentum": 0.9997, "epsilon": 0.001, "center": true, "scale": true, "beta_initializer": {"class_name": "Zeros", "config": {}}, "gamma_initializer": {"class_name": "Ones", "config": {}}, "moving_mean_initializer": {"class_name": "Zeros", "config": {}}, "moving_variance_initializer": {"class_name": "Ones", "config": {}}, "beta_regularizer": null, "gamma_regularizer": null, "beta_constraint": null, "gamma_constraint": null}, "inbound_nodes": [[["separable_conv_2_normal_left1_3", 0, 0, {}]]]}, {"name": "separable_conv_2_bn_normal_right1_3", "class_name": "BatchNormalization", "config": {"name": "separable_conv_2_bn_normal_right1_3", "trainable": false, "axis": -1, "momentum": 0.9997, "epsilon": 0.001, "center": true, "scale": true, "beta_initializer": {"class_name": "Zeros", "config": {}}, "gamma_initializer": {"class_name": "Ones", "config": {}}, "moving_mean_initializer": {"class_name": "Zeros", "config": {}}, "moving_variance_initializer": {"class_name": "Ones", "config": {}}, "beta_regularizer": null, "gamma_regularizer": null, "beta_constraint": null, "gamma_constraint": null}, "inbound_nodes": [[["separable_conv_2_normal_right1_3", 0, 0, {}]]]}, {"name": "separable_conv_2_bn_normal_left2_3", "class_name": "BatchNormalization", "config": {"name": "separable_conv_2_bn_normal_left2_3", "trainable": false, "axis": -1, "momentum": 0.9997, "epsilon": 0.001, "center": true, "scale": true, "beta_initializer": {"class_name": "Zeros", "config": {}}, "gamma_initializer": {"class_name": "Ones", "config": {}}, "moving_mean_initializer": {"class_name": "Zeros", "config": {}}, "moving_variance_initializer": {"class_name": "Ones", "config": {}}, "beta_regularizer": null, "gamma_regularizer": null, "beta_constraint": null, "gamma_constraint": null}, "inbound_nodes": [[["separable_conv_2_normal_left2_3", 0, 0, {}]]]}, {"name": "separable_conv_2_bn_normal_right2_3", "class_name": "BatchNormalization", "config": {"name": "separable_conv_2_bn_normal_right2_3", "trainable": false, "axis": -1, "momentum": 0.9997, "epsilon": 0.001, "center": true, "scale": true, "beta_initializer": {"class_name": "Zeros", "config": {}}, "gamma_initializer": {"class_name": "Ones", "config": {}}, "moving_mean_initializer": {"class_name": "Zeros", "config": {}}, "moving_variance_initializer": {"class_name": "Ones", "config": {}}, "beta_regularizer": null, "gamma_regularizer": null, "beta_constraint": null, "gamma_constraint": null}, "inbound_nodes": [[["separable_conv_2_normal_right2_3", 0, 0, {}]]]}, {"name": "normal_left3_3", "class_name": "AveragePooling2D", "config": {"name": "normal_left3_3", "trainable": false, "pool_size": [3, 3], "padding": "same", "strides": [1, 1], "data_format": "channels_last"}, "inbound_nodes": [[["normal_bn_1_3", 0, 0, {}]]]}, {"name": "normal_left4_3", "class_name": "AveragePooling2D", "config": {"name": "normal_left4_3", "trainable": false, "pool_size": [3, 3], "padding": "same", "strides": [1, 1], "data_format": "channels_last"}, "inbound_nodes": [[["adjust_bn_3", 0, 0, {}]]]}, {"name": "normal_right4_3", "class_name": "AveragePooling2D", "config": {"name": "normal_right4_3", "trainable": false, "pool_size": [3, 3], "padding": "same", "strides": [1, 1], "data_format": "channels_last"}, "inbound_nodes": [[["adjust_bn_3", 0, 0, {}]]]}, {"name": "separable_conv_2_bn_normal_left5_3", "class_name": "BatchNormalization", "config": {"name": "separable_conv_2_bn_normal_left5_3", "trainable": false, "axis": -1, "momentum": 0.9997, "epsilon": 0.001, "center": true, "scale": true, "beta_initializer": {"class_name": "Zeros", "config": {}}, "gamma_initializer": {"class_name": "Ones", "config": {}}, "moving_mean_initializer": {"class_name": "Zeros", "config": {}}, "moving_variance_initializer": {"class_name": "Ones", "config": {}}, "beta_regularizer": null, "gamma_regularizer": null, "beta_constraint": null, "gamma_constraint": null}, "inbound_nodes": [[["separable_conv_2_normal_left5_3", 0, 0, {}]]]}, {"name": "normal_add_1_3", "class_name": "Add", "config": {"name": "normal_add_1_3", "trainable": false}, "inbound_nodes": [[["separable_conv_2_bn_normal_left1_3", 0, 0, {}], ["separable_conv_2_bn_normal_right1_3", 0, 0, {}]]]}, {"name": "normal_add_2_3", "class_name": "Add", "config": {"name": "normal_add_2_3", "trainable": false}, "inbound_nodes": [[["separable_conv_2_bn_normal_left2_3", 0, 0, {}], ["separable_conv_2_bn_normal_right2_3", 0, 0, {}]]]}, {"name": "normal_add_3_3", "class_name": "Add", "config": {"name": "normal_add_3_3", "trainable": false}, "inbound_nodes": [[["normal_left3_3", 0, 0, {}], ["adjust_bn_3", 0, 0, {}]]]}, {"name": "normal_add_4_3", "class_name": "Add", "config": {"name": "normal_add_4_3", "trainable": false}, "inbound_nodes": [[["normal_left4_3", 0, 0, {}], ["normal_right4_3", 0, 0, {}]]]}, {"name": "normal_add_5_3", "class_name": "Add", "config": {"name": "normal_add_5_3", "trainable": false}, "inbound_nodes": [[["separable_conv_2_bn_normal_left5_3", 0, 0, {}], ["normal_bn_1_3", 0, 0, {}]]]}, {"name": "normal_concat_3", "class_name": "Concatenate", "config": {"name": "normal_concat_3", "trainable": false, "axis": -1}, "inbound_nodes": [[["adjust_bn_3", 0, 0, {}], ["normal_add_1_3", 0, 0, {}], ["normal_add_2_3", 0, 0, {}], ["normal_add_3_3", 0, 0, {}], ["normal_add_4_3", 0, 0, {}], ["normal_add_5_3", 0, 0, {}]]]}, {"name": "activation_368", "class_name": "Activation", "config": {"name": "activation_368", "trainable": false, "activation": "relu"}, "inbound_nodes": [[["normal_concat_3", 0, 0, {}]]]}, {"name": "activation_367", "class_name": "Activation", "config": {"name": "activation_367", "trainable": false, "activation": "relu"}, "inbound_nodes": [[["normal_concat_2", 0, 0, {}]]]}, {"name": "reduction_conv_1_reduce_4", "class_name": "Conv2D", "config": {"name": "reduction_conv_1_reduce_4", "trainable": false, "filters": 88, "kernel_size": [1, 1], "strides": [1, 1], "padding": "same", "data_format": "channels_last", "dilation_rate": [1, 1], "activation": "linear", "use_bias": false, "kernel_initializer": {"class_name": "VarianceScaling", "config": {"scale": 2.0, "mode": "fan_in", "distribution": "normal", "seed": null}}, "bias_initializer": {"class_name": "Zeros", "config": {}}, "kernel_regularizer": null, "bias_regularizer": null, "activity_regularizer": null, "kernel…
nv_1_reduction_right2_stem_1/depthwise_kernel", "shape": [7, 7, 32, 1], "dtype": "float32"}, {"name": "separable_conv_1_reduction_right2_stem_1/pointwise_kernel", "shape": [1, 1, 32, 11], "dtype": "float32"}, {"name": "separable_conv_1_reduction_right2_stem_2/depthwise_kernel", "shape": [7, 7, 22, 1], "dtype": "float32"}, {"name": "separable_conv_1_reduction_right2_stem_2/pointwise_kernel", "shape": [1, 1, 22, 22], "dtype": "float32"}, {"name": "separable_conv_1_reduction_right3_reduce_4/depthwise_kernel", "shape": [5, 5, 88, 1], "dtype": "float32"}, {"name": "separable_conv_1_reduction_right3_reduce_4/pointwise_kernel", "shape": [1, 1, 88, 88], "dtype": "float32"}, {"name": "separable_conv_1_reduction_right3_reduce_8/depthwise_kernel", "shape": [5, 5, 176, 1], "dtype": "float32"}, {"name": "separable_conv_1_reduction_right3_reduce_8/pointwise_kernel", "shape": [1, 1, 176, 176], "dtype": "float32"}, {"name": "separable_conv_1_reduction_right3_stem_1/depthwise_kernel", "shape": [5, 5, 32, 1], "dtype": "float32"}, {"name": "separable_conv_1_reduction_right3_stem_1/pointwise_kernel", "shape": [1, 1, 32, 11], "dtype": "float32"}, {"name": "separable_conv_1_reduction_right3_stem_2/depthwise_kernel", "shape": [5, 5, 22, 1], "dtype": "float32"}, {"name": "separable_conv_1_reduction_right3_stem_2/pointwise_kernel", "shape": [1, 1, 22, 22], "dtype": "float32"}, {"name": "separable_conv_2_bn_normal_left1_0/gamma", "shape": [44], "dtype": "float32"}, {"name": "separable_conv_2_bn_normal_left1_0/beta", "shape": [44], "dtype": "float32"}, {"name": "separable_conv_2_bn_normal_left1_0/moving_mean", "shape": [44], "dtype": "float32"}, {"name": "separable_conv_2_bn_normal_left1_0/moving_variance", "shape": [44], "dtype": "float32"}, {"name": "separable_conv_2_bn_normal_left1_1/gamma", "shape": [44], "dtype": "float32"}, {"name": "separable_conv_2_bn_normal_left1_1/beta", "shape": [44], "dtype": "float32"}, {"name": "separable_conv_2_bn_normal_left1_1/moving_mean", "shape": [44], "dtype": "float32"}, {"name": "separable_conv_2_bn_normal_left1_1/moving_variance", "shape": [44], "dtype": "float32"}, {"name": "separable_conv_2_bn_normal_left1_10/gamma", "shape": [176], "dtype": "float32"}, {"name": "separable_conv_2_bn_normal_left1_10/beta", "shape": [176], "dtype": "float32"}, {"name": "separable_conv_2_bn_normal_left1_10/moving_mean", "shape": [176], "dtype": "float32"}, {"name": "separable_conv_2_bn_normal_left1_10/moving_variance", "shape": [176], "dtype": "float32"}, {"name": "separable_conv_2_bn_normal_left1_11/gamma", "shape": [176], "dtype": "float32"}, {"name": "separable_conv_2_bn_normal_left1_11/beta", "shape": [176], "dtype": "float32"}, {"name": "separable_conv_2_bn_normal_left1_11/moving_mean", "shape": [176], "dtype": "float32"}, {"name": "separable_conv_2_bn_normal_left1_11/moving_variance", "shape": [176], "dtype": "float32"}, {"name": "separable_conv_2_bn_normal_left1_12/gamma", "shape": [176], "dtype": "float32"}, {"name": "separable_conv_2_bn_normal_left1_12/beta", "shape": [176], "dtype": "float32"}, {"name": "separable_conv_2_bn_normal_left1_12/moving_mean", "shape": [176], "dtype": "float32"}, {"name": "separable_conv_2_bn_normal_left1_12/moving_variance", "shape": [176], "dtype": "float32"}, {"name": "separable_conv_2_bn_normal_left1_2/gamma", "shape": [44], "dtype": "float32"}, {"name": "separable_conv_2_bn_normal_left1_2/beta", "shape": [44], "dtype": "float32"}, {"name": "separable_conv_2_bn_normal_left1_2/moving_mean", "shape": [44], "dtype": "float32"}, {"name": "separable_conv_2_bn_normal_left1_2/moving_variance", "shape": [44], "dtype": "float32"}, {"name": "separable_conv_2_bn_normal_left1_3/gamma", "shape": [44], "dtype": "float32"}, {"name": "separable_conv_2_bn_normal_left1_3/beta", "shape": [44], "dtype": "float32"}, {"name": "separable_conv_2_bn_normal_left1_3/moving_mean", "shape": [44], "dtype": "float32"}, {"name": "separable_conv_2_bn_normal_left1_3/moving_variance", "shape": [44], "dtype": "float32"}, {"name": "separable_conv_2_bn_normal_left1_5/gamma", "shape": [88], "dtype": "float32"}, {"name": "separable_conv_2_bn_normal_left1_5/beta", "shape": [88], "dtype": "float32"}, {"name": "separable_conv_2_bn_normal_left1_5/moving_mean", "shape": [88], "dtype": "float32"}, {"name": "separable_conv_2_bn_normal_left1_5/moving_variance", "shape": [88], "dtype": "float32"}, {"name": "separable_conv_2_bn_normal_left1_6/gamma", "shape": [88], "dtype": "float32"}, {"name": "separable_conv_2_bn_normal_left1_6/beta", "shape": [88], "dtype": "float32"}, {"name": "separable_conv_2_bn_normal_left1_6/moving_mean", "shape": [88], "dtype": "float32"}, {"name": "separable_conv_2_bn_normal_left1_6/moving_variance", "shape": [88], "dtype": "float32"}, {"name": "separable_conv_2_bn_normal_left1_7/gamma", "shape": [88], "dtype": "float32"}, {"name": "separable_conv_2_bn_normal_left1_7/beta", "shape": [88], "dtype": "float32"}, {"name": "separable_conv_2_bn_normal_left1_7/moving_mean", "shape": [88], "dtype": "float32"}, {"name": "separable_conv_2_bn_normal_left1_7/moving_variance", "shape": [88], "dtype": "float32"}, {"name": "separable_conv_2_bn_normal_left1_8/gamma", "shape": [88], "dtype": "float32"}, {"name": "separable_conv_2_bn_normal_left1_8/beta", "shape": [88], "dtype": "float32"}, {"name": "separable_conv_2_bn_normal_left1_8/moving_mean", "shape": [88], "dtype": "float32"}, {"name": "separable_conv_2_bn_normal_left1_8/moving_variance", "shape": [88], "dtype": "float32"}, {"name": "separable_conv_2_bn_normal_left1_9/gamma", "shape": [176], "dtype": "float32"}, {"name": "separable_conv_2_bn_normal_left1_9/beta", "shape": [176], "dtype": "float32"}, {"name": "separable_conv_2_bn_normal_left1_9/moving_mean", "shape": [176], "dtype": "float32"}, {"name": "separable_conv_2_bn_normal_left1_9/moving_variance", "shape": [176], "dtype": "float32"}, {"name": "separable_conv_2_bn_normal_left2_0/gamma", "shape": [44], "dtype": "float32"}, {"name": "separable_conv_2_bn_normal_left2_0/beta", "shape": [44], "dtype": "float32"}, {"name": "separable_conv_2_bn_normal_left2_0/moving_mean", "shape": [44], "dtype": "float32"}, {"name": "separable_conv_2_bn_normal_left2_0/moving_variance", "shape": [44], "dtype": "float32"}, {"name": "separable_conv_2_bn_normal_left2_1/gamma", "shape": [44], "dtype": "float32"}, {"name": "separable_conv_2_bn_normal_left2_1/beta", "shape": [44], "dtype": "float32"}, {"name": "separable_conv_2_bn_normal_left2_1/moving_mean", "shape": [44], "dtype": "float32"}, {"name": "separable_conv_2_bn_normal_left2_1/moving_variance", "shape": [44], "dtype": "float32"}, {"name": "separable_conv_2_bn_normal_left2_10/gamma", "shape": [176], "dtype": "float32"}, {"name": "separable_conv_2_bn_normal_left2_10/beta", "shape": [176], "dtype": "float32"}, {"name": "separable_conv_2_bn_normal_left2_10/moving_mean", "shape": [176], "dtype": "float32"}, {"name": "separable_conv_2_bn_normal_left2_10/moving_variance", "shape": [176], "dtype": "float32"}, {"name": "separable_conv_2_bn_normal_left2_11/gamma", "shape": [176], "dtype": "float32"}, {"name": "separable_conv_2_bn_normal_left2_11/beta", "shape": [176], "dtype": "float32"}, {"name": "separable_conv_2_bn_normal_left2_11/moving_mean", "shape": [176], "dtype": "float32"}, {"name": "separable_conv_2_bn_normal_left2_11/moving_variance", "shape": [176], "dtype": "float32"}, {"name": "separable_conv_2_bn_normal_left2_12/gamma", "shape": [176], "dtype": "float32"}, {"name": "separable_conv_2_bn_normal_left2_12/beta", "shape": [176], "dtype": "float32"}, {"name": "separable_conv_2_bn_normal_left2_12/moving_mean", "shape": [176], "dtype": "float32"}, {"name": "separable_conv_2_bn_normal_left2_12/moving_variance", "shape": [176], "dtype": "float32"}, {"name": "separable_conv_2_bn_normal_left2_2/gamma", "shape": [44], "dtype": "float32"}, {"name": "separable_conv_2_bn_normal_left2_2/beta", "shape": [44], "dtype": "float32"}, {"name": "separable_conv_2_bn_normal_left2_2/moving_mean", "shape": [44], "dtype": "float32"}, {"name": "separable_conv_2_bn_normal_left2_2/moving_variance", "shape": [44], "dtype": "float32"}, {"name": "separable_conv_2_bn_normal_left2_3/gamma", "shape": [44], "dtype": "float32"}, {"name": "separable_conv_2_bn_normal_left2_3/beta", "shape": [44], "dtype": "float32"}, {"name": "separable_conv_2_bn_normal_left2_3/moving_mean", "shape": [44], "dtype": "float32"}, {"name": "separable_conv_2_bn_normal_left2_3/moving_variance", "shape": [44], "dtype": "float32"}, {"name": "separable_conv_2_bn_normal_left2_5/gamma", "shape": [88], "dtype": "float32"}, {"name": "separable_conv_2_bn_normal_left2_5/beta", "shape": [88], "dtype": "float32"}, {"name": "separable_conv_2_bn_normal_left2_5/moving_mean", "shape": [88], "dtype": "float32"}, {"name": "separable_conv_2_bn_normal_left2_5/moving_variance", "shape": [88], "dtype": "float32"}, {"name": "separable_conv_2_bn_normal_left2_6/gamma", "shape": [88], "dtype": "float32"}, {"name": "separable_conv_2_bn_normal_left2_6/beta", "shape": [88], "dtype": "float32"}, {"name": "separable_conv_2_bn_normal_left2_6/moving_mean", "shape": [88], "dtype": "float32"}, {"name": "separable_conv_2_bn_normal_left2_6/moving_variance", "shape": [88], "dtype": "float32"}, {"name": "separable_conv_2_bn_normal_left2_7/gamma", "shape": [88], "dtype": "float32"}, {"name": "separable_conv_2_bn_normal_left2_7/beta", "shape": [88], "dtype": "float32"}, {"name": "separable_conv_2_bn_normal_left2_7/moving_mean", "shape": [88], "dtype": "float32"}, {"name": "separable_conv_2_bn_normal_left2_7/moving_variance", "shape": [88], "dtype": "float32"}, {"name": "separable_conv_2_bn_normal_left2_8/gamma", "shape": [88], "dtype": "float32"}, {"name": "separable_conv_2_bn_normal_left2_8/beta", "shape": [88], "dtype": "float32"}, {"name": "separable_conv_2_bn_normal_left2_8/moving_mean", "shape": [88], "dtype": "float32"}, {"name": "separable_conv_2_bn_normal_left2_8/moving_variance", "shape": [88], "dtype": "float32"}, {"name": "separable_conv_2_bn_normal_left2_9/gamma", "shape": [176], "dtype": "float32"}, {"name": "separable_conv_2_bn_normal_left2_9/beta", "shape": [176], "dtype": "float32"}, {"name": "separable_conv_2_bn_normal_left2_9/moving_mean", "shape": [176], "dtype": "float32"}, {"name": "separable_conv_2_bn_normal_left2_9/moving_variance", "shape": [176], "dtype": "float32"}, {"name": "separable_conv_2_bn_normal_left5_0/gamma", "shape": [44], "dtype": "float32"}, {"name": "separable_conv_2_bn_normal_left5_0/beta", "shape": [44], "dtype": "float32"}, {"name": "separable_conv_2_bn_normal_left5_0/moving_mean", "shape": [44], "dtype": "float32"}, {"name": "separable_conv_2_bn_normal_left5_0/moving_variance", "shape": [44], "dtype": "float32"}, {"name": "separable_conv_2_bn_normal_left5_1/gamma", "shape": [44], "dtype": "float32"}, {"name": "separable_conv_2_bn_normal_left5_1/beta", "shape": [44], "dtype": "float32"}, {"name": "separable_conv_2_bn_normal_left5_1/moving_mean", "shape": [44], "dtype": "float32"}, {"name": "separable_conv_2_bn_normal_left5_1/moving_variance", "shape": [44], "dtype": "float32"}, {"name": "separable_conv_2_bn_normal_left5_10/gamma", "shape": [176], "dtype": "float32"}, {"name": "separable_conv_2_bn_normal_left5_10/beta", "shape": [176], "dtype": "float32"}, {"name": "separable_conv_2_bn_normal_left5_10/moving_mean", "shape": [176], "dtype": "float32"}, {"name": "separable_conv_2_bn_normal_left5_10/moving_variance", "shape": [176], "dtype": "float32"}, {"name": "separable_conv_2_bn_normal_left5_11/gamma", "shape": [176], "dtype": "float32"}, {"name": "separable_conv_2_bn_normal_left5_11/beta", "shape": [176], "dtype": "float32"}, {"name": "separable_conv_2_bn_normal_left5_11/moving_mean", "shape": [176], "dtype": "float32"}, {"name": "separable_conv_2_bn_normal_left5_11/moving_variance", "shape": [176], "dtype": "float32"}, {"name": "separable_conv_2_bn_normal_left5_12/gamma", "shape": [176], "dtype": "float32"}, {"name": "separable_conv_2_bn_normal_left5_12/beta", "shape": [176], "dtype": "float32"}, {"name": "separable_conv_2_bn_normal_left5_12/moving_mean", "shape": [176], "dtype": "float32"}, {"name": "separable_conv_2_bn_normal_left5_12/moving_variance", "shape": [176], "dtype": "float32"}, {"name": "separable_conv_2_bn_normal_left5_2/gamma", "shape": [44], "dtype": "float32"}, {"name": "separable_conv_2_bn_normal_left5_2/beta", "shape": [44], "dtype": "float32"}, {"name": "separable_conv_2_bn_normal_left5_2/moving_mean", "shape": [44], "dtype": "float32"}, {"name": "separable_conv_2_bn_normal_left5_2/moving_variance", "shape": [44], "dtype": "float32"}, {"name": "separable_conv_2_bn_normal_left5_3/gamma", "shape": [44], "dtype": "float32"}, {"name": "separable_conv_2_bn_normal_left5_3/beta", "shape": [44], "dtype": "float32"}, {"name": "separable_conv_2_bn_normal_left5_3/moving_mean", "shape": [44], "dtype": "float32"}, {"name": "separable_conv_2_bn_normal_left5_3/moving_variance", "shape": [44], "dtype": "float32"}, {"name": "separable_conv_2_bn_normal_left5_5/gamma", "shape": [88], "dtype": "float32"}, {"name": "separable_conv_2_bn_normal_left5_5/beta", "shape": [88], "dtype": "float32"}, {"name": "separable_conv_2_bn_normal_left5_5/moving_mean", "shape": [88], "dtype": "float32"}, {"name": "separable_conv_2_bn_normal_left5_5/moving_variance", "shape": [88], "dtype": "float32"}, {"name": "separable_conv_2_bn_normal_left5_6/gamma", "shape": [88], "dtype": "float32"}, {"name": "separable_conv_2_bn_normal_left5_6/beta", "shape": [88], "dtype": "float32"}, {"name": "separable_conv_2_bn_normal_left5_6/moving_mean", "shape": [88], "dtype": "float32"}, {"name": "separable_conv_2_bn_normal_left5_6/moving_variance", "shape": [88], "dtype": "float32"}, {"name": "separable_conv_2_bn_normal_left5_7/gamma", "shape": [88], "dtype": "float32"}, {"name": "separable_conv_2_bn_normal_left5_7/beta", "shape": [88], "dtype": "float32"}, {"name": "separable_conv_2_bn_normal_left5_7/moving_mean", "shape": [88], "dtype": "float32"}, {"name": "separable_conv_2_bn_normal_left5_7/moving_variance", "shape": [88], "dtype": "float32"}, {"name": "separable_conv_2_bn_normal_left5_8/gamma", "shape": [88], "dtype": "float32"}, {"name": "separable_conv_2_bn_normal_left5_8/beta", "shape": [88], "dtype": "float32"}, {"name": "separable_conv_2_bn_normal_left5_8/moving_mean", "shape": [88], "dtype": "float32"}, {"name": "separable_conv_2_bn_normal_left5_8/moving_variance", "shape": [88], "dtype": "float32"}, {"name": "separable_conv_2_bn_normal_left5_9/gamma", "shape": [176], "dtype": "float32"}, {"name": "separable_conv_2_bn_normal_left5_9/beta", "shape": [176], "dtype": "float32"}, {"name": "separable_conv_2_bn_normal_left5_9/moving_mean", "shape": [176], "dtype": "float32"}, {"name": "separable_conv_2_bn_normal_left5_9/moving_variance", "shape": [176], "dtype": "float32"}, {"name": "separable_conv_2_bn_normal_right1_0/gamma", "shape": [44], "dtype": "float32"}, {"name": "separable_conv_2_bn_normal_right1_0/beta", "shape": [44], "dtype": "float32"}, {"name": "separable_conv_2_bn_normal_right1_0/moving_mean", "shape": [44], "dtype": "float32"}, {"name": "separable_conv_2_bn_normal_right1_0/moving_variance", "shape": [44], "dtype": "float32"}, {"name": "separable_conv_2_bn_normal_right1_1/gamma", "shape": [44], "dtype": "float32"}, {"name": "separable_conv_2_bn_normal_right1_1/beta", "shape": [44], "dtype": "float32"}, {"name": "separable_conv_2_bn_normal_right1_1/moving_mean", "shape": [44], "dtype": "float32"}, {"name": "separable_conv_2_bn_normal_right1_1/moving_variance", "shape": [44], "dtype": "float32"}, {"name": "separable_conv_2_bn_normal_right1_10/gamma", "shape": [176], "dtype": "float32"}, {"name": "separable_conv_2_bn_normal_right1_10/beta", "shape": [176], "dtype": "float32"}, {"name": "separable_conv_2_bn_normal_right1_10/moving_mean", "shape": [176], "dtype": "float32"}, {"name": "separable_conv_2_bn_normal_right1_10/moving_variance", "shape": [176], "dtype": "float32"}, {"name": "separable_conv_2_bn_normal_right1_11/gamma", "shape": [176], "dtype": "float32"}, {"name": "separable_conv_2_bn_normal_right1_11/beta", "shape": [176], "dtype": "float32"}, {"name": "separable_conv_2_bn_normal_right1_11/moving_mean", "shape": [176], "dtype": "float32"}, {"name": "separable_conv_2_bn_normal_right1_11/moving_variance", "shape": [176], "dtype": "float32"}, {"name": "separable_conv_2_bn_normal_right1_12/gamma", "shape": [176], "dtype": "float32"}, {"name": "separable_conv_2_bn_normal_right1_12/beta", "shape": [176], "dtype": "float32"}, {"name": "separable_conv_2_bn_normal_right1_12/moving_mean", "shape": [176], "dtype": "float32"}, {"name": "separable_conv_2_bn_normal_right1_12/moving_variance", "shape": [176], "dtype": "float32"}, {"name": "separable_conv_2_bn_normal_right1_2/gamma", "shape": [44], "dtype": "float32"}, {"name": "separable_conv_2_bn_normal_right1_2/beta", "shape": [44], "dtype": "float32"}, {"name": "separable_conv_2_bn_normal_right1_2/moving_mean", "shape": [44], "dtype": "float32"}, {"name": "separable_conv_2_bn_normal_right1_2/moving_variance", "shape": [44], "dtype": "float32"}, {"name": "separable_conv_2_bn_normal_right1_3/gamma", "shape": [44], "dtype": "float32"}, {"name": "separable_conv_2_bn_normal_right1_3/beta", "shape": [44], "dtype": "float32"}, {"name": "separable_conv_2_bn_normal_right1_3/moving_mean", "shape": [44], "dtype": "float32"}, {"name": "separable_conv_2_bn_normal_right1_3/moving_variance", "shape": [44], "dtype": "float32"}, {"name": "separable_conv_2_bn_normal_right1_5/gamma", "shape": [88], "dtype": "float32"}, {"name": "separable_conv_2_bn_normal_right1_5/beta", "shape": [88], "dtype": "float32"}, {"name": "separable_conv_2_bn_normal_right1_5/moving_mean", "shape": [88], "dtype": "float32"}, {"name": "separable_conv_2_bn_normal_right1_5/moving_variance", "shape": [88], "dtype": "float32"}, {"name": "separable_conv_2_bn_normal_right1_6/gamma", "shape": [88], "dtype": "float32"}, {"name": "separable_conv_2_bn_normal_right1_6/beta", "shape": [88], "dtype": "float32"}, {"name": "separable_conv_2_bn_normal_right1_6/moving_mean", "shape": [88], "dtype": "float32"}, {"name": "separable_conv_2_bn_normal_right1_6/moving_variance", "shape": [88], "dtype": "float32"}, {"name": "separable_conv_2_bn_normal_right1_7/gamma", "shape": [88], "dtype": "float32"}, {"name": "separable_conv_2_bn_normal_right1_7/beta", "shape": [88], "dtype": "float32"}, {"name": "separable_conv_2_bn_normal_right1_7/moving_mean", "shape": [88], "dtype": "float32"}, {"name": "separable_conv_2_bn_normal_right1_7/moving_variance", "shape": [88], "dtype": "float32"}, {"name": "separable_conv_2_bn_normal_right1_8/gamma", "shape": [88], "dtype": "float32"}, {"name": "separable_conv_2_bn_normal_right1_8/beta", "shape": [88], "dtype": "float32"}, {"name": "separable_conv_2_bn_normal_right1_8/moving_mean", "shape": [88], "dtype": "float32"}, {"name": "separable_conv_2_bn_normal_right1_8/moving_variance", "shape": [88], "dtype": "float32"}, {"name": "separable_conv_2_bn_normal_right1_9/gamma", "shape": [176], "dtype": "float32"}, {"name": "separable_conv_2_bn_normal_right1_9/beta", "shape": [176], "dtype": "float32"}, {"name": "separable_conv_2_bn_normal_right1_9/moving_mean", "shape": [176], "dtype": "float32"}, {"name": "separable_conv_2_bn_normal_right1_9/moving_variance", "shape": [176], "dtype": "float32"}, {"name": "separable_conv_2_bn_normal_right2_0/gamma", "shape": [44], "dtype": "float32"}, {"name": "separable_conv_2_bn_normal_right2_0/beta", "shape": [44], "dtype": "float32"}, {"name": "separable_conv_2_bn_normal_right2_0/moving_mean", "shape": [44], "dtype": "float32"}, {"name": "separable_conv_2_bn_normal_right2_0/moving_variance", "shape": [44], "dtype": "float32"}, {"name": "separable_conv_2_bn_normal_right2_1/gamma", "shape": [44], "dtype": "float32"}, {"name": "separable_conv_2_bn_normal_right2_1/beta", "shape": [44], "dtype": "float32"}, {"name": "separable_conv_2_bn_normal_right2_1/moving_mean", "shape": [44], "dtype": "float32"}, {"name": "separable_conv_2_bn_normal_right2_1/moving_variance", "shape": [44], "dtype": "float32"}, {"name": "separable_conv_2_bn_normal_right2_10/gamma", "shape": [176], "dtype": "float32"}, {"name": "separable_conv_2_bn_normal_right2_10/beta", "shape": [176], "dtype": "float32"}, {"name": "separable_conv_2_bn_normal_right2_10/moving_mean", "shape": [176], "dtype": "float32"}, {"name": "separable_conv_2_bn_normal_right2_10/moving_variance", "shape": [176], "dtype": "float32"}, {"name": "separable_conv_2_bn_normal_right2_11/gamma", "shape": [176], "dtype": "float32"}, {"name": "separable_conv_2_bn_normal_right2_11/beta", "shape": [176], "dtype": "float32"}, {"name": "separable_conv_2_bn_normal_right2_11/moving_mean", "shape": [176], "dtype": "float32"}, {"name": "separable_conv_2_bn_normal_right2_11/moving_variance", "shape": [176], "dtype": "float32"}, {"name": "separable_conv_2_bn_normal_right2_12/gamma", "shape": [176], "dtype": "float32"}, {"name": "separable_conv_2_bn_normal_right2_12/beta", "shape": [176], "dtype": "float32"}, {"name": "separable_conv_2_bn_normal_right2_12/moving_mean", "shape": [176], "dtype": "float32"}, {"name": "separable_conv_2_bn_normal_right2_12/moving_variance", "shape": [176], "dtype": "float32"}, {"name": "separable_conv_2_bn_normal_right2_2/gamma", "shape": [44], "dtype": "float32"}, {"name": "separable_conv_2_bn_normal_right2_2/beta", "shape": [44], "dtype": "float32"}, {"name": "separable_conv_2_bn_normal_right2_2/moving_mean", "shape": [44], "dtype": "float32"}, {"name": "separable_conv_2_bn_normal_right2_2/moving_variance", "shape": [44], "dtype": "float32"}, {"name": "separable_conv_2_bn_normal_right2_3/gamma", "shape": [44], "dtype": "float32"}, {"name": "separable_conv_2_bn_normal_right2_3/beta", "shape": [44], "dtype": "float32"}, {"name": "separable_conv_2_bn_normal_right2_3/moving_mean", "shape": [44], "dtype": "float32"}, {"name": "separable_conv_2_bn_normal_right2_3/moving_variance", "shape": [44], "dtype": "float32"}, {"name": "separable_conv_2_bn_normal_right2_5/gamma", "shape": [88], "dtype": "float32"}, {"name": "separable_conv_2_bn_normal_right2_5/beta", "shape": [88], "dtype": "float32"}, {"name": "separable_conv_2_bn_normal_right2_5/moving_mean", "shape": [88], "dtype": "float32"}, {"name": "separable_conv_2_bn_normal_right2_5/moving_variance", "shape": [88], "dtype": "float32"}, {"name": "separable_conv_2_bn_normal_right2_6/gamma", "shape": [88], "dtype": "float32"}, {"name": "separable_conv_2_bn_normal_right2_6/beta", "shape": [88], "dtype": "float32"}, {"name": "separable_conv_2_bn_normal_right2_6/moving_mean", "shape": [88], "dtype": "float32"}, {"name": "separable_conv_2_bn_normal_right2_6/moving_variance", "shape": [88], "dtype": "float32"}, {"name": "separable_conv_2_bn_normal_right2_7/gamma", "shape": [88], "dtype": "float32"}, {"name": "separable_conv_2_bn_normal_right2_7/beta", "shape": [88], "dtype": "float32"}, {"name": "separable_conv_2_bn_normal_right2_7/moving_mean", "shape": [88], "dtype": "float32"}, {"name": "separable_conv_2_bn_normal_right2_7/moving_variance", "shape": [88], "dtype": "float32"}, {"name": "separable_conv_2_bn_normal_right2_8/gamma", "shape": [88], "dtype": "float32"}, {"name": "separable_conv_2_bn_normal_right2_8/beta", "shape": [88], "dtype": "float32"}, {"name": "separable_conv_2_bn_normal_right2_8/moving_mean", "shape": [88], "dtype": "float32"}, {"name": "separable_conv_2_bn_normal_right2_8/moving_variance", "shape": [88], "dtype": "float32"}, {"name": "separable_conv_2_bn_normal_right2_9/gamma", "shape": [176], "dtype": "float32"}, {"name": "separable_conv_2_bn_normal_right2_9/beta", "shape": [176], "dtype": "float32"}, {"name": "separable_conv_2_bn_normal_right2_9/moving_mean", "shape": [176], "dtype": "float32"}, {"name": "separable_conv_2_bn_normal_right2_9/moving_variance", "shape": [176], "dtype": "float32"}, {"name": "separable_conv_2_bn_reduction_left1_reduce_4/gamma", "shape": [88], "dtype": "float32"}, {"name": "separable_conv_2_bn_reduction_left1_reduce_4/beta", "shape": [88], "dtype": "float32"}, {"name": "separable_conv_2_bn_reduction_left1_reduce_4/moving_mean", "shape": [88], "dtype": "float32"}, {"name": "separable_conv_2_bn_reduction_left1_reduce_4/moving_variance", "shape": [88], "dtype": "float32"}, {"name": "separable_conv_2_bn_reduction_left1_reduce_8/gamma", "shape": [176], "dtype": "float32"}, {"name": "separable_conv_2_bn_reduction_left1_reduce_8/beta", "shape": [176], "dtype": "float32"}, {"name": "separable_conv_2_bn_reduction_left1_reduce_8/moving_mean", "shape": [176], "dtype": "float32"}, {"name": "separable_conv_2_bn_reduction_left1_reduce_8/moving_variance", "shape": [176], "dtype": "float32"}, {"name": "separable_conv_2_bn_reduction_left1_stem_1/gamma", "shape": [11], "dtype": "float32"}, {"name": "separable_conv_2_bn_reduction_left1_stem_1/beta", "shape": [11], "dtype": "float32"}, {"name": "separable_conv_2_bn_reduction_left1_stem_1/moving_mean", "shape": [11], "dtype": "float32"}, {"name": "separable_conv_2_bn_reduction_left1_stem_1/moving_variance", "shape": [11], "dtype": "float32"}, {"name": "separable_conv_2_bn_reduction_left1_stem_2/gamma", "shape": [22], "dtype": "float32"}, {"name": "separable_conv_2_bn_reduction_left1_stem_2/beta", "shape": [22], "dtype": "float32"}, {"name": "separable_conv_2_bn_reduction_left1_stem_2/moving_mean", "shape": [22], "dtype": "float32"}, {"name": "separable_conv_2_bn_reduction_left1_stem_2/moving_variance", "shape": [22], "dtype": "float32"}, {"name": "separable_conv_2_bn_reduction_left4_reduce_4/gamma", "shape": [88], "dtype": "float32"}, {"name": "separable_conv_2_bn_reduction_left4_reduce_4/beta", "shape": [88], "dtype": "float32"}, {"name": "separable_conv_2_bn_reduction_left4_reduce_4/moving_mean", "shape": [88], "dtype": "float32"}, {"name": "separable_conv_2_bn_reduction_left4_reduce_4/moving_variance", "shape": [88], "dtype": "float32"}, {"name": "separable_conv_2_bn_reduction_left4_reduce_8/gamma", "shape": [176], "dtype": "float32"}, {"name": "separable_conv_2_bn_reduction_left4_reduce_8/beta", "shape": [176], "dtype": "float32"}, {"name": "separable_conv_2_bn_reduction_left4_reduce_8/moving_mean", "shape": [176], "dtype": "float32"}, {"name": "separable_conv_2_bn_reduction_left4_reduce_8/moving_variance", "shape": [176], "dtype": "float32"}, {"name": "separable_conv_2_bn_reduction_left4_stem_1/gamma", "shape": [11], "dtype": "float32"}, {"name": "separable_conv_2_bn_reduction_left4_stem_1/beta", "shape": [11], "dtype": "float32"}, {"name": "separable_conv_2_bn_reduction_left4_stem_1/moving_mean", "shape": [11], "dtype": "float32"}, {"name": "separable_conv_2_bn_reduction_left4_stem_1/moving_variance", "shape": [11], "dtype": "float32"}, {"name": "separable_conv_2_bn_reduction_left4_stem_2/gamma", "shape": [22], "dtype": "float32"}, {"name": "separable_conv_2_bn_reduction_left4_stem_2/beta", "shape": [22], "dtype": "float32"}, {"name": "separable_conv_2_bn_reduction_left4_stem_2/moving_mean", "shape": [22], "dtype": "float32"}, {"name": "separable_conv_2_bn_reduction_left4_stem_2/moving_variance", "shape": [22], "dtype": "float32"}, {"name": "separable_conv_2_bn_reduction_right1_reduce_4/gamma", "shape": [88], "dtype": "float32"}, {"name": "separable_conv_2_bn_reduction_right1_reduce_4/beta", "shape": [88], "dtype": "float32"}, {"name": "separable_conv_2_bn_reduction_right1_reduce_4/moving_mean", "shape": [88], "dtype": "float32"}, {"name": "separable_conv_2_bn_reduction_right1_reduce_4/moving_variance", "shape": [88], "dtype": "float32"}, {"name": "separable_conv_2_bn_reduction_right1_reduce_8/gamma", "shape": [176], "dtype": "float32"}, {"name": "separable_conv_2_bn_reduction_right1_reduce_8/beta", "shape": [176], "dtype": "float32"}, {"name": "separable_conv_2_bn_reduction_right1_reduce_8/moving_mean", "shape": [176], "dtype": "float32"}, {"name": "separable_conv_2_bn_reduction_right1_reduce_8/moving_variance", "shape": [176], "dtype": "float32"}, {"name": "separable_conv_2_bn_reduction_right1_stem_1/gamma", "shape": [11], "dtype": "float32"}, {"name": "separable_conv_2_bn_reduction_right1_stem_1/beta", "shape": [11], "dtype": "float32"}, {"name": "separable_conv_2_bn_reduction_right1_stem_1/moving_mean", "shape": [11], "dtype": "float32"}, {"name": "separable_conv_2_bn_reduction_right1_stem_1/moving_variance", "shape": [11], "dtype": "float32"}, {"name": "separable_conv_2_bn_reduction_right1_stem_2/gamma", "shape": [22], "dtype": "float32"}, {"name": "separable_conv_2_bn_reduction_right1_stem_2/beta", "shape": [22], "dtype": "float32"}, {"name": "separable_conv_2_bn_reduction_right1_stem_2/moving_mean", "shape": [22], "dtype": "float32"}, {"name": "separable_conv_2_bn_reduction_right1_stem_2/moving_variance", "shape": [22], "dtype": "float32"}, {"name": "separable_conv_2_bn_reduction_right2_reduce_4/gamma", "shape": [88], "dtype": "float32"}, {"name": "separable_conv_2_bn_reduction_right2_reduce_4/beta", "shape": [88], "dtype": "float32"}, {"name": "separable_conv_2_bn_reduction_right2_reduce_4/moving_mean", "shape": [88], "dtype": "float32"}, {"name": "separable_conv_2_bn_reduction_right2_reduce_4/moving_variance", "shape": [88], "dtype": "float32"}, {"name": "separable_conv_2_bn_reduction_right2_reduce_8/gamma", "shape": [176], "dtype": "float32"}, {"name": "separable_conv_2_bn_reduction_right2_reduce_8/beta", "shape": [176], "dtype": "float32"}, {"name": "separable_conv_2_bn_reduction_right2_reduce_8/moving_mean", "shape": [176], "dtype": "float32"}, {"name": "separable_conv_2_bn_reduction_right2_reduce_8/moving_variance", "shape": [176], "dtype": "float32"}, {"name": "separable_conv_2_bn_reduction_right2_stem_1/gamma", "shape": [11], "dtype": "float32"}, {"name": "separable_conv_2_bn_reduction_right2_stem_1/beta", "shape": [11], "dtype": "float32"}, {"name": "separable_conv_2_bn_reduction_right2_stem_1/moving_mean", "shape": [11], "dtype": "float32"}, {"name": "separable_conv_2_bn_reduction_right2_stem_1/moving_variance", "shape": [11], "dtype": "float32"}, {"name": "separable_conv_2_bn_reduction_right2_stem_2/gamma", "shape": [22], "dtype": "float32"}, {"name": "separable_conv_2_bn_reduction_right2_stem_2/beta", "shape": [22], "dtype": "float32"}, {"name": "separable_conv_2_bn_reduction_right2_stem_2/moving_mean", "shape": [22], "dtype": "float32"}, {"name": "separable_conv_2_bn_reduction_right2_stem_2/moving_variance", "shape": [22], "dtype": "float32"}, {"name": "separable_conv_2_bn_reduction_right3_reduce_4/gamma", "shape": [88], "dtype": "float32"}, {"name": "separable_conv_2_bn_reduction_right3_reduce_4/beta", "shape": [88], "dtype": "float32"}, {"name": "separable_conv_2_bn_reduction_right3_reduce_4/moving_mean", "shape": [88], "dtype": "float32"}, {"name": "separable_conv_2_bn_reduction_right3_reduce_4/moving_variance", "shape": [88], "dtype": "float32"}, {"name": "separable_conv_2_bn_reduction_right3_reduce_8/gamma", "shape": [176], "dtype": "float32"}, {"name": "separable_conv_2_bn_reduction_right3_reduce_8/beta", "shape": [176], "dtype": "float32"}, {"name": "separable_conv_2_bn_reduction_right3_reduce_8/moving_mean", "shape": [176], "dtype": "float32"}, {"name": "separable_conv_2_bn_reduction_right3_reduce_8/moving_variance", "shape": [176], "dtype": "float32"}, {"name": "separable_conv_2_bn_reduction_right3_stem_1/gamma", "shape": [11], "dtype": "float32"}, {"name": "separable_conv_2_bn_reduction_right3_stem_1/beta", "shape": [11], "dtype": "float32"}, {"name": "separable_conv_2_bn_reduction_right3_stem_1/moving_mean", "shape": [11], "dtype": "float32"}, {"name": "separable_conv_2_bn_reduction_right3_stem_1/moving_variance", "shape": [11], "dtype": "float32"}, {"name": "separable_conv_2_bn_reduction_right3_stem_2/gamma", "shape": [22], "dtype": "float32"}, {"name": "separable_conv_2_bn_reduction_right3_stem_2/beta", "shape": [22], "dtype": "float32"}, {"name": "separable_conv_2_bn_reduction_right3_stem_2/moving_mean", "shape": [22], "dtype": "float32"}, {"name": "separable_conv_2_bn_reduction_right3_stem_2/moving_variance", "shape": [22], "dtype": "float32"}, {"name": "separable_conv_2_normal_left1_0/depthwise_kernel", "shape": [5, 5, 44, 1], "dtype": "float32"}, {"name": "separable_conv_2_normal_left1_0/pointwise_kernel", "shape": [1, 1, 44, 44], "dtype": "float32"}, {"name": "separable_conv_2_normal_left1_1/depthwise_kernel", "shape": [5, 5, 44, 1], "dtype": "float32"}, {"name": "separable_conv_2_normal_left1_1/pointwise_kernel", "shape": [1, 1, 44, 44], "dtype": "float32"}, {"name": "separable_conv_2_normal_left1_10/depthwise_kernel", "shape": [5, 5, 176, 1], "dtype": "float32"}, {"name": "separable_conv_2_normal_left1_10/pointwise_kernel", "shape": [1, 1, 176, 176], "dtype": "float32"}, {"name": "separable_conv_2_normal_left1_11/depthwise_kernel", "shape": [5, 5, 176, 1], "dtype": "float32"}, {"name": "separable_conv_2_normal_left1_11/pointwise_kernel", "shape": [1, 1, 176, 176], "dtype": "float32"}, {"name": "separable_conv_2_normal_left1_12/depthwise_kernel", "shape": [5, 5, 176, 1], "dtype": "float32"}, {"name": "separable_conv_2_normal_left1_12/pointwise_kernel", "shape": [1, 1, 176, 176], "dtype": "float32"}, {"name": "separable_conv_2_normal_left1_2/depthwise_kernel", "shape": [5, 5, 44, 1], "dtype": "float32"}, {"name": "separable_conv_2_normal_left1_2/pointwise_kernel", "shape": [1, 1, 44, 44], "dtype": "float32"}, {"name": "separable_conv_2_normal_left1_3/depthwise_kernel", "shape": [5, 5, 44, 1], "dtype": "float32"}, {"name": "separable_conv_2_normal_left1_3/pointwise_kernel", "shape": [1, 1, 44, 44], "dtype": "float32"}, {"name": "separable_conv_2_normal_left1_5/depthwise_kernel", "shape": [5, 5, 88, 1], "dtype": "float32"}, {"name": "separable_conv_2_normal_left1_5/pointwise_kernel", "shape": [1, 1, 88, 88], "dtype": "float32"}, {"name": "separable_conv_2_normal_left1_6/depthwise_kernel", "shape": [5, 5, 88, 1], "dtype": "float32"}, {"name": "separable_conv_2_normal_left1_6/pointwise_kernel", "shape": [1, 1, 88, 88], "dtype": "float32"}, {"name": "separable_conv_2_normal_left1_7/depthwise_kernel", "shape": [5, 5, 88, 1], "dtype": "float32"}, {"name": "separable_conv_2_normal_left1_7/pointwise_kernel", "shape": [1, 1, 88, 88], "dtype": "float32"}, {"name": "separable_conv_2_normal_left1_8/depthwise_kernel", "shape": [5, 5, 88, 1], "dtype": "float32"}, {"name": "separable_conv_2_normal_left1_8/pointwise_kernel", "shape": [1, 1, 88, 88], "dtype": "float32"}, {"name": "separable_conv_2_normal_left1_9/depthwise_kernel", "shape": [5, 5, 176, 1], "dtype": "float32"}, {"name": "separable_conv_2_normal_left1_9/pointwise_kernel", "shape": [1, 1, 176, 176], "dtype": "float32"}, {"name": "separable_conv_2_normal_left2_0/depthwise_kernel", "shape": [5, 5, 44, 1], "dtype": "float32"}, {"name": "separable_conv_2_normal_left2_0/pointwise_kernel", "shape": [1, 1, 44, 44], "dtype": "float32"}, {"name": "separable_conv_2_normal_left2_1/depthwise_kernel", "shape": [5, 5, 44, 1], "dtype": "float32"}, {"name": "separable_conv_2_normal_left2_1/pointwise_kernel", "shape": [1, 1, 44, 44], "dtype": "float32"}, {"name": "separable_conv_2_normal_left2_10/depthwise_kernel", "shape": [5, 5, 176, 1], "dtype": "float32"}, {"name": "separable_conv_2_normal_left2_10/pointwise_kernel", "shape": [1, 1, 176, 176], "dtype": "float32"}, {"name": "separable_conv_2_normal_left2_11/depthwise_kernel", "shape": [5, 5, 176, 1], "dtype": "float32"}, {"name": "separable_conv_2_normal_left2_11/pointwise_kernel", "shape": [1, 1, 176, 176], "dtype": "float32"}, {"name": "separable_conv_2_normal_left2_12/depthwise_kernel", "shape": [5, 5, 176, 1], "dtype": "float32"}, {"name": "separable_conv_2_normal_left2_12/pointwise_kernel", "shape": [1, 1, 176, 176], "dtype": "float32"}, {"name": "separable_conv_2_normal_left2_2/depthwise_kernel", "shape": [5, 5, 44, 1], "dtype": "float32"}, {"name": "separable_conv_2_normal_left2_2/pointwise_kernel", "shape": [1, 1, 44, 44], "dtype": "float32"}, {"name": "separable_conv_2_normal_left2_3/depthwise_kernel", "shape": [5, 5, 44, 1], "dtype": "float32"}, {"name": "separable_conv_2_normal_left2_3/pointwise_kernel", "shape": [1, 1, 44, 44], "dtype": "float32"}, {"name": "separable_conv_2_normal_left2_5/depthwise_kernel", "shape": [5, 5, 88, 1], "dtype": "float32"}, {"name": "separable_conv_2_normal_left2_5/pointwise_kernel", "shape": [1, 1, 88, 88], "dtype": "float32"}, {"name": "separable_conv_2_normal_left2_6/depthwise_kernel", "shape": [5, 5, 88, 1], "dtype": "float32"}, {"name": "separable_conv_2_normal_left2_6/pointwise_kernel", "shape": [1, 1, 88, 88], "dtype": "float32"}, {"name": "separable_conv_2_normal_left2_7/depthwise_kernel", "shape": [5, 5, 88, 1], "dtype": "float32"}, {"name": "separable_conv_2_normal_left2_7/pointwise_kernel", "shape": [1, 1, 88, 88], "dtype": "float32"}, {"name": "separable_conv_2_normal_left2_8/depthwise_kernel", "shape": [5, 5, 88, 1], "dtype": "float32"}, {"name": "separable_conv_2_normal_left2_8/pointwise_kernel", "shape": [1, 1, 88, 88], "dtype": "float32"}, {"name": "separable_conv_2_normal_left2_9/depthwise_kernel", "shape": [5, 5, 176, 1], "dtype": "float32"}, {"name": "separable_conv_2_normal_left2_9/pointwise_kernel", "shape": [1, 1, 176, 176], "dtype": "float32"}, {"name": "separable_conv_2_normal_left5_0/depthwise_kernel", "shape": [3, 3, 44, 1], "dtype": "float32"}, {"name": "separable_conv_2_normal_left5_0/pointwise_kernel", "shape": [1, 1, 44, 44], "dtype": "float32"}, {"name": "separable_conv_2_normal_left5_1/depthwise_kernel", "shape": [3, 3, 44, 1], "dtype": "float32"}, {"name": "separable_conv_2_normal_left5_1/pointwise_kernel", "shape": [1, 1, 44, 44], "dtype": "float32"}, {"name": "separable_conv_2_normal_left5_10/depthwise_kernel", "shape": [3, 3, 176, 1], "dtype": "float32"}, {"name": "separable_conv_2_normal_left5_10/pointwise_kernel", "shape": [1, 1, 176, 176], "dtype": "float32"}, {"name": "separable_conv_2_normal_left5_11/depthwise_kernel", "shape": [3, 3, 176, 1], "dtype": "float32"}, {"name": "separable_conv_2_normal_left5_11/pointwise_kernel", "shape": [1, 1, 176, 176], "dtype": "float32"}, {"name": "separable_conv_2_normal_left5_12/depthwise_kernel", "shape": [3, 3, 176, 1], "dtype": "float32"}, {"name": "separable_conv_2_normal_left5_12/pointwise_kernel", "shape": [1, 1, 176, 176], "dtype": "float32"}, {"name": "separable_conv_2_normal_left5_2/depthwise_kernel", "shape": [3, 3, 44, 1], "dtype": "float32"}, {"name": "separable_conv_2_normal_left5_2/pointwise_kernel", "shape": [1, 1, 44, 44], "dtype": "float32"}, {"name": "separable_conv_2_normal_left5_3/depthwise_kernel", "shape": [3, 3, 44, 1], "dtype": "float32"}, {"name": "separable_conv_2_normal_left5_3/pointwise_kernel", "shape": [1, 1, 44, 44], "dtype": "float32"}, {"name": "separable_conv_2_normal_left5_5/depthwise_kernel", "shape": [3, 3, 88, 1], "dtype": "float32"}, {"name": "separable_conv_2_normal_left5_5/pointwise_kernel", "shape": [1, 1, 88, 88], "dtype": "float32"}, {"name": "separable_conv_2_normal_left5_6/depthwise_kernel", "shape": [3, 3, 88, 1], "dtype": "float32"}, {"name": "separable_conv_2_normal_left5_6/pointwise_kernel", "shape": [1, 1, 88, 88], "dtype": "float32"}, {"name": "separable_conv_2_normal_left5_7/depthwise_kernel", "shape": [3, 3, 88, 1], "dtype": "float32"}, {"name": "separable_conv_2_normal_left5_7/pointwise_kernel", "shape": [1, 1, 88, 88], "dtype": "float32"}, {"name": "separable_conv_2_normal_left5_8/depthwise_kernel", "shape": [3, 3, 88, 1], "dtype": "float32"}, {"name": "separable_conv_2_normal_left5_8/pointwise_kernel", "shape": [1, 1, 88, 88], "dtype": "float32"}, {"name": "separable_conv_2_normal_left5_9/depthwise_kernel", "shape": [3, 3, 176, 1], "dtype": "float32"}, {"name": "separable_conv_2_normal_left5_9/pointwise_kernel", "shape": [1, 1, 176, 176], "dtype": "float32"}, {"name": "separable_conv_2_normal_right1_0/depthwise_kernel", "shape": [3, 3, 44, 1], "dtype": "float32"}, {"name": "separable_conv_2_normal_right1_0/pointwise_kernel", "shape": [1, 1, 44, 44], "dtype": "float32"}, {"name": "separable_conv_2_normal_right1_1/depthwise_kernel", "shape": [3, 3, 44, 1], "dtype": "float32"}, {"name": "separable_conv_2_normal_right1_1/pointwise_kernel", "shape": [1, 1, 44, 44], "dtype": "float32"}, {"name": "separable_conv_2_normal_right1_10/depthwise_kernel", "shape": [3, 3, 176, 1], "dtype": "float32"}, {"name": "separable_conv_2_normal_right1_10/pointwise_kernel", "shape": [1, 1, 176, 176], "dtype": "float32"}, {"name": "separable_conv_2_normal_right1_11/depthwise_kernel", "shape": [3, 3, 176, 1], "dtype": "float32"}, {"name": "separable_conv_2_normal_right1_11/pointwise_kernel", "shape": [1, 1, 176, 176], "dtype": "float32"}, {"name": "separable_conv_2_normal_right1_12/depthwise_kernel", "shape": [3, 3, 176, 1], "dtype": "float32"}, {"name": "separable_conv_2_normal_right1_12/pointwise_kernel", "shape": [1, 1, 176, 176], "dtype": "float32"}, {"name": "separable_conv_2_normal_right1_2/depthwise_kernel", "shape": [3, 3, 44, 1], "dtype": "float32"}, {"name": "separable_conv_2_normal_right1_2/pointwise_kernel", "shape": [1, 1, 44, 44], "dtype": "float32"}, {"name": "separable_conv_2_normal_right1_3/depthwise_kernel", "shape": [3, 3, 44, 1], "dtype": "float32"}, {"name": "separable_conv_2_normal_right1_3/pointwise_kernel", "shape": [1, 1, 44, 44], "dtype": "float32"}, {"name": "separable_conv_2_normal_right1_5/depthwise_kernel", "shape": [3, 3, 88, 1], "dtype": "float32"}, {"name": "separable_conv_2_normal_right1_5/pointwise_kernel", "shape": [1, 1, 88, 88], "dtype": "float32"}, {"name": "separable_conv_2_normal_right1_6/depthwise_kernel", "shape": [3, 3, 88, 1], "dtype": "float32"}, {"name": "separable_conv_2_normal_right1_6/pointwise_kernel", "shape": [1, 1, 88, 88], "dtype": "float32"}, {"name": "separable_conv_2_normal_right1_7/depthwise_kernel", "shape": [3, 3, 88, 1], "dtype": "float32"}, {"name": "separable_conv_2_normal_right1_7/pointwise_kernel", "shape": [1, 1, 88, 88], "dtype": "float32"}, {"name": "separable_conv_2_normal_right1_8/depthwise_kernel", "shape": [3, 3, 88, 1], "dtype": "float32"}, {"name": "separable_conv_2_normal_right1_8/pointwise_kernel", "shape": [1, 1, 88, 88], "dtype": "float32"}, {"name": "separable_conv_2_normal_right1_9/depthwise_kernel", "shape": [3, 3, 176, 1], "dtype": "float32"}, {"name": "separable_conv_2_normal_right1_9/pointwise_kernel", "shape": [1, 1, 176, 176], "dtype": "float32"}, {"name": "separable_conv_2_normal_right2_0/depthwise_kernel", "shape": [3, 3, 44, 1], "dtype": "float32"}, {"name": "separable_conv_2_normal_right2_0/pointwise_kernel", "shape": [1, 1, 44, 44], "dtype": "float32"}, {"name": "separable_conv_2_normal_right2_1/depthwise_kernel", "shape": [3, 3, 44, 1], "dtype": "float32"}, {"name": "separable_conv_2_normal_right2_1/pointwise_kernel", "shape": [1, 1, 44, 44], "dtype": "float32"}, {"name": "separable_conv_2_normal_right2_10/depthwise_kernel", "shape": [3, 3, 176, 1], "dtype": "float32"}, {"name": "separable_conv_2_normal_right2_10/pointwise_kernel", "shape": [1, 1, 176, 176], "dtype": "float32"}, {"name": "separable_conv_2_normal_right2_11/depthwise_kernel", "shape": [3, 3, 176, 1], "dtype": "float32"}, {"name": "separable_conv_2_normal_right2_11/pointwise_kernel", "shape": [1, 1, 176, 176], "dtype": "float32"}, {"name": "separable_conv_2_normal_right2_12/depthwise_kernel", "shape": [3, 3, 176, 1], "dtype": "float32"}, {"name": "separable_conv_2_normal_right2_12/pointwise_kernel", "shape": [1, 1, 176, 176], "dtype": "float32"}, {"name": "separable_conv_2_normal_right2_2/depthwise_kernel", "shape": [3, 3, 44, 1], "dtype": "float32"}, {"name": "separable_conv_2_normal_right2_2/pointwise_kernel", "shape": [1, 1, 44, 44], "dtype": "float32"}, {"name": "separable_conv_2_normal_right2_3/depthwise_kernel", "shape": [3, 3, 44, 1], "dtype": "float32"}, {"name": "separable_conv_2_normal_right2_3/pointwise_kernel", "shape": [1, 1, 44, 44], "dtype": "float32"}, {"name": "separable_conv_2_normal_right2_5/depthwise_kernel", "shape": [3, 3, 88, 1], "dtype": "float32"}, {"name": "separable_conv_2_normal_right2_5/pointwise_kernel", "shape": [1, 1, 88, 88], "dtype": "float32"}, {"name": "separable_conv_2_normal_right2_6/depthwise_kernel", "shape": [3, 3, 88, 1], "dtype": "float32"}, {"name": "separable_conv_2_normal_right2_6/pointwise_kernel", "shape": [1, 1, 88, 88], "dtype": "float32"}, {"name": "separable_conv_2_normal_right2_7/depthwise_kernel", "shape": [3, 3, 88, 1], "dtype": "float32"}, {"name": "separable_conv_2_normal_right2_7/pointwise_kernel", "shape": [1, 1, 88, 88], "dtype": "float32"}, {"name": "separable_conv_2_normal_right2_8/depthwise_kernel", "shape": [3, 3, 88, 1], "dtype": "float32"}, {"name": "separable_conv_2_normal_right2_8/pointwise_kernel", "shape": [1, 1, 88, 88], "dtype": "float32"}, {"name": "separable_conv_2_normal_right2_9/depthwise_kernel", "shape": [3, 3, 176, 1], "dtype": "float32"}, {"name": "separable_conv_2_normal_right2_9/pointwise_kernel", "shape": [1, 1, 176, 176], "dtype": "float32"}, {"name": "separable_conv_2_reduction_left1_reduce_4/depthwise_kernel", "shape": [5, 5, 88, 1], "dtype": "float32"}, {"name": "separable_conv_2_reduction_left1_reduce_4/pointwise_kernel", "shape": [1, 1, 88, 88], "dtype": "float32"}, {"name": "separable_conv_2_reduction_left1_reduce_8/depthwise_kernel", "shape": [5, 5, 176, 1], "dtype": "float32"}, {"name": "separable_conv_2_reduction_left1_reduce_8/pointwise_kernel", "shape": [1, 1, 176, 176], "dtype": "float32"}, {"name": "separable_conv_2_reduction_left1_stem_1/depthwise_kernel", "shape": [5, 5, 11, 1], "dtype": "float32"}, {"name": "separable_conv_2_reduction_left1_stem_1/pointwise_kernel", "shape": [1, 1, 11, 11], "dtype": "float32"}, {"name": "separable_conv_2_reduction_left1_stem_2/depthwise_kernel", "shape": [5, 5, 22, 1], "dtype": "float32"}, {"name": "separable_conv_2_reduction_left1_stem_2/pointwise_kernel", "shape": [1, 1, 22, 22], "dtype": "float32"}, {"name": "separable_conv_2_reduction_left4_reduce_4/depthwise_kernel", "shape": [3, 3, 88, 1], "dtype": "float32"}, {"name": "separable_conv_2_reduction_left4_reduce_4/pointwise_kernel", "shape": [1, 1, 88, 88], "dtype": "float32"}, {"name": "separable_conv_2_reduction_left4_reduce_8/depthwise_kernel", "shape": [3, 3, 176, 1], "dtype": "float32"}, {"name": "separable_conv_2_reduction_left4_reduce_8/pointwise_kernel", "shape": [1, 1, 176, 176], "dtype": "float32"}, {"name": "separable_conv_2_reduction_left4_stem_1/depthwise_kernel", "shape": [3, 3, 11, 1], "dtype": "float32"}, {"name": "separable_conv_2_reduction_left4_stem_1/pointwise_kernel", "shape": [1, 1, 11, 11], "dtype": "float32"}, {"name": "separable_conv_2_reduction_left4_stem_2/depthwise_kernel", "shape": [3, 3, 22, 1], "dtype": "float32"}, {"name": "separable_conv_2_reduction_left4_stem_2/pointwise_kernel", "shape": [1, 1, 22, 22], "dtype": "float32"}, {"name": "separable_conv_2_reduction_right1_reduce_4/depthwise_kernel", "shape": [7, 7, 88, 1], "dtype": "float32"}, {"name": "separable_conv_2_reduction_right1_reduce_4/pointwise_kernel", "shape": [1, 1, 88, 88], "dtype": "float32"}, {"name": "separable_conv_2_reduction_right1_reduce_8/depthwise_kernel", "shape": [7, 7, 176, 1], "dtype": "float32"}, {"name": "separable_conv_2_reduction_right1_reduce_8/pointwise_kernel", "shape": [1, 1, 176, 176], "dtype": "float32"}, {"name": "separable_conv_2_reduction_right1_stem_1/depthwise_kernel", "shape": [7, 7, 11, 1], "dtype": "float32"}, {"name": "separable_conv_2_reduction_right1_stem_1/pointwise_kernel", "shape": [1, 1, 11, 11], "dtype": "float32"}, {"name": "separable_conv_2_reduction_right1_stem_2/depthwise_kernel", "shape": [7, 7, 22, 1], "dtype": "float32"}, {"name": "separable_conv_2_reduction_right1_stem_2/pointwise_kernel", "shape": [1, 1, 22, 22], "dtype": "float32"}, {"name": "separable_conv_2_reduction_right2_reduce_4/depthwise_kernel", "shape": [7, 7, 88, 1], "dtype": "float32"}, {"name": "separable_conv_2_reduction_right2_reduce_4/pointwise_kernel", "shape": [1, 1, 88, 88], "dtype": "float32"}, {"name": "separable_conv_2_reduction_right2_reduce_8/depthwise_kernel", "shape": [7, 7, 176, 1], "dtype": "float32"}, {"name": "separable_conv_2_reduction_right2_reduce_8/pointwise_kernel", "shape": [1, 1, 176, 176], "dtype": "float32"}, {"name": "separable_conv_2_reduction_right2_stem_1/depthwise_kernel", "shape": [7, 7, 11, 1], "dtype": "float32"}, {"name": "separable_conv_2_reduction_right2_stem_1/pointwise_kernel", "shape": [1, 1, 11, 11], "dtype": "float32"}, {"name": "separable_conv_2_reduction_right2_stem_2/depthwise_kernel", "shape": [7, 7, 22, 1], "dtype": "float32"}, {"name": "separable_conv_2_reduction_right2_stem_2/pointwise_kernel", "shape": [1, 1, 22, 22], "dtype": "float32"}, {"name": "separable_conv_2_reduction_right3_reduce_4/depthwise_kernel", "shape": [5, 5, 88, 1], "dtype": "float32"}, {"name": "separable_conv_2_reduction_right3_reduce_4/pointwise_kernel", "shape": [1, 1, 88, 88], "dtype": "float32"}, {"name": "separable_conv_2_reduction_right3_reduce_8/depthwise_kernel", "shape": [5, 5, 176, 1], "dtype": "float32"}, {"name": "separable_conv_2_reduction_right3_reduce_8/pointwise_kernel", "shape": [1, 1, 176, 176], "dtype": "float32"}, {"name": "separable_conv_2_reduction_right3_stem_1/depthwise_kernel", "shape": [5, 5, 11, 1], "dtype": "float32"}, {"name": "separable_conv_2_reduction_right3_stem_1/pointwise_kernel", "shape": [1, 1, 11, 11], "dtype": "float32"}, {"name": "separable_conv_2_reduction_right3_stem_2/depthwise_kernel", "shape": [5, 5, 22, 1], "dtype": "float32"}, {"name": "separable_conv_2_reduction_right3_stem_2/pointwise_kernel", "shape": [1, 1, 22, 22], "dtype": "float32"}, {"name": "stem_bn1/gamma", "shape": [32], "dtype": "float32"}, {"name": "stem_bn1/beta", "shape": [32], "dtype": "float32"}, {"name": "stem_bn1/moving_mean", "shape": [32], "dtype": "float32"}, {"name": "stem_bn1/moving_variance", "shape": [32], "dtype": "float32"}, {"name": "stem_conv1/kernel", "shape": [3, 3, 3, 32], "dtype": "float32"}]}]}